adversarial_agent.pt (torch, 41400 bytes, 8 tensors)

fc1.weight f4 [64, 9]
000000 b4 cb 7b 3e 95 f9 56 be 4f ad 37 bf 8f b3 72 bd
       0.24589425 -0.20993645 -0.7174882 -0.05925327
000010 3d b9 90 bd 8c 69 9c 3e c8 56 41 3e fa e4 22 3e
       -0.070665814 0.30549276 0.1888076 0.1590766
000020 36 1d 80 3e 95 b1 c7 be 55 69 4e be a0 34 63 3f
       0.25022286 -0.39002672 -0.20157368 0.88752174
000030 85 91 28 ba 06 ea a3 be 6c 9b 33 3f a6 45 24 bf
       -0.00064303755 -0.32014483 0.7015903 -0.64168775
000040 1e 9b 86 bd 49 52 63 3f 23 8d 55 be 9a 56 4e 3e
       -0.06572555 0.8879743 -0.2085462 0.20150223
000050 d3 b3 04 bf 44 7a eb bd fa 0d 25 3f f6 ce 3d 3e
       -0.5183689 -0.1149793 0.6447445 0.1853598
000060 27 29 ab 3e 63 96 0b 3f de d3 28 3f 77 b0 2e be
       0.33429834 0.54526347 0.65948284 -0.17059503
000070 03 3e 89 bb cc a2 80 bf a3 8e f6 3e bd 23 22 3f
       -0.0041883006 -1.0049682 0.48155698 0.6333578
000080 b9 d9 8b bc a3 97 5a 3f 69 97 75 bd 44 b2 7c 3d
       -0.017071592 0.8538763 -0.05995885 0.061693445
000090 5b 7c b1 3e e4 9d 50 3e 94 b4 69 3d 07 37 3f bf
       0.34665188 0.2037273 0.05705698 -0.7469334
0000a0 e9 1b a5 bf 84 26 d8 3d b4 a0 34 bd ed 42 a4 3e
       -1.2899143 0.10554221 -0.04409857 0.3208231
0000b0 c9 38 26 3d ee 15 dd 3e e0 5a 17 bf f3 a6 66 3f
       0.0405815 0.43180794 -0.5912304 0.90098494
0000c0 43 aa 10 be 2c 10 65 3e f6 c9 55 bf 20 54 05 3d
       -0.1412745 0.2236945 -0.8351129 0.03255093
0000d0 40 17 97 be eb c6 fd 3e 9e 42 14 3f 7d cb 90 3e
       -0.29509926 0.49565825 0.5791415 0.2828025
0000e0 c6 e8 35 bf 74 0d c6 3e 2c e9 a5 bf 80 ed c6 3e
       -0.7105831 0.3868214 -1.2961783 0.38853073
0000f0 54 07 13 be 49 60 e6 3e 5d d0 b5 be 79 89 23 3f
       -0.14358264 0.44995335 -0.3551053 0.6388164
000100 08 bc 0d be d0 24 45 3d 7d b8 73 3e 21 ce 62 bf
       -0.1384126 0.04813081 0.23800845 -0.8859578
000110 47 7d 6a 3f 89 49 eb be b1 bb 85 bd 16 33 0b bf
       0.9159741 -0.4595454 -0.0652994 -0.54374826
000120 a8 bd d6 be 26 10 08 3d 5b 7b 5d bf 81 78 bf bd
       -0.4194157 0.033218525 -0.8651635 -0.09349156
000130 46 57 88 3f 80 4d 63 3d 0d 08 35 bf 30 0e 98 3e
       1.0651634 0.05549383 -0.7071541 0.29698324
000140 58 1b 09 bf 9e 58 7d 3e 67 b9 eb be 4c 87 40 3f
       -0.5355735 0.24740836 -0.46039888 0.75206447
000150 d5 7d e7 3d 73 35 9c 3e f2 49 cb 3c 9a 99 f7 3e
       0.113032974 0.3050953 0.024815533 0.48359376
000160 b7 aa 77 3e cc bf ce 3a b5 68 20 bf b4 7a 54 bc
       0.24186216 0.0015773713 -0.6265977 -0.012968708
000170 bf 66 28 bf 6d 1b 23 3e 2f 27 5e be 62 ab de be
       -0.6578178 0.15928431 -0.21694635 -0.4349013
000180 c4 d7 9d 3f c5 70 f4 3e 18 0c 16 3e d1 0f 78 3d
       1.2331471 0.47742286 0.14653051 0.06056196
000190 55 24 6a 3e c7 28 e6 be 8c d0 8f 3e cb f5 9b 3e
       0.22865422 -0.44952986 0.28088796 0.30460963
0001a0 f7 6d 6f bd 12 79 2b 3f 99 c3 66 3f 16 b4 a4 3e
       -0.05845448 0.66981614 0.9014221 0.32168645
0001b0 ef 0a be be 54 9d 17 3f 18 e1 b3 be 46 83 e1 bd
       -0.37117717 0.5922444 -0.3513267 -0.110113665
0001c0 45 57 5d 3f 08 9d 43 bd dc d2 d3 be b3 58 59 3f
       0.8646129 -0.04775718 -0.4137181 0.8490097
0001d0 50 25 d6 be fa a5 f9 3e 2f 5b 81 bd 24 be 5d bf
       -0.41825342 0.48759443 -0.0631622 -0.86618257
0001e0 f1 52 4b 3f 5d 50 89 3e 64 36 42 3e c7 eb 44 3f
       0.79423434 0.26819125 0.18966061 0.7692227
0001f0 c5 f7 8d 3c fc 53 8f be ae 45 23 bf 37 3f 97 be
       0.01733006 -0.27993762 -0.637782 -0.29540417
000200 81 33 00 3f 60 88 04 bf e0 fa da be 04 91 82 3e
       0.5007859 -0.5177059 -0.42769527 0.25501263
000210 ce 3b 1d 3d 59 c6 ec bc bc df b0 3f d3 25 eb be
       0.038387112 -0.028903173 1.3818278 -0.45927295
000220 7d 1e c6 be d2 cb 02 be f9 41 9c bd 11 33 a0 3f
       -0.38695136 -0.12773064 -0.07629771 1.2515584
000230 5b ae ec 3e 3c 16 21 3e 62 44 52 be fd b5 0f bf
       0.46226773 0.15731138 -0.20533898 -0.5613707
000240 d7 76 39 3f 2b 2b 62 3e 8a b0 dd be 04 9f 23 bf
       0.7244696 0.2208678 -0.4329875 -0.63914514
000250 2d 0b 74 bf 54 b5 f2 3e e1 29 f4 3e 3a 2f 83 bd
       -0.9532955 0.47403967 0.476882 -0.06405492
000260 ef bf 3f bf 62 f1 3e 3b 9a 57 18 3e fa b7 8d 3f
       -0.7490224 0.0029135575 0.14877167 1.107177
000270 b3 cd e4 be b8 77 96 be 91 76 50 be b7 0c 60 be
       -0.44688186 -0.29388213 -0.2035773 -0.2187985
000280 95 37 c4 3c 58 15 d0 bd 2c 1d 77 be 7e 3b a8 3e
       0.023952285 -0.10160321 -0.24132222 0.3285789
000290 7d f1 74 3f 21 6b ba be 82 2a be 3e ad 3c c7 bd
       0.9568098 -0.36409858 0.37141806 -0.0972837
0002a0 da 1c 87 be 3b 4f f4 bb 9d 2b ad 3e 50 62 61 3f
       -0.263892 -0.007455734 0.33822337 0.8804064
0002b0 ce d5 f6 3e a8 11 90 3e fa 1a 1f 3f 99 d4 9d be
       0.48209995 0.2813847 0.6215054 -0.30826262
0002c0 8e 90 7f be 32 2c ac 3e 1f 56 b9 bd 7a 98 21 bf
       -0.24957487 0.33627468 -0.090496294 -0.63123286
0002d0 c0 9e e8 3e a6 d1 e1 bd 9e 90 60 3d 5a 88 94 bf
       0.45433617 -0.110263154 0.054825418 -1.1604111
0002e0 b7 2e 9b be 0e bb 27 bd 47 5b a7 3e 5f a1 4d 3d
       -0.30309078 -0.040949874 0.32686827 0.050202724
0002f0 c5 b0 ab be 2a 2f e0 3c 0b 2f e2 bd fa 47 aa 3d
       -0.33533302 0.02736624 -0.11044129 0.0831451
000300 c4 55 e5 3e 10 91 2a bf 9b 55 d8 be 7e 42 58 bf
       0.44791996 -0.666276 -0.42252812 -0.8447646
000310 09 6d d7 bd 01 16 88 be f1 1b 18 3f 55 3c cd be
       -0.10518844 -0.26579288 0.59417635 -0.40085092
000320 8f ee 41 bf d8 51 b2 3e 34 46 ba be a2 63 41 be
       -0.75754637 0.34828067 -0.36381686 -0.18885663
000330 f8 af 76 3f 4f 6b 57 be de 99 00 bd 80 9b 4a 3e
       0.96362257 -0.21037029 -0.03139674 0.19785881
000340 07 6d ee 3e 90 30 52 be 07 60 7c 3e 6e 0d 63 bf
       0.46567556 -0.20526338 0.24646007 -0.8869237
000350 39 e6 d9 3e 4c 9e 00 3f bf 3f d0 3d 6b b6 4d bf
       0.42558458 0.5024154 0.101684086 -0.8035647
000360 0e f4 85 3c 32 3c 11 3e e4 33 03 be f2 aa 75 be
       0.016351726 0.14183119 -0.12812763 -0.23990992
000370 bf c0 1e bf e3 ea 97 3e 49 e4 b6 be aa 73 7a 3e
       -0.6201286 0.29671392 -0.35721043 0.24458185
000380 7c 20 48 bf 93 e9 0b be 39 b6 11 bf e6 bb bb be
       -0.7817457 -0.1366332 -0.56918675 -0.36666793
000390 37 62 a7 3e f5 d4 0e 3f 6b 7f 84 3e f1 d7 84 be
       0.3269212 0.55793697 0.25878462 -0.25946
0003a0 b0 92 28 be 3e 46 74 3f e2 89 d9 be ef 3f 0f bd
       -0.16462207 0.9541968 -0.4248801 -0.03497308
0003b0 bb db 17 be cc 3e 42 be fe 0d 09 bf 6c 2b c7 3d
       -0.14829914 -0.18969268 -0.53536975 0.09725079
0003c0 d1 24 a4 3e a0 83 47 3f 44 21 9b 3f 47 01 54 bd
       0.3205934 0.7793522 1.2119527 -0.05175903
0003d0 0f 22 36 bd 5e 60 24 be 21 ab 84 3f ba cb 64 be
       -0.044466075 -0.16052386 1.0364724 -0.2234334
0003e0 29 1e 61 bf ca 59 91 3f 52 71 d3 be c5 c2 2c bf
       -0.87936646 1.1355526 -0.41297394 -0.67484695
0003f0 99 14 63 3f e8 b5 53 3f 80 33 b8 3e dd f7 de 3d
       0.88703305 0.8269944 0.3597679 0.1088712

fc1.bias f4 [64]
000000 aa c9 9d 3f 96 2f a4 be a8 59 a4 be 8b 04 56 3e
       1.2327168 -0.32067555 -0.32099652 0.2090017
000010 94 30 b0 3f 30 db 69 3e 6b 01 64 3f 2d 07 a8 3f
       1.3764825 0.2283752 0.89064664 1.312719
000020 dc 32 d5 be e5 1a d5 bd 52 f2 b5 be b3 95 25 3e
       -0.41640365 -0.1040552 -0.35536438 0.16170387
000030 2f 97 b4 be 53 6e 9f 3d 64 0b ab be 94 e5 10 3e
       -0.35271594 0.077847145 -0.33407128 0.14150077
000040 b8 a8 22 3f 03 78 96 be d1 23 9b 3e 17 68 35 3e
       0.63538694 -0.29388437 0.30300763 0.17715488
000050 ca 72 25 3f 98 3d 66 3f 2d d3 c0 be 23 aa 79 3f
       0.6462828 0.89937735 -0.37661114 0.97525233
000060 5c f1 98 3f 4b 20 1f 3f 17 bb c3 be 68 53 5d be
       1.1948657 0.6215865 -0.38228676 -0.21613848
000070 8e fa 99 be e5 30 09 3f 32 d6 5b 3f e4 2f c8 3e
       -0.3007397 0.5359023 0.8587371 0.39099038
000080 b8 bc 68 3e e3 02 73 bd 7a b0 e8 be bb 2e a4 be
       0.2272824 -0.059328925 -0.4544714 -0.32066903
000090 0f 35 90 3f 0d ac ba 3f 83 45 3c 3f 76 11 56 be
       1.1266192 1.4583756 0.73543566 -0.20905098
0000a0 3b 52 68 3f 84 04 a1 3f b4 4f 72 3d 13 32 8d 3f
       0.90750474 1.2579503 0.059158042 1.1030906
0000b0 be 17 b8 be 5d 04 ff bd 86 9f 5c 3d 51 d6 2c 3f
       -0.35955614 -0.12452004 0.05386307 0.6751452
0000c0 20 2e f2 be 2e c2 13 be 40 4c 84 3f 19 32 99 3f
       -0.47300816 -0.14429542 1.033577 1.1968414
0000d0 cd 90 a1 bd 6b 90 6e 3f e6 a5 aa 3f 83 f2 56 3f
       -0.07888947 0.93189114 1.3331878 0.83963794
0000e0 2f 35 7a 3f 9a f3 a9 3e ba b9 a0 3f f0 21 26 3e
       0.977374 0.33193666 1.2556679 0.16223884
0000f0 01 09 98 3f 5d 27 0c 3e 11 9e 1d 3f 43 42 04 3f
       1.1877748 0.13686891 0.61569315 0.5166361

fc2.weight f4 [64, 64]
000000 f0 8a 50 3e a2 01 71 3e 96 99 18 3f 14 75 e8 3d
       0.203655 0.23535779 0.59609354 0.11350456
000010 93 80 9e 3d 8e 5b 61 3e a0 24 94 3e 72 82 04 be
       0.07739367 0.22007582 0.28934193 -0.12940386
000020 e0 e4 2b be b5 40 c5 3e da 5b 5e 3f 42 5f 71 3f
       -0.16786528 0.3852593 0.86858904 0.94285977
000030 fd 90 2a 3e 8c b5 e0 be da 1e e5 3e 07 9e 85 3e
       0.16656871 -0.4388851 0.447501 0.26097128
000040 6d 63 83 bd 44 85 55 3e e0 f4 8b 3e 30 e1 09 bf
       -0.06415448 0.20851618 0.27335262 -0.53859234
000050 24 d1 b8 3d 31 0b a7 be f1 c5 bf 3e 9d 0c 3e be
       0.090242654 -0.32625726 0.37455705 -0.18559499
000060 24 7f 38 be a1 99 5b 3d 45 5c 98 3f 6d 9f 8f 3e
       -0.1801725 0.05361331 1.1903158 0.2805132
000070 f7 1b b0 3c 7b d8 a5 be ef 1a bc bd 2d 5c 74 3e
       0.02149771 -0.32391724 -0.09184825 0.23863287
000080 b5 0e b9 3e e6 5e c3 3e b6 d3 c6 3e fa 72 fd 3e
       0.36144033 0.3815834 0.38833398 0.49501783
000090 b4 6b 9e bd 3d b7 c6 3d cf 6c 8a 3e 43 f3 9e 3e
       -0.077353865 0.09702919 0.2703614 0.3104497
0000a0 21 1e 5c 3e 6f 2d 6c 3e b0 3a ba be b3 3e b0 be
       0.21495868 0.23064207 -0.363729 -0.34422836
0000b0 29 53 f4 3e 1d e2 6f be ea fb ca 3e 25 f5 a9 3e
       0.47719696 -0.23426099 0.3964532 0.33194843
0000c0 6f 33 53 3f 83 02 16 3f 01 82 6d be 02 1e 8e 3e
       0.82500356 0.5859758 -0.23194124 0.2775727
0000d0 0e 98 0c 3f 49 31 83 3d dc 53 8e 3e 00 f7 e3 bd
       0.5491952 0.06405885 0.27798355 -0.11131096
0000e0 70 27 26 bc dd b6 e7 3e ca 9b 85 3e 08 a8 81 3e
       -0.010141239 0.452567 0.2609542 0.2532351
0000f0 30 40 e0 3d a8 47 d7 bd 30 8a 63 3e 81 0c 26 3e
       0.10949743 -0.10511714 0.22220683 0.16215707
000100 5b ae 85 3d 38 0c 35 3f 0f 1f 3a 3e a5 86 0b 3f
       0.06527396 0.7072177 0.1817591 0.54502326
000110 d7 e6 8b 3c 8a 49 85 3e f5 42 26 bd 9d 03 0c be
       0.017077846 0.26032668 -0.0405912 -0.13673253
000120 54 0b 6b be 0d a3 16 3f 73 23 e0 3e 11 12 c3 bd
       -0.2295354 0.58842546 0.43777046 -0.0952493
000130 c7 3e 0b 3e 09 2f e6 3e 64 fa dd 3e 27 68 27 3e
       0.13598166 0.4495776 0.43355095 0.16348325
000140 ac f6 81 3e 5b 09 33 3f 02 5e 29 3f 39 a8 f2 3e
       0.25383508 0.6993615 0.6615907 0.4739397
000150 cc 6e 57 3e 3c 57 81 be 28 bd 2b 3f 56 51 10 3d
       0.2103836 -0.25261867 0.67085505 0.035233818
000160 5d 65 a0 be fe b4 b7 bd 52 a0 30 be 99 97 8b 3e
       -0.31327334 -0.089700684 -0.17248657 0.27264097
000170 a7 a1 e2 3e 94 db ab 3e da d8 17 be ed 63 40 bd
       0.44263956 0.33565962 -0.14828816 -0.046970297
000180 dc 6e f5 3d 00 47 21 3f 42 90 31 3d d9 0f 19 3f
       0.119840354 0.6299896 0.043350466 0.59789807
000190 82 f3 e5 bd 1c f2 cc bc e7 0a 1b 3e 69 5a 21 3f
       -0.11228086 -0.02501779 0.15140878 0.6302858
0001a0 2f 5b 67 bd 2e e3 b3 3d cb 6c a1 3e f1 4a 4e be
       -0.056483444 0.087835655 0.31528315 -0.20145775
0001b0 e4 64 73 3e 54 0d 3e 3f 6b ea d0 3e 30 e0 5e 3e
       0.23768955 0.7423909 0.40803847 0.21765208
0001c0 49 67 0f 3f 23 f0 ca 3e bb 53 f8 be 95 64 b7 3c
       0.56016976 0.39636335 -0.4850138 0.022386828
0001d0 34 84 80 3e 5f c7 30 3d e3 a9 02 be 1b 20 f0 be
       0.25100863 0.043158885 -0.12760119 -0.46899495
0001e0 02 2e 00 3d 69 45 b2 3e b7 8a c0 3e 33 c1 13 3e
       0.031293876 0.3481858 0.3760583 0.14429168
0001f0 8a 95 97 bc 1d bf db 3e 17 53 71 3e bc 49 f2 3c
       -0.018503923 0.42919245 0.23566853 0.029576175
000200 17 31 26 3e dc 8d de be 55 50 33 bf 02 10 41 bf
       0.16229664 -0.43467605 -0.7004445 -0.7541505
000210 2e 5c 50 3f e5 94 99 be 89 ab 47 3f 41 0b 8d 3f
       0.81390655 -0.2999641 0.77996117 1.101906
000220 2d ba 18 bf 18 e4 0e bf 82 bd 84 bf e5 1a 49 bf
       -0.5965908 -0.55816793 -1.0370333 -0.7855666
000230 0d 9b 1d bf e5 a5 12 3e 84 e2 0a bf 83 c1 34 be
       -0.61564714 0.14321096 -0.54251885 -0.17651944
000240 d6 e9 2a 3f 83 09 99 be 2e 1c da be f5 4c 1b 3f
       0.66763055 -0.2989007 -0.42599624 0.606643
000250 50 d5 fc 3e 4f b9 6d 3f f5 9c 0f bf 0e 9f 6e 3f
       0.49381495 0.92860883 -0.5609887 0.9321145
000260 3f 29 81 3f 82 88 c7 bd d3 49 29 bf 4f 3f a8 be
       1.0090712 -0.09742834 -0.6612827 -0.328608
000270 40 31 aa 3d 42 03 0a 3f 10 97 b5 3e 6a 4c 41 3e
       0.08310175 0.5391122 0.35466814 0.18876806
000280 84 3f 24 be 71 57 10 be f8 1f ef be 6a 69 b4 be
       -0.16039854 -0.14095856 -0.46704078 -0.35236675
000290 92 21 48 3f 77 8a 7a 3e d5 c0 3e 3f 23 50 90 be
       0.78176224 0.24466883 0.7451299 -0.2818614
0002a0 e1 7d 0d 3f b8 51 5d 3f 51 10 60 3e 63 32 61 3f
       0.552702 0.8645282 0.21881224 0.8796751
0002b0 c0 14 0c bf 6a de a8 3d 97 45 ff be 44 00 8c 3e
       -0.5471916 0.08245547 -0.4985778 0.27343953
0002c0 82 bc 80 be f2 31 26 bf 78 9d 60 3f 2a 81 ef 3e
       -0.2514382 -0.6491996 0.8774028 0.46778232
0002d0 91 08 8d be 40 87 66 3f f3 ed 3a 3e 60 54 92 be
       -0.27545598 0.90050125 0.18254833 -0.28579998
0002e0 fc 7a 0e 3f 9b e5 06 be 6b 1f bd bd 11 dc 28 bf
       0.5565641 -0.13173525 -0.09234508 -0.65960795
0002f0 4b 56 88 3f 1a 57 a4 be cf f8 41 3f 8d d6 83 be
       1.0651335 -0.32097703 0.75770277 -0.25749627
000300 b4 e9 a1 3e bf ad c6 3e 8d e1 d5 3e 12 9e 67 3f
       0.31623614 0.38804433 0.41773644 0.9047557
000310 36 b6 cb bd 64 2c 56 3e 9b 47 09 be a9 c5 9f bd
       -0.09946863 0.20915371 -0.13406222 -0.078013726
000320 63 9d ba 3e 05 b2 2f 3e d3 09 b5 3e 36 fa 54 3e
       0.36448202 0.17157753 0.35359058 0.20798573
000330 06 b7 96 3e ac 91 c9 3e 05 d9 fc 3d 8a 46 42 3e
       0.2943651 0.3936895 0.12346081 0.18972221
000340 95 a5 6a bd 1a 67 b9 3e ba 40 d3 3e 04 ef ac 3e
       -0.057286818 0.36211473 0.4126032 0.33776104
000350 41 9e 6d be ce c2 e0 be 72 a1 13 3f 22 f5 8b 3e
       -0.232049 -0.43898624 0.5766822 0.2733546
000360 e6 49 cd be 3a ad 46 3f b5 7e 86 be 50 43 a1 3e
       -0.40095443 0.7760807 -0.26268545 0.31496668
000370 cc 87 8b 3e ba 78 da 3d a0 fa 01 3c 39 a4 99 be
       0.27252042 0.10667558 0.007933289 -0.30008104
000380 90 93 d4 3d cc 98 8f 3e 21 35 37 3f 7e c4 68 3f
       0.10379708 0.28046262 0.71565443 0.90924823
000390 e6 c8 27 3d 6f ca 24 3e 27 1c 9b 3e 19 c4 a3 3e
       0.040963076 0.16092847 0.30294916 0.31985548
0003a0 09 bd 90 bd 19 d6 7d 3e e0 87 2d 3e c1 56 96 3e
       -0.070673056 0.24788703 0.16946363 0.29363063
0003b0 d5 9d ed 3e cf 63 87 3e 05 b0 68 3e d5 f9 a6 3e
       0.4640948 0.26443335 0.22723396 0.32612482
0003c0 fb ea 78 3d 58 00 0a 3f 78 f6 3b be 34 b8 15 be
       0.06077097 0.53906775 -0.18355739 -0.14621049
0003d0 a1 b4 d0 3e 55 17 5a 3d df 1a 9b bc 46 11 94 3e
       0.4076281 0.053244907 -0.018933712 0.2891943
0003e0 ed 90 44 3e 61 0f 1b 3f 74 ec 7b 3e a5 8c ef 3d
       0.1919591 0.6057034 0.24601918 0.11696748
0003f0 c6 80 c5 be 1f 01 a0 3e f5 5b 25 bf 38 b9 f9 3e
       -0.3857481 0.31250855 -0.6459344 0.48774123

fc2.bias f4 [64]
000000 73 fd 37 3d 75 6c b7 be e4 f8 62 3f 67 9d 07 be
       0.044919442 -0.35824934 0.88661027 -0.13243638
000010 4b 3e 71 be d0 b1 26 3e eb df 3b 3f 76 2c 84 3f
       -0.23558919 0.16278768 0.73388547 1.0326068
000020 cf 58 c0 be 7c fe 4e 3f fd 33 2e 3f a0 af a6 bd
       -0.37567756 0.8085706 0.6804808 -0.081389666
000030 48 a8 ab 3e 7f b2 18 3e d3 74 bb bd 86 8e 31 3d
       0.33526826 0.14911841 -0.09153142 0.04334881
000040 4f b7 85 be 2d 0a f5 be 4d 86 65 3f a1 3f bc bd
       -0.26116416 -0.47859326 0.8965805 -0.09191824
000050 47 43 80 3f 01 10 8e be 31 5f 2f 3f 25 12 33 3f
       1.0020531 -0.27746585 0.68504626 0.6994956
000060 95 87 24 3f f5 ab 25 be d5 37 0d 3e 5c 33 8f be
       0.6426938 -0.16178878 0.1379083 -0.27968872
000070 84 02 75 3f 39 6f 05 be 86 52 f4 3d 79 05 ba be
       0.95706964 -0.1303071 0.119298026 -0.363323
000080 b1 03 d1 3e 49 47 82 3f 20 b5 58 3f c9 a8 57 3f
       0.4082313 1.0178005 0.84651375 0.8424192
000090 9f a8 78 3f a8 38 9e bd 61 fb 2c bd b3 cd 44 3f
       0.97132295 -0.0772565 -0.04223192 0.7687637
0000a0 eb 2c 4a 3f e0 86 a5 be 6c 8c 0c 3f 86 11 25 3f
       0.7897479 -0.32329464 0.54901767 0.64479864
0000b0 c2 16 2d 3f 3d 07 20 3f 43 38 55 bd e6 82 66 be
       0.6761285 0.62511045 -0.05205561 -0.22510871
0000c0 a8 59 55 bd e9 e5 42 3f a0 63 e3 bd ac d2 16 be
       -0.052087456 0.76132065 -0.11102986 -0.14728802
0000d0 5b 28 85 3e 10 2e b4 be 75 75 95 3d f0 e8 a3 be
       0.2600735 -0.35191393 0.07297794 -0.32013655
0000e0 08 4f 03 3f 54 83 0f be a1 b9 2d 3f 86 9c 83 3f
       0.5129247 -0.14014941 0.6786137 1.0282142
0000f0 f3 45 87 be ce d5 38 3e 0c 38 74 3f dc 6d 25 3d
       -0.26420555 0.1805031 0.9539802 0.040387973

fc3.weight f4 [64, 64]
000000 a3 2b 8c be 78 a4 95 bf 95 b8 66 3f 4d af cb be
       -0.27377042 -1.1690817 0.901254 -0.3978218
000010 ec 5f 77 bf f1 10 77 3f c8 67 cc 3e 41 08 46 3f
       -0.9663074 0.96510226 0.3992293 0.77356344
000020 2a 52 65 bf cc 94 ad 3e 83 88 82 3f a0 24 f6 bd
       -0.895785 0.33902586 1.019791 -0.120187044
000030 23 df bb be 42 37 2b 3f 38 2c ac bf 55 07 99 3e
       -0.36693677 0.6688119 -1.3450994 0.29888406
000040 45 67 73 bf 32 5c 0e bf ff 0c 78 3f 95 87 ab 3d
       -0.9507945 -0.5560943 0.9689483 0.083754696
000050 3c 28 49 3f 05 5e 3a bf e0 ff 21 bd 34 23 6c 3f
       0.7857702 -0.7279971 -0.039550662 0.92241216
000060 2a ea 9d 3f 32 d3 9c be c6 fd 01 3f 60 4e 4a bf
       1.2337086 -0.3062988 0.5077785 -0.7902584
000070 a7 77 3e 3f 97 3f c3 be c2 30 9e be 33 9b 5f bf
       0.74401325 -0.38134453 -0.30896574 -0.8734619
000080 9c a2 8f 3f 7d 99 22 3f ce 96 37 3f 54 12 27 3f
       1.12215 0.63515455 0.71714485 0.6526234
000090 a2 02 87 3f 40 c6 bb bf 26 a9 0a be 45 f2 59 3f
       1.0547678 -1.4669876 -0.13541088 0.851353
0000a0 a4 8b 90 3f ae b7 4c bf 75 ed 70 3f 26 f9 cc 3e
       1.1292615 -0.7996777 0.9411233 0.40033835
0000b0 8c 40 33 3f 97 17 9b 3f 57 a9 e3 bd 3e 87 24 be
       0.70020366 1.2116574 -0.111162834 -0.16067216
0000c0 0b 92 60 be af 29 2e 3f e8 d5 cc be 77 d2 d0 be
       -0.21930711 0.68032354 -0.40006948 -0.40785572
0000d0 d0 59 c0 be 42 9f 90 bf d3 8a 1e 3e 3b 6c 61 bf
       -0.37568521 -1.1298602 0.15482645 -0.8805577
0000e0 47 61 d5 3f bb 2f 04 be a2 f6 ba 3f 5a 34 59 3f
       1.6670312 -0.12908833 1.4606516 0.8484551
0000f0 ac eb 4b bf d8 28 1b bd 6b b6 9a 3f 20 25 1a bf
       -0.7965648 -0.03788075 1.208692 -0.602129
000100 97 cc f2 3c bf 8e ac be be f7 cf 3e b9 ee 37 be
       0.029638572 -0.33702657 0.406187 -0.17962159
000110 5a e9 27 be 5c 7f 8f 3f 4e 2b 26 3e 87 78 f9 3e
       -0.1639761 1.1210742 0.16227457 0.48724768
000120 27 75 11 be 68 31 6d 3e 3f f7 ad 3e ff 34 c7 3e
       -0.14204846 0.23163378 0.33977696 0.3890762
000130 d8 50 3f 3e d4 36 92 3e a0 1a a1 bf 03 a0 42 3f
       0.18683183 0.28557456 -1.258625 0.7602541
000140 45 39 1e bd 1b 11 5f be 20 e9 39 3f 1a d5 e0 be
       -0.038628835 -0.21783869 0.72621346 -0.43912584
000150 08 3d b8 3e 40 82 31 bd df 42 64 bd 1a b4 03 be
       0.35984063 -0.043337107 -0.055727836 -0.12861672
000160 4f b7 04 3f 40 1e b3 3d 9d 2a 3e 3f e0 87 3e bf
       0.51842207 0.08746004 0.7428377 -0.7442608
000170 8e 1d 9c 3d f2 31 4a bd 7b a3 d4 3e b1 91 29 3e
       0.076228246 -0.049364038 0.41530976 0.16559483
000180 c8 77 0e 3f 06 d7 9f 3e f3 8f 3a bc 10 6c f1 3e
       0.5565152 0.31218737 -0.011386859 0.47152758
000190 cb 07 cd 3e 53 6d c4 bf bf 47 e2 3e c3 2a df 3e
       0.40045008 -1.5345863 0.44195363 0.43587312
0001a0 35 54 2f 3f 44 14 96 bd 3a 7a 36 3f 62 42 a7 bd
       0.68487865 -0.07328084 0.7128025 -0.081669584
0001b0 6d 89 8b 3e 05 3d e9 3e 83 a1 94 be b4 69 a4 3e
       0.27253285 0.45554367 -0.29029474 0.32111895
0001c0 0a 96 9c bd 74 9a b4 3e 7d c2 4e 3e 2c 02 94 be
       -0.07645805 0.35274088 0.20191379 -0.28907907
0001d0 90 19 3d be 6c f7 0b bf 17 3e 9a 3d 8a fb 0e 3d
       -0.18466783 -0.5467441 0.07531374 0.034907855
0001e0 34 8d 82 3f c3 63 2b be d5 a5 40 3f ea 8a d9 3d
       1.0199342 -0.16737275 0.7525304 0.10622199
0001f0 a8 3b 5b bf 94 6e 15 3f 0d b6 0c 3f 5f 52 ee be
       -0.85637903 0.58371854 0.5496529 -0.4654722
000200 ad 5f 26 3f e0 e1 52 3f 5b 6d 1e be ca dc d5 3d
       0.6498974 0.8237591 -0.15471403 0.10442503
000210 c3 ab c9 3e 65 71 a5 3e c2 db c0 be 22 fe 10 3e
       0.39388856 0.32313076 -0.37667662 0.14159444
000220 89 c7 d8 3e 7f fb 5d 3e 69 fe 02 be 3c c0 da 3e
       0.42339733 0.2167797 -0.12792362 0.42724788
000230 9d bc 66 3e 4d fa 47 3f 76 7d 70 3f 74 01 15 3f
       0.22532888 0.78116304 0.9394144 0.5820534
000240 13 90 4f 3f f5 e3 27 3f 89 41 97 3d b3 ae 89 3e
       0.81079215 0.6558221 0.07385547 0.26891097
000250 3a 91 15 3e 56 a7 66 3f 37 fe 70 3d f2 6b 4a be
       0.14606181 0.90099084 0.05883619 -0.1976774
000260 26 47 0f be 81 6a c2 3e e2 12 a2 bd 18 eb b0 3e
       -0.13991985 0.3797188 -0.07913758 0.34554362
000270 f3 35 89 3d 58 0c a0 3e cd b0 06 bf 5e 4d a9 3e
       0.06699743 0.31259418 -0.52613527 0.3306684
000280 57 e4 48 bd 7f a8 1a 3e 5f 64 e6 be bc 3d 89 bd
       -0.049045887 0.15103339 -0.44998452 -0.06701228
000290 cb 1f 5b be ae 4f 1f 3f 29 3d c3 be b2 af 17 3e
       -0.21398847 0.62230957 -0.381326 0.14813116
0002a0 6f 5c 70 3d 37 1f 82 3f 3f 8e a7 3e c4 4a 8b 3e
       0.0586819 1.0165776 0.32725713 0.2720548
0002b0 4b 3d ec 3d d3 6f 65 be e0 7f 8c 3f cc 86 83 3d
       0.11535128 -0.22405939 1.0976524 0.06422195
0002c0 c3 1b 03 3f c5 44 38 3e dc bb 3a 3f fc eb 5d 3e
       0.51214236 0.17994983 0.729429 0.21672052
0002d0 2a e7 f1 be 81 9b 1f 3f 63 be 1d 3f 77 92 7e 3e
       -0.47246677 0.62346655 0.6161863 0.2486056
0002e0 35 e3 24 bf d3 b3 22 3f 23 4d a0 3d 4a 73 79 3b
       -0.6440919 0.6355564 0.07827213 0.0038063102
0002f0 ac 96 5d 3f 7c 76 05 be fb db e7 be 26 a7 1f 3e
       0.8655803 -0.1303348 -0.4528502 0.15591106
000300 ea 53 ec 3d 12 c7 24 3f 93 90 a2 be fe 9b 04 3f
       0.11539443 0.6436626 -0.31750926 0.51800525
000310 e6 0f 26 3f 61 6d 25 3e 7a d9 b2 3d bc 07 bb bd
       0.6486801 0.16155006 0.087328866 -0.091323346
000320 c9 9d 0c 3f ea 40 94 3e 52 78 1f bd a1 51 46 3e
       0.5492826 0.28955775 -0.038933106 0.19367076
000330 7f e1 bd 3e 06 18 97 3e 87 d1 a2 be 77 19 89 3d
       0.37086102 0.29510516 -0.31800482 0.0669431
000340 a5 09 19 3f cf 13 1a 3f b6 f2 be bd 11 39 22 3f
       0.5978034 0.60186476 -0.09323637 0.63368326
000350 a9 f9 df 3c 09 ae e5 3e ab 72 25 3e 0d 10 f1 be
       0.027340727 0.4485934 0.16157024 -0.47082558
000360 e6 36 3a bf 91 ed fe be 15 01 23 3f e5 67 75 3f
       -0.7274002 -0.49790624 0.63673526 0.95861655
000370 4e 9e 0b 3e a6 d5 58 3f d6 23 d3 3d 17 a4 fe 3e
       0.13634607 0.84701 0.103095695 0.49734566
000380 ee f9 15 bf 91 cb 20 3e 8c 71 60 be 05 93 42 3d
       -0.5858449 0.15702654 -0.21918315 0.04750349
000390 20 5c 8e be 3e 37 50 3e ad c9 03 3e c1 67 59 3e
       -0.2780466 0.20333573 0.12869902 0.21230985
0003a0 f3 6f 8f be 1f 70 37 3f 9f a0 2b be 67 14 81 3e
       -0.28015098 0.7165546 -0.16760491 0.25210878
0003b0 78 47 67 3e c8 c4 60 bf 5e 9a 46 3f 66 32 6c 3e
       0.22585857 -0.87800264 0.77579296 0.230661
0003c0 54 45 41 3f 0a 26 0a 3e 4a 3d cb 3e 54 35 dd 3e
       0.7549641 0.13491073 0.39695197 0.4320475
0003d0 88 fa 97 3e 85 8d 03 3f fd 23 a9 3d 7e c5 1e 3f
       0.29683328 0.51387817 0.08258817 0.620201
0003e0 59 37 5f bf 44 1c 64 3e 58 ed a0 bf 4a a8 5a 3b
       -0.8719383 0.22276407 -1.2572432 0.0033364468
0003f0 ed 58 7c 3f 34 52 02 be 5c ff c7 be 41 1f d2 be
       0.9857319 -0.1272667 -0.3906201 -0.4103947

fc3.bias f4 [64]
000000 7e fd 31 3f 46 85 19 3d cb 8e 3c be ea cc 71 be
       0.69527423 0.037480615 -0.18413846 -0.23613325
000010 b5 e2 2c 3e 9a ff 40 be 1b 86 12 3f 02 d5 d4 bd
       0.16883357 -0.18847504 0.5723588 -0.103921905
000020 77 f1 28 3d 0c 2c 17 3e a9 48 f2 3e 54 5f ed 3e
       0.041245904 0.14762896 0.4732106 0.46361792
000030 e4 5f 09 be e0 ae 87 3e 3e d3 10 3f bd 1c 51 3f
       -0.13415486 0.26500607 0.5657233 0.81684476
000040 9e e3 6a 3f 29 ef e0 3e 42 0f 4d 3e 5e 57 1f 3e
       0.91753566 0.43932465 0.20025352 0.15560672
000050 a4 75 3b bd 8d 5f 3c 3f 83 d1 2a be 8e 67 0b 3e
       -0.045766488 0.735833 -0.16681485 0.13613722
000060 ec 28 fe 3e 37 2a 00 bc 2b 36 97 3e b6 ae 8c 3d
       0.49640596 -0.007822565 0.29533514 0.06869261
000070 80 13 b8 bd 32 63 8b bd 43 f9 de 3d 91 7d 62 3f
       -0.08988094 -0.068060294 0.10887387 0.8847285
000080 ef 95 d3 3e ff 23 96 3e bb 85 8f 3c dd 5c 57 3e
       0.41325328 0.29324338 0.017519822 0.21031518
000090 7d c3 c5 3c 49 65 88 be 9a 73 58 3f 22 56 62 3f
       0.024141068 -0.26639774 0.84551394 0.8841268
0000a0 ef 51 f1 3e 60 bf f2 3d 46 92 22 bd 6e 21 26 3e
       0.47132823 0.11852908 -0.03969028 0.1622369
0000b0 0a 7e 4a 3c 84 f8 7a 3d 46 2d 99 3e 40 51 d4 3e
       0.012359152 0.06127216 0.29917353 0.4146824
0000c0 f6 b4 35 3d 60 0c a0 3e 97 b7 a1 3e 62 bb 26 3e
       0.04436203 0.3125944 0.3158538 0.16282418
0000d0 20 5e 62 3f 7c 67 2f 3f 0c 95 f2 3e f1 4d 24 be
       0.88424873 0.6851728 0.4737934 -0.16045357
0000e0 88 f3 21 bd 2f 97 bd 3e 4e 9d 16 3e c8 ff b5 3e
       -0.03953889 0.37029406 0.14708444 0.35546708
0000f0 d1 3d 9a bd d9 6a 29 3f e2 85 a9 3e d3 9d 10 3f
       -0.07531322 0.6617866 0.33109957 0.5649082

fc4.weight f4 [9, 64]
000000 3f 9f a3 bf 53 42 a5 bf 0c 31 0c 3f 24 a4 16 3f
       -1.2782973 -1.2910866 0.5476234 0.5884421
000010 f8 f7 14 3f 3a f5 88 3f af a6 44 bf 30 61 79 3d
       0.5819087 1.0699837 -0.7681684 0.0608837
000020 69 14 43 3f 6e ca 0e 3f 64 45 c7 bf 9c d7 53 3e
       0.7620302 0.55777633 -1.5568051 0.20687717
000030 f3 e3 9d be 85 3d 42 be 67 00 9c be dd ee 6b bf
       -0.30837974 -0.1896878 -0.30469057 -0.9216135
000040 aa ab f3 be 60 c5 d1 bf c5 fb 52 be 52 76 bc bf
       -0.47591907 -1.6388359 -0.20603855 -1.4723608
000050 2d 96 f8 3e a5 37 c5 bf ec 24 56 3f 20 ed ff 3d
       0.48552075 -1.5407606 0.8365009 0.124964
000060 d9 63 30 bf 95 e2 3a be b8 53 b2 bf 30 cc a2 bf
       -0.68902355 -0.18250497 -1.3931799 -1.2718563
000070 9a b6 85 bf 86 15 e6 3e 64 dd fc 3e c3 a9 12 bf
       -1.044635 0.44938296 0.49387658 -0.57290286
000080 d7 f4 cf 3e 31 ce 44 be 44 38 24 3f 37 c5 e1 3e
       0.40616485 -0.19219281 0.64148355 0.44095775
000090 49 06 a5 3e 94 29 39 3f 18 88 26 bf b0 25 a7 bf
       0.32231358 0.7232907 -0.6505141 -1.3058376
0000a0 b4 7d 6f bf ac 8e 15 3e b5 bc 05 bd 66 73 67 3e
       -0.9355118 0.14605206 -0.03265067 0.22602615
0000b0 94 74 d9 bd 57 80 53 be 39 de 75 3f e7 be 6d bf
       -0.10617939 -0.20654427 0.9604221 -0.9286942
0000c0 ba 68 64 3f 1f 0c a0 3d f9 79 e6 be 63 ba 91 bf
       0.892223 0.07814812 -0.45014933 -1.1385006
0000d0 5f 02 19 bf 8a e7 96 bf 19 56 8f bf b6 fe f3 3e
       -0.59769243 -1.178941 -1.119815 0.47655267
0000e0 21 d4 11 bf e5 35 32 3d ca 97 7f 3e a9 d7 77 bf
       -0.5696431 0.04350843 0.24960247 -0.96813446
0000f0 08 93 01 bd 27 5a 3e bf 28 85 c5 be 06 19 fa bd
       -0.03163436 -0.7435631 -0.38578153 -0.12211804
000100 e8 b0 89 bf 8d 99 08 bf bb f7 1c 3f bc 6f 89 be
       -1.0757113 -0.533593 0.61315507 -0.2684306
000110 fa 23 58 bf d5 3a 80 3e be 91 49 be c0 ac 01 3b
       -0.84429896 0.25044885 -0.19684502 0.0019786805
000120 d0 37 0f bd 43 bf eb 3e cd 30 c1 bf ca e9 c3 be
       -0.034965336 0.4604436 -1.5093018 -0.38264304
000130 e9 a8 0b 3f b8 b0 01 bf a2 47 5f 3e 87 3b c5 bf
       0.5455461 -0.50660276 0.2180467 -1.5408791
000140 de e1 8a bf 4d 01 b8 bf c2 d1 99 3e 16 a0 32 3e
       -1.0850179 -1.4375397 0.30042845 0.1744388
000150 7a 22 be 3e 92 18 80 bf ac 4d 8e 3e ab 3a 75 3e
       0.3713568 -1.0007498 0.27793634 0.23948161
000160 a4 1a 57 bf 4a ce 83 3e ec c1 c1 be 90 0f c1 be
       -0.84025025 0.25743324 -0.37843263 -0.37707186
000170 ef 23 a4 be 79 80 7a 3f 7e e9 45 bf 41 2c 6f bf
       -0.32058665 0.97852284 -0.77309406 -0.934269
000180 9b 00 e2 3c 6a 3d b2 3e fb 58 2a 3e 6d 5e 93 be
       0.02758818 0.3481248 0.16635506 -0.2878298
000190 35 dd 79 be 95 83 1c 3f aa 1f 92 be f5 b1 88 bf
       -0.2440079 0.6113828 -0.28539783 -1.0679308
0001a0 de 17 47 bf 87 af 2a 3e 7a 0a 0a 3f 2e 0b 90 bc
       -0.77770793 0.16668521 0.53922236 -0.017583456
0001b0 2a 83 95 3c 5e bd 9d 3e 2b a7 fb be 44 bd fe be
       0.01825102 0.30808538 -0.49150977 -0.49753773
0001c0 c0 8f 8e 3b f8 9f 16 3a 83 aa a9 bd 13 d4 8e 3e
       0.0043506324 0.0005745883 -0.08284476 0.27896175
0001d0 4f e9 5b be ba 5e 1f bf bf ad 0b bf 06 36 b5 3e
       -0.21475719 -0.62253916 -0.5456199 0.3539278
0001e0 5f 41 4a bd b1 e5 9e be 4d 1d d7 3c 9a 78 95 bf
       -0.04937875 -0.31034616 0.026259089 -1.167743
0001f0 bf 1e 1a bd b6 ad b0 bf 1a fb f5 be 00 d9 7c bf
       -0.037626978 -1.3803012 -0.48043138 -0.98768616
000200 d2 42 64 bf 1f 36 54 bf e4 c0 67 be ff 45 f0 be
       -0.8916446 -0.8289508 -0.22632176 -0.46928403
000210 5c 51 fd be 0d 5b 13 3f 70 17 7d be c4 6f fa bd
       -0.49476135 0.5756081 -0.24715972 -0.12228349
000220 a9 a8 0b 3f 22 17 77 3f d4 db 93 bf 60 50 8d bf
       0.5455423 0.9651967 -1.1551461 -1.1040154
000230 63 c5 36 3f f7 c7 0b bf eb dc 88 3f 81 3d fe be
       0.7139494 -0.54602 1.0692419 -0.496563
000240 c1 fa aa be 1d 04 d5 be 4a 43 83 3f 99 87 82 3d
       -0.33394435 -0.416047 1.025491 0.063735195
000250 76 d4 67 3f b2 34 d8 be 5a c5 df be 90 04 81 3f
       0.90558565 -0.42227703 -0.43705255 1.0079517
000260 c9 11 66 3e 86 24 3f 3f d2 3b 62 3f b7 5f 43 3f
       0.22467722 0.74665105 0.8837253 0.76317924
000270 f0 a7 85 3f 84 ac c8 3f 1a 22 44 be e9 74 f2 be
       1.0441875 1.5677648 -0.19153634 -0.4735482
000280 6f 43 f4 be 7a 86 9d be 94 8d 02 3f d9 8b 9c be
       -0.47707698 -0.3076666 0.5099728 -0.30575445
000290 e0 53 67 bf e5 de cb 3e a7 ca e7 be c2 f9 f4 be
       -0.9036236 0.39818493 -0.452718 -0.478468
0002a0 5a f1 07 bf a0 8a 7d 3f 64 56 9f 3e 3e 83 4f bf
       -0.5310265 0.9903965 0.31120598 -0.81059635
0002b0 10 76 b2 3d 4d 36 69 bf 8f b9 e4 3b f3 97 a2 be
       0.08713925 -0.9109848 0.006980128 -0.31756553
0002c0 81 1d d0 be f6 1d 9f 3e 67 cb 8e bf 52 55 05 3f
       -0.4064751 0.31077546 -1.1155823 0.52083313
0002d0 74 ed 01 bf 19 88 5e bf ac c7 46 bf 67 e1 1c 3f
       -0.5075295 -0.8692642 -0.77648425 0.61281437
0002e0 49 2e c3 3e b6 8f 6a bf 20 84 86 3f 5a 48 08 bf
       0.3812125 -0.91625535 1.0509071 -0.532354
0002f0 8f 52 83 3f 05 c3 8e bf 0a 5b 65 bf ae e2 5e bf
       1.025957 -1.1153265 -0.8959204 -0.87064636
000300 45 90 0c bf 4c 33 96 be 02 6e 0e 3f f8 f3 e8 3e
       -0.5490764 -0.2933601 0.5563661 0.45498633
000310 69 a0 44 be 16 12 82 be b6 ad c1 be 2e 9b 93 bd
       -0.19201817 -0.25404423 -0.37827843 -0.072073326
000320 b6 59 e0 3d 6f 6f 7a 3e e0 a1 6d bf 3b 53 70 bf
       0.10954611 0.24456571 -0.92825127 -0.93877
000330 cd 75 b9 ba 90 f9 68 3d 2d e5 55 bf 28 dc 97 bf
       -0.0014149487 0.056878626 -0.8355282 -1.1864061
000340 8a 05 e9 be 64 9e 97 bd 2c 5f 71 be 36 8b d9 be
       -0.45512038 -0.074032575 -0.23571461 -0.42489022
000350 1d 6a c7 3e 67 05 36 bf bc 67 b2 3e e3 1d 34 3e
       0.38948146 -0.71101993 0.34844768 0.17589526
000360 40 89 42 bf 55 6f aa 3e a8 c9 2b bf e3 e0 83 3c
       -0.75990677 0.33288065 -0.6710458 0.016098445
000370 f1 cb fc bd bc f7 1c bf 88 ec e2 be b1 b3 59 bf
       -0.12343586 -0.6131551 -0.44321084 -0.8503981
000380 ee 0a 2c bf 0f a6 90 be db d9 a8 bc f7 61 37 be
       -0.6720418 -0.28251693 -0.020611694 -0.17908464
000390 b2 84 75 be 12 31 b7 3e 8f c3 9f bf cf b1 bd be
       -0.239764 0.35779625 -1.2481555 -0.3704972
0003a0 44 aa d3 be f3 18 95 3d cc b8 de 3d ef d9 9a be
       -0.4134084 0.07280149 0.10875091 -0.30244395
0003b0 f3 2e 62 bd a8 ef 82 be 7f ab d5 be 38 47 25 bf
       -0.055220556 -0.25573468 -0.41732404 -0.64561796
0003c0 a1 9e 9a be 84 a1 25 bf df cb 6c bf 3f 5b be 3d
       -0.3019915 -0.6469958 -0.9249858 0.092947476
0003d0 1d 8a 19 bf e4 78 4f bf 97 6e 98 bf 39 41 01 3f
       -0.5997637 -0.8104384 -1.1908749 0.50490147
0003e0 02 83 89 be 2e 96 5f bf 4f a9 86 be e7 4f a6 be
       -0.26857764 -0.8733853 -0.26301047 -0.32482836
0003f0 bf a8 9f 3e 5e 11 8b bf 89 bf 7a bf c2 89 19 bf
       0.3118343 -1.0864675 -0.9794851 -0.59975827

fc4.bias f4 [9]
000000 dd 7c 6f be 04 cd bb be 41 05 b0 bd 3e 30 e5 be
       -0.23387475 -0.36679852 -0.08594752 -0.44763368
000010 4d 75 a4 3c f9 03 4a bf 79 9c cb be 26 b0 87 be
       0.020075465 -0.7891231 -0.39767817 -0.26501578
000020 f1 66 3a bc
       -0.011377082
