policy_p2.pt (torch, 41304 bytes, 8 tensors)

fc1.weight f4 [64, 9]
00000000: 39fd c1bd 53cf ba3d 527c 913d 5882 9f3d
00000010: 8390 c7bd ea04 823e 3c3e adbe f6df 28be
00000020: 2ff6 733e 82a4 393e dcc1 b5be c8ab a63e
00000030: 233a c63c 573f 86be 0028 5a3e 3aa7 44be
00000040: aa91 093d 3c12 15be 8065 003d 8998 963d
00000050: e6ec 6b3e 3439 1d3e 5108 283e f1ff 883e
00000060: 806f a33e b25a 9f3c a5b7 a63e 2dac aabe
00000070: e3c0 823e 3f53 d6bd ceed 74be b36f 9bbd
00000080: 7d18 5f3e bf37 923d bafd 0bbe f49e 91be
00000090: 9f97 0cbe 25c2 1dba fd58 aa3e a6ed b73e
000000a0: 59a6 c63c 9594 ae3e 661b 36be 5ee0 333e
000000b0: 0fd7 d6bb bf32 1e3d 819b 2fbe 908e 5f3e
000000c0: 3313 ccbd 6d9e ba3e f99e 563e aad1 513e
000000d0: 7489 f0bd 2137 5f3e 2b4e 66be 3846 87be
000000e0: 7015 113e c5dd 89be faec 9fbd 988d 47bd
000000f0: 1350 c83e f6d7 433e 2966 89be 1d09 82be
00000100: 3d62 25bd 782a 853e 3417 273e 8ac2 44bd
00000110: 516c bf3d 4866 30be 14aa ac3e 9c0a 8f3c
00000120: 1447 7bbe 7897 783e 5ac5 49bd fba7 2fbe
00000130: ef85 983e 472d 6d3d 2af8 143e 9091 8cbc
00000140: f1ba 533e cdc4 c73d adcf b0bd a623 493c
00000150: b939 ecbc dfed 51bd bf98 993e bbda a7be
00000160: 990b 25bd 44f8 973e 460f 1f3e f5df a1be
00000170: c38c bbbe 7973 9fbe 6ca3 533e 2361 853e
00000180: d48a 8f3e 4602 6dbe 452a 89bc f8c7 6b3d
00000190: 10d4 ac3e bb62 a4bd bbdc 8f3e 704b a8be
000001a0: 9f41 9ebe ac99 803d c7e0 953d 59fb 85be
000001b0: 9f4b b63c 00d1 543d daaa 3ebe bbc6 8abe
000001c0: 439e 38bd 1016 be3e 723b 43be 0533 b9be
000001d0: 4eb2 d3bb fd6a 92be 73f2 dfbd c308 20be
000001e0: 63b3 be3c 13c8 42be 6ac9 a0be f467 32bc
000001f0: 61ed 69be a703 8dbe 1d0f b8be 00cb 7a3d
00000200: ed0a 03bc f686 07be dbfc 5f3e 9838 723d
00000210: fdb5 a73e 2642 a23e 5d13 94be 291a 28be
00000220: 6978 2dbe 6370 8dbe e3a1 72be f73c 66be
00000230: c9da 4c3a 7efb 133e d153 05bd 61ae 7d3e
00000240: 4d9d 3abe 2935 d1bd eae5 67be 0318 99bd
00000250: ffab 82be 6677 8fbd 2ac0 24be f058 84be
00000260: ea10 48be 1465 193e 71cc 053e dc46 ee3d
00000270: 3e43 683e a2a6 8ebe 14d8 21be 8c1e 3cbe
00000280: 7314 98be ce9c 053e 9389 8cbe 6987 69be
00000290: 6dd3 abbe 04f7 bb3d 8afe 86bd 5198 9ebd
000002a0: 5876 1dbd a34a 47be b3c4 413e e722 3a3d
000002b0: d0f7 81be 6f9f 5fbe 4db9 1d3d 4653 9cbe
000002c0: 6059 4abe 0664 a4be 2b79 4a3e ca42 fb3d
000002d0: 01bc 2c3e 557e 97be 5418 7b3d ed34 3bbe
000002e0: 5939 c9bd c7c8 9ebe d9ec e23d 47b3 1bbe
000002f0: 93f8 f2bb 9ba1 e4bd f2b3 90bc 2c19 2ebe
00000300: 1378 81be f94e adbe 37f3 5c3e 7d33 693e
00000310: 38ca 53bd 8d9e eb3d 8abf 85bd 1aeb 68be
00000320: f562 fa3d 158c 73be f409 873e 18f1 61be
00000330: f47f 963c ccd1 0fbe 1877 4b3e 77b0 b33e
00000340: cd92 0d3e e587 343e 568e 353e 6c20 4bbe
00000350: 10d3 12be 2ef0 c43d d74b 8b3d 2228 a3be
00000360: cb92 5f3e 1ded a3be 1bd9 b4be 78f8 53be
00000370: 46c4 40be e7cc 193c 4912 a1be 710c b73d
00000380: 24c5 22be 0329 ab3c daf7 d3bd c3a5 c7be
00000390: 9f0b b13c 0518 24bd d078 b3be 020b c2bd
000003a0: 9608 31be 6684 bfbe 0a08 adbe 7209 89bd
000003b0: e711 333e 8e93 ac3d dc47 2d3e a8bd 8e3d
000003c0: 0748 4f3e 2e3e cdbd 1a90 31be 6312 543d
000003d0: 4583 923e b959 40be 131d 383e a8d0 b0bc
000003e0: 3d93 3b3e 66c9 803e 645b 3e3e f661 f6bb
000003f0: 6ea1 16bd 62a3 40be 5211 9d3d 28f4 b5be
-0.094721265 0.09121575 0.0710379 0.07788533 -0.0974436 0.25394374 -0.33836544 -0.16491684
0.2382438 0.18129161 -0.35499465 0.32552934 0.024197644 -0.262202 0.21304321 -0.19204417
0.03358618 -0.14557737 0.031346798 0.073533125 0.23039588 0.15353853 0.16409422 0.26757768
0.31921005 0.019452427 0.32561985 -0.33334485 0.25537786 -0.10465097 -0.2391884 -0.07589664
0.21786685 0.07139539 -0.13671008 -0.28441584 -0.13729714 -0.00060180045 0.33271018 0.359235
0.024249243 0.34097734 -0.17783889 0.17566058 -0.0065563987 0.038622614 -0.17149164 0.21831727
-0.099645995 0.36448994 0.20959081 0.20490137 -0.11744967 0.21798374 -0.22490756 -0.2642076
0.14168334 -0.2692701 -0.078088716 -0.04871902 0.39123592 0.19125351 -0.26835755 -0.25397578
-0.04037689 0.26008964 0.16317445 -0.04803709 0.093468316 -0.17226517 0.3372351 0.017461114
-0.24538833 0.2427653 -0.049260475 -0.17153923 0.29789683 0.057904508 0.14547792 -0.017159253
0.20676781 0.09754334 -0.08633361 0.012276566 -0.028836118 -0.051252242 0.2999935 -0.32784066
-0.040294264 0.296816 0.1553317 -0.31616178 -0.3663083 -0.31142786 0.20667809 0.26050672
0.28035605 -0.23145398 -0.016743788 0.057563752 0.3375554 -0.08026644 0.2809809 -0.32870054
-0.3090944 0.062793106 0.073182635 -0.26168326 0.022252856 0.05195713 -0.18619862 -0.27104744
-0.045072805 0.37126207 -0.19065645 -0.36171737 -0.0064604646 -0.2859725 -0.109349154 -0.15628342
0.023278898 -0.19021635 -0.31403667 -0.010889042 -0.22844459 -0.2754185 -0.3594903 0.061228752
-0.00799821 -0.13235077 0.218738 0.059136003 0.32756034 0.31691092 -0.28921023 -0.1641623
-0.16940464 -0.27624807 -0.23694567 -0.22484194 0.0007814584 0.14451405 -0.032550637 0.24773552
-0.18224068 -0.102152176 -0.22646299 -0.07475283 -0.25521848 -0.07005195 -0.1608893 -0.25849104
-0.19537702 0.14979964 0.1306627 0.11634609 0.22681901 -0.27861506 -0.15805084 -0.18371028
-0.29703102 0.13048097 -0.2744871 -0.22805561 -0.33559743 0.09177974 -0.06591518 -0.07743896
-0.03844294 -0.19462065 0.18922691 0.04544344 -0.25384378 -0.21838163 0.038506795 -0.30532283
-0.19760656 -0.32107562 0.19772784 0.122685984 0.16868593 -0.2958857 0.061302498 -0.18281908
-0.09825391 -0.31012556 0.11080331 -0.15205108 -0.0074148863 -0.11163636 -0.01766393 -0.1700179
-0.25286922 -0.33849314 0.21577154 0.22773547 -0.051706523 0.115048505 -0.06530674 -0.22745934
0.12225906 -0.23783906 0.2637478 -0.22064626 0.01837156 -0.14044875 0.1986965 0.3509557
0.13825531 0.17629965 0.17730078 -0.19836587 -0.14338326 0.09616123 0.06801575 -0.31866556
0.21833341 -0.3201684 -0.35321888 -0.20700252 -0.18824872 0.009387231 -0.31459263 0.0893792
-0.15895516 0.02089358 -0.10350008 -0.38993654 0.021611987 -0.04006197 -0.3505311 -0.09474756
-0.17288432 -0.374057 -0.33795196 -0.06691255 0.17487298 0.08426581 0.16921943 0.06969768
0.2024232 -0.100216255 -0.17340127 0.051775347 0.28615776 -0.18784226 0.17979841 -0.02158387
0.18317886 0.25153655 0.1858955 -0.007519002 -0.036775045 -0.18812326 0.07669319 -0.3553784

fc1.bias f4 [64]
00000000: 65d7 61be 62a1 383e 7ff0 cdbd 0625 083d
00000010: 04be 2a3e 7de4 cd3e 198b e3bd e004 44be
00000020: d09e 8a3e 578c 703e 6a1a d13d 24dc 89be
00000030: 037e 1bbe e084 d13e e38d d9bd d13a f53d
00000040: 10ae 8a3e 56ea db3e 8ad2 973e df62 dd3e
00000050: cab5 6c3e 56bb c43e f39a b63e dd39 a63e
00000060: f612 b5bd fade 92bd 277e 7d3d acaa 323e
00000070: 0624 5fbe 1ee6 30be 5929 68be 14c0 8dbe
00000080: f55b b83d bb4e b6bc 6e57 073f c6ab 6e3e
00000090: a061 9fbd 19e4 ce3c 43b7 a1bd 9b8d 0c3e
000000a0: 295c bc3d 8870 87be 3c37 f83d 54eb acbb
000000b0: cb2a c23e 0072 18be 9f38 c93e 27ac a83c
000000c0: 0f5f 47be 7260 a6bd 803f 76bd 5d10 40be
000000d0: 925a 0c3e ebcb ce3e ee44 6fbe 46fd af3e
000000e0: dd2d 4c3d ba23 563e f6a6 ef3d a188 c73e
000000f0: 6ce7 b83e eba9 893e 28f7 c03d 3066 ac3e
-0.22054823 0.18030313 -0.100556366 0.033238433 0.16674048 0.40213385 -0.11110515 -0.19142485
0.2707429 0.23491035 0.10210116 -0.26925766 -0.15184788 0.40921688 -0.10622766 0.11974109
0.27085924 0.42952222 0.29652816 0.43239495 0.23116222 0.38424176 0.35665092 0.3246602
-0.08841507 -0.07171436 0.061887886 0.17447919 -0.21791086 -0.17275283 -0.22672023 -0.27685606
0.090019144 -0.022254338 0.5286778 0.23307714 -0.07782292 0.02525525 -0.078962825 0.13725893
0.09197266 -0.26453042 0.1211991 -0.0052770767 0.37923273 -0.14887238 0.3930101 0.020589901
-0.19469856 -0.08123864 -0.060119152 -0.18756242 0.13706425 0.40389952 -0.23366138 0.3437292
0.049848426 0.20912066 0.11701767 0.38971427 0.3611406 0.2688745 0.09422141 0.33671713

fc2.weight f4 [64, 64]
00000000: 2697 973d d101 bc3d 5a9d 8fbd 858b 9dbd
00000010: 36cc 10bd cd31 1abc 6673 6f3d 87ed 173d
00000020: 8e1a 5dbc b919 99bc 2ee7 4b3d 3935 12be
00000030: 6f16 ec3a f3cd 303e bdad c4bd 468c c73d
00000040: d728 2dbc 10fb 763d db07 abbd 2077 013e
00000050: fa97 edbd 3e93 033e 554e a63d 7b9e 63bd
00000060: fe05 833d db71 adbd 4f61 c13c 598f c93d
00000070: 25c2 5abd ebb7 bdbb 792c e13d f83b 30be
00000080: da6c 863d 1886 32bd c534 273e 598a ebbd
00000090: f42d 77bd 916d a63d 295f f6bc f7e7 14be
000000a0: c68e 1ebe 557e 573c 2a9f 46bd 1fc8 e0bd
000000b0: bfdf 533d 5868 fa3c b35d b13d 5a16 c13c
000000c0: 9720 b13c af28 e63c d16a 843c 1d20 87bd
000000d0: 4497 a33d 963d 053e b75b b33d 1d30 7e3c
000000e0: 9309 24be 54e6 e2bd 4ffd cbbd 5f85 813c
000000f0: f721 363d 653e 8a3d b68e 6dbd 7b72 353d
00000100: ff89 153e 4633 0abd eca6 a43d 7a05 c33c
00000110: bfa3 0c3e 1307 333c 4405 c1bd 23bc fc3d
00000120: 1419 163d 7038 373e f9c0 89bd 61cd d43d
00000130: bb3d b5bd 9bdf 993c d5ac 8c3d baed 83bd
00000140: 03cd 08be a97e 69bd 443b 923c db72 58bd
00000150: 31ff bfbd f736 083d 04a0 023d 6148 483d
00000160: 536d 1d3a c344 ec3d 07ac 0ebe cfc4 033e
00000170: a4c5 82be 141c 1f3e ee69 923c c94f e7bb
00000180: 8b0c 36bd 6e02 d73c 096c 6d3d e3c8 ef3d
00000190: f1eb 69bc 40c4 d63d 6e87 823d 38e5 0d3e
000001a0: dd74 d83d cf27 05be f804 b3bd 5a67 383d
000001b0: df23 f6bc 2e61 bc3d ffbb 883d 11b9 f0bd
000001c0: f2b4 29bd 82be c23d 955a 93bd c98c 1fbd
000001d0: ce10 823d 774b 053e 03a0 0439 6a10 94bd
000001e0: 3a6a eabd aaac e23b ddd8 3c3d cb98 e5bc
000001f0: 2702 55bd 14ef e43d bea4 ba3c 1b44 ae3d
00000200: 16fc 253e 566c 54bd efaa aebc 272e 2a3e
00000210: bb96 86bd 33b0 dd3c bcea cb3d 177f 6d3d
00000220: a561 b83c 55a0 8a3d 4ea4 583d 7101 273d
00000230: 413b 323e 894c 80bd 58c7 853c e91f ca3b
00000240: f2ce 2b3d e4b1 3f3d c619 a23d ed6e db3d
00000250: d059 9fbb 7c93 aabd 014a 83ba 8322 95bd
00000260: 954b 1e3c 6dc6 44ba 3068 ec3d cd13 3f3d
00000270: 02ae c7bd 66d6 773d aca2 8a3d 77b3 c73d
00000280: adab 953d 2223 ca3d 0f89 0fbe fc3d 1d3b
00000290: 7f94 a53d 83fa 8f3c d1ea 5a3d a9e1 d33d
000002a0: 5982 efbc d186 b33c 0d2f df3d 168a 803d
000002b0: 384e 94bd 94d5 0c3e b6be 283e d991 073e
000002c0: 3334 7dbd a53b 243e 93d6 c83d 9c4e bb3d
000002d0: 9cba 53bc 3166 b73d 3922 d6bb 1493 e83c
000002e0: 3b53 3a3d dd94 ac3d fd1a df3c e2f6 133c
000002f0: 3130 7c3d 843e ef3d 7615 c5bd 01de cebc
00000300: 6a09 37be c323 903d 65c0 773d 6e9b bebb
00000310: 5736 64bd 7895 ca3d 86d2 7ebd 1770 c13b
00000320: ab31 c13d fbc0 e5bd 452c e23d 7490 a7bc
00000330: 7914 c6bc 77c1 fe3d 6c67 77bc bdc6 84bd
00000340: 2ed9 8dbd de88 053e da0f 02be b7a1 543d
00000350: bad7 023e 5a9e e33d 95d4 013e 68e8 ca3c
00000360: a2d0 df3d 0200 773d a65f 8a3d c62b cd3d
00000370: 4327 063e 00d3 a13d 4751 cdbd dfa8 51bd
00000380: eaca ba3d ed6c 65bd c2cb 81bd ff75 4bbd
00000390: 4a4a 423c 201b b53d 8fac 1e3c 5764 f9bd
000003a0: dec7 543d e6ab 8dbd 3020 17bb dd89 253d
000003b0: 8cf2 82bc aba0 00be b337 cdbd 58d2 bbbd
000003c0: 423e 9b3d b59c 57bd 65c8 113e 657d 233c
000003d0: 4497 073e 2811 de3d cf7e 08bd b86e e43d
000003e0: 1619 da3d 4bec 4f3d f82e 05be 6278 ca3d
000003f0: 75ed 3abd 2b7c c5bd 246c 8f3c 37e0 47bd
0.07401876 0.09180034 -0.07012434 -0.07692627 -0.035351 -0.0094112875 0.058459662 0.037091758
-0.013495101 -0.018689023 0.049781017 -0.14278115 0.0018012057 0.17266063 -0.096034504 0.09743552
-0.010568819 0.060298026 -0.08351108 0.12643099 -0.11601253 0.12849137 0.081204094 -0.05557106
0.06397627 -0.08468982 0.02360597 0.098417945 -0.053407807 -0.005789747 0.109948106 -0.17210376
0.065637305 -0.043584913 0.16328724 -0.11500997 -0.06034656 0.08126367 -0.030074673 -0.14541613
-0.15484151 0.0131526785 -0.048491634 -0.1097567 0.051727053 0.030567333 0.0866045 0.023570228
0.021621985 0.028095571 0.016164215 -0.06597922 0.07987836 0.13011774 0.087577276 0.015514401
-0.16019277 -0.11079088 -0.09960424 0.015810667 0.044465985 0.06750182 -0.057997428 0.04429863
0.14603423 -0.033740304 0.0803965 0.023806322 0.13734339 0.01092698 -0.094248325 0.12340572
0.03664501 0.17892623 -0.0672626 0.103907354 -0.08849665 0.018783381 0.068689026 -0.06441827
-0.13359456 -0.05700556 0.017850526 -0.05284391 -0.09374846 0.033255544 0.031890884 0.04889715
0.0006005365 0.11536553 -0.1393281 0.12868045 -0.25541413 0.15538055 0.017872777 -0.0070590717
-0.044445556 0.026246276 0.05796436 0.11708238 -0.014277444 0.104866505 0.063734874 0.13856971
0.10569165 -0.13003467 -0.08741182 0.04502044 -0.030046402 0.09198223 0.066764824 -0.117540486
-0.04143233 0.09508993 -0.071950115 -0.038952623 0.063508615 0.13017069 0.0001264811 -0.07229693
-0.11446042 0.006917556 0.046105254 -0.028026959 -0.052004006 0.11178413 0.022783633 0.08509084
0.16209444 -0.05186113 -0.021321742 0.16619168 -0.06571718 0.027061557 0.099568814 0.05798253
0.022507498 0.06768862 0.05289107 0.04077286 0.17405416 -0.06264598 0.016330406 0.006168355
0.041945405 0.04680051 0.07915072 0.10714517 -0.0048630014 -0.08328912 -0.0010016562 -0.07281973
0.009661575 -0.00075063744 0.1154331 0.046649743 -0.09749986 0.0605072 0.067693084 0.09751027
0.07308135 0.09869982 -0.14017127 0.0023993244 0.08084964 0.017575508 0.053446595 0.10345776
-0.02923696 0.021914871 0.10897646 0.06276338 -0.072414815 0.13753349 0.16479 0.1323923
-0.06181736 0.16038378 0.09806552 0.09145853 -0.012922909 0.08955038 -0.0065348414 0.028390445
0.04548953 0.08426831 0.027234549 0.009031029 0.061569396 0.11681846 -0.09623234 -0.025252344
-0.17874685 0.07038071 0.060486216 -0.0058168685 -0.055715885 0.0989179 -0.06221249 0.0059032547
0.094333015 -0.11218449 0.110436 -0.020454623 -0.024179684 0.12439244 -0.015100341 -0.06483219
-0.06926189 0.13040492 -0.1270136 0.051912036 0.12777606 0.111141875 0.1267875 0.024769023
0.109284654 0.06030274 0.06756525 0.10018115 0.13100915 0.07901573 -0.10025268 -0.05118644
0.09120734 -0.056012083 -0.06337692 -0.049673077 0.011858532 0.08843064 0.009684696 -0.121773414
0.05194842 -0.06917553 -0.0023059957 0.04041468 -0.015984796 -0.1256129 -0.100203894 -0.09170979
0.07580234 -0.05263968 0.142366 0.009978627 0.13241297 0.10843116 -0.03332406 0.111539304
0.10649316 0.050762456 -0.13006198 0.098862424 -0.045636613 -0.09642824 0.01750762 -0.048797812

fc2.bias f4 [64]
00000000: 56f6 4a3d 01ff 093e c6bb bfbd ea2b bcbd
00000010: d9ee aa3c 2cae 413e 7c3d 2cbc 2308 71bd
00000020: 3eb0 9abd e969 9ebd 8c1c 33bd 8a07 103d
00000030: eb62 b6bc 48ac e5bd e018 ed3d e4c2 2f3e
00000040: 0d63 fabb 3a89 bf3d 222b e2bc 17c1 103d
00000050: 47cd fb3d 5c24 d1bd cd42 0d3e 1a66 45bd
00000060: 7283 253e 50d9 d83d f7e9 5a3d f080 453e
00000070: c6f9 1a3d 7f9e af3c e93c 03bd ab0c f13c
00000080: 405c be3d fcf3 be3d afd5 2bbd 1921 78bc
00000090: 78c5 283e 69be 123e a469 d53c ec08 82bb
000000a0: 6480 f03d 5d29 913d fb57 ddbc 8658 82bd
000000b0: eaf8 f3bd e0c6 263d ecc0 86bc 5194 2d3e
000000c0: 8698 e53d 8c91 523d 633a 983d 18df f43d
000000d0: 99ff 2d3e dfea 573e 89e6 67bc ebcd 013e
000000e0: ac60 953d a122 313e e272 ecbc a233 de3d
000000f0: 91d7 ebbc e4e0 ee3d 57fb b3bd 508e e63d
0.04955133 0.13476183 -0.09361987 -0.091880634 0.020865845 0.18914098 -0.010512706 -0.05884565
-0.07553147 -0.077350445 -0.043728396 0.03516344 -0.022263965 -0.11214501 0.1157701 0.17164189
-0.0076412023 0.09352346 -0.027608458 0.035340395 0.12295013 -0.10212013 0.13795014 -0.048193075
0.16163424 0.10588324 0.053445783 0.19287467 0.03783586 0.021437882 -0.03204051 0.029424986
0.09294939 0.0932388 -0.04195183 -0.01514461 0.16481578 0.14330448 0.02605135 -0.0039683487
0.117432386 0.070879675 -0.027019491 -0.06364541 -0.11912711 0.040717006 -0.016449414 0.1695111
0.11210732 0.051408336 0.074330114 0.11956614 0.16992034 0.2108569 -0.014154085 0.12676208
0.07293829 0.17298366 -0.028863374 0.10849692 -0.028789314 0.11663988 -0.08788174 0.11257613

fc3.weight f4 [64, 64]
00000000: 7e8c ccbd 002e 923d 9098 013d f6e7 913d
00000010: c028 4d3d 16e3 88bd 7e9c a73d 0049 77bd
00000020: 3480 febd 3875 60bd a882 85bd 402a 403d
00000030: d0f2 58bc 0059 7dbb 0c8d 343d f677 803d
00000040: c025 f3bd 3a6c 9ebd b4f6 9abd 18ce 58bd
00000050: 70ed 353d c01b 57bc d40d 85bd 8055 a9ba
00000060: e6ca b6bd 30f8 f0bc 3035 4bbd e6db fc3d
00000070: c0a4 3f3b 48a5 9abd a05b 953d 0036 ad3d
00000080: dee1 93bd ae1d fe3d 4062 7bbd 8058 b9bc
00000090: a8b9 c2bc 5890 2a3d 08b5 5ebd 10c4 5e3d
000000a0: e842 093d b8d1 bbbd 7ca3 f3bd 66e5 a43d
000000b0: e8d0 59bd 54b5 50bd 4eda 9c3d 4073 a7bb
000000c0: 043e ffbd 201f a63c 9cbe 3b3d 286b 98bd
000000d0: deb6 a63d 7e93 a0bd 7828 a0bd 642e ddbd
000000e0: f45f e3bd 388d acbd a400 0dbd c0dd 28bd
000000f0: bc93 ebbd d0d9 9e3c f81d df3c ee6c 8f3d
00000100: 6539 2abc 3656 8a3d 7a13 173d 0c8b 703d
00000110: 0760 723d 8096 15bd 674e e13c 8c15 433c
00000120: e76a db3d 0354 0ebd 9f41 67bd ebca 033c
00000130: fbd9 71bd d4ae c7bc b192 c93d a402 07be
00000140: 3dbd d7bd 82d0 74bd c1c4 9a3d efdd aebd
00000150: 7efb e3b9 fc74 253c 1ec9 70bd 8b09 d6bd
00000160: e970 9c3c 3388 a6bd 6dcb 1a3d 889f a0bd
00000170: 7a25 473d 07db 493d 3bd3 393d 0b03 5bbd
00000180: 5462 09bd 7402 7fbd ec84 cabd cf01 dfbd
00000190: ac92 4f3d c100 09bd c0d8 fbbb 78c9 033d
000001a0: 0692 c73c c4f1 51ba 38ad d1bd 62de 553d
000001b0: e2c1 16bd 3551 a9bd 707a 3b3c 0ec7 913d
000001c0: 2d31 1a3d 4d1e c03c 9bbb 98bd 17e6 6a3d
000001d0: b131 923d cccd e9bd 03d1 dfbd 011e 40bd
000001e0: dc24 953d aec0 da3d b38c a0bb d3f8 403d
000001f0: 0d8f bbbd d118 dabd cef4 20bb 6d83 be3d
00000200: fd97 203e 5a36 2e3e 64ef a03d 1394 02be
00000210: b8e4 4739 ab4a a3bd af48 b9bd 63c8 493c
00000220: f927 00be c01e cf3d 0ee7 3cbd 3589 163e
00000230: c963 08bd 7af0 9c3d e5c0 ba3d a4b4 87bd
00000240: 69ef 10be 071b c5bd 2021 19bc 847c 18bd
00000250: 189b 22bd 4976 163e 8826 e03d 5fc2 85bd
00000260: 0f04 1abd 2284 973d f4fb 4f3d 3561 863d
00000270: 38c6 0d3d 20f5 bb3d 87ca 5bbb 691e 783c
00000280: 81b6 d23c b2b4 01bd 1dd5 55bd dab5 2bbe
00000290: 4222 09bd 341d b8bd 6e5b 393c f40c cd3c
000002a0: 1427 963d 6ad5 6abd 7bc4 dbbd 25af bd3d
000002b0: c82b 71be 95f2 c2ba bf8b 24bc ff13 2d3e
000002c0: d7e4 ae3d b614 bfbc 37a9 c7bc 3718 683d
000002d0: 5482 9fbd e496 bd3d 8aae c33c f695 e03d
000002e0: 6e0b c13d 67ef fe3c d5d5 9cbd 8220 233d
000002f0: cc3a 09be f910 17be 77eb 19be 4c72 f43d
00000300: 5139 afbd adea c63d 7c94 b53c 34ac 393d
00000310: 65c2 d738 208f d5bd 23ef 68bd 175b 253e
00000320: d78c 90bd 47f8 18be 72a9 24bd 5a0e bfbd
00000330: a3bd cebd f3f9 7b3d 2d66 0e3e ddf8 abbd
00000340: 4045 30be 2c77 55bd d934 963d 1707 cdbd
00000350: d84c 28be 1b28 9bbc b1a0 a3bd 7dbd 4a3e
00000360: 6fd5 60bd 0d03 bdbd 922b b1bb 65d8 efbd
00000370: faa2 b73d 22bf 80be bdc6 c0bd 1b2c 603c
00000380: d03e 673d f9ed 16be c7d5 703d 8c60 72bd
00000390: e774 573c 0011 35bc bc83 51be 6684 653d
000003a0: 84cb d3bc 7973 283e 4425 bcbd 3ca4 01be
000003b0: 6a49 94be 143d 053e a854 063e 39c6 abbd
000003c0: 1170 f6bc 978f c83d d2d2 113d 80bd 83be
000003d0: 3bc6 21bd 0cb5 a03d da63 28be 0827 023e
000003e0: 1ec4 6dbb daa5 453d 2471 ef3c be3f 313e
000003f0: ec3e 93bd 441f fc3d cd7f f53d 5f42 08be
-0.09987734 0.0713768 0.031639636 0.07124321 0.05008769 -0.06683938 0.081841454 -0.060372353
-0.124267966 -0.05479929 -0.06519061 0.046915293 -0.013241485 -0.0038657784 0.044079825 0.06272881
-0.118724346 -0.07735486 -0.07566586 -0.05293092 0.04441589 -0.013129175 -0.06496778 -0.0012919158
-0.089254186 -0.02941522 -0.04961127 0.1234663 0.0029242486 -0.07551056 0.07292867 0.08457565
-0.07220815 0.12408005 -0.061372995 -0.022625208 -0.023770168 0.041641563 -0.054371864 0.0543862
0.033511072 -0.0917086 -0.118964165 0.08051567 -0.053177744 -0.050954178 0.07658826 -0.0051101744
-0.124630004 0.020278513 0.045836076 -0.074423134 0.08140348 -0.07840632 -0.07820219 -0.10799864
-0.11102286 -0.08425373 -0.03442444 -0.041227102 -0.115027875 0.01939097 0.02723597 0.070031986
-0.0103896605 0.06754725 0.03688381 0.058726355 0.05917361 -0.03652048 0.027503205 0.011906993
0.107137494 -0.03474809 -0.056459066 0.008043985 -0.059045773 -0.024375357 0.09842432 -0.13184601
-0.10534141 -0.05976916 0.07557059 -0.08538424 -0.0004348419 0.010098692 -0.05878555 -0.10451039
0.019096809 -0.08131447 0.03779166 -0.07842928 0.048619725 0.049281146 0.04536746 -0.0534697
-0.03354104 -0.0622582 -0.09888634 -0.10889017 0.050676987 -0.033447985 -0.0076857507 0.032174557
0.024361622 -0.0008008743 -0.10238117 0.052214034 -0.036805995 -0.08267442 0.011442766 0.07118045
0.037644554 0.023451949 -0.07457658 0.057348337 0.07138384 -0.11416206 -0.10928538 -0.046903614
0.07282421 0.10681282 -0.004899585 0.047112297 -0.09158144 -0.106492646 -0.0024559977 0.09302411
0.15682979 0.17012921 0.0785816 -0.12751798 0.00019063323 -0.07973226 -0.090470664 0.012315842
-0.12515248 0.10113287 -0.04611879 0.14700778 -0.033298288 0.07663055 0.09118823 -0.06626251
-0.14153828 -0.09624296 -0.0093462765 -0.037228122 -0.03969869 0.1469356 0.10944849 -0.06531214
-0.037601527 0.07398249 0.05077739 0.065615095 0.034612864 0.09177613 -0.0033537464 0.015143969
0.02572179 -0.031666465 -0.052205194 -0.1676859 -0.033479936 -0.08989945 0.011313302 0.02503059
0.07331672 -0.057332434 -0.10730835 0.09261922 -0.23551857 -0.001487332 -0.010043084 0.16902159
0.085397415 -0.023325305 -0.02437268 0.056663718 -0.0778853 0.09257296 0.023886938 0.10966103
0.09426008 0.031120015 -0.07657973 0.039825924 -0.13401335 -0.14752568 -0.15031229 0.11935863
-0.08555854 0.097127296 0.02216553 0.04533024 0.00010288208 -0.104276896 -0.056868684 0.1614803
-0.07058113 -0.1493846 -0.04020066 -0.09328909 -0.10094764 0.061517667 0.13906164 -0.08397076
-0.17213917 -0.052115604 0.07334299 -0.10011118 -0.16435564 -0.018940022 -0.07989634 0.19798847
-0.054891046 -0.092290975 -0.0054068053 -0.11711196 0.08966632 -0.25145823 -0.09412906 0.013682391
0.056456387 -0.14739217 0.058797624 -0.059174106 0.01315043 -0.011051416 -0.20460409 0.056034468
-0.02585388 0.164503 -0.09186795 -0.12660307 -0.2896226 0.1301158 0.13118231 -0.08387417
-0.030082734 0.097930126 0.035601445 -0.25730515 -0.039495688 0.07847032 -0.1644434 0.12710202
-0.0036280225 0.04825387 0.029228754 0.17309472 -0.07189736 0.12310651 0.11987267 -0.13306569

fc3.bias f4 [64]
00000000: 0425 febd d8a0 9fbd ce66 82b8 2eda c73d
00000010: 54aa 7cbd 83ed 173e f558 c43b 4498 d0bd
00000020: 10d3 c7bd d743 463d 16be 34bd 7cc6 99bd
00000030: 3565 01be db81 0c3d d8a1 24bd d741 113e
00000040: 0de9 4abc ff71 e43d 8154 dc3d dd65 de3d
00000050: 3bef c2bd 9b8c febd 923f dc3b 8c34 bc3d
00000060: 5a3a d93c 6592 e43d 184e 963b f93c c4bd
00000070: 5aad 263d 47ef 6c3c 0add aa3d 7e90 c63c
00000080: 9c3e a43d e262 77bc 521f e6bd da9e f4bd
00000090: 7292 85bc 2305 6dbd 8e6d 143e b49b 38bd
000000a0: 2eca 03bd cc44 f93b e3f7 e0bc 6334 8d3d
000000b0: 32e2 023b 98b9 fe3d 30b4 7b3d 038c 563d
000000c0: 4db2 8dbd 0158 453d bff9 e93d b970 ff3d
000000d0: 57fb bcbc b63c 8dba e664 b33d 767c 9c3d
000000e0: ca51 6cbd b3ca 11bd 0271 0bbd 6bad 973d
000000f0: 2814 dfbc 84b0 63bd 43b0 e43d 9471 ea3d
-0.12409404 -0.077943504 -6.218032e-05 0.09758411 -0.061685875 0.14836697 0.00599205 -0.10185292
-0.09757054 0.04840454 -0.044126593 -0.07508561 -0.12636264 0.034303527 -0.04019341 0.14185272
-0.012384665 0.111545555 0.10758305 0.10859273 -0.09518286 -0.12429162 0.0067214454 0.0918971
0.026517082 0.11160735 0.004586946 -0.09581942 0.040692665 0.014461345 0.08342941 0.024238821
0.08019754 -0.015099259 -0.112364426 -0.11944361 -0.016305182 -0.057866227 0.14494917 -0.045070365
-0.032175235 0.007607078 -0.027461952 0.068947576 0.0019971249 0.12437743 0.061451137 0.05237962
-0.06918774 0.04817963 0.114245884 0.12472672 -0.023069067 -0.001077554 0.08759479 0.076409265
-0.057695188 -0.0355937 -0.03404332 0.07406124 -0.027231291 -0.05558826 0.11166432 0.114474446

fc4.weight f4 [9, 64]
00000000: 083e 78bd db0b b33d d94a 3f3e c577 ab3c
00000010: ea12 b43d f015 823d 2670 9d3d 7ca8 f53d
00000020: 789d 78bd 5175 163d 5cf2 10be 5e24 e6bd
00000030: 2b57 5c3b 3ef7 25bd 82bc b5bd 328a c23d
00000040: 3b1a 3c3d 30e1 e6bc 99ce 39be f666 7ebd
00000050: 5e38 c0bd d01e 54bc 230e 4b3d c3b6 bfbd
00000060: 3826 d03d b5e4 35bd d2d8 013d a65b 903c
00000070: aaa6 d93d d213 edbd b90d ddbc 9169 b33d
00000080: a52e 0dbd 343e 4bbe 11d4 20be d837 fb3c
00000090: d696 47be cc77 473e 1291 bc3d 5173 c03c
000000a0: 5954 f23d 55e2 f43b 7f4a 9e3c 480d b63d
000000b0: 8cb0 ec3d c396 e03c 3ba2 17be d723 3a3b
000000c0: a3dc 2f3e 974a a3bd e9ad 3f3e 7d1e 17be
000000d0: b3ce 1fbe 8b21 05be 13e4 1cbe 821f 99bd
000000e0: 044b 5cbe 49bf 963d c765 bd3d 96bd 1fbe
000000f0: f45b 3b3d f625 8a3d 5c25 313c ab15 173e
00000100: 406d cb3c 7cf9 f5bd e800 a4bc bbee c73d
00000110: ca7c fe3d b393 ad3d eb81 85bc fa2b dfbd
00000120: 0823 eb3c dab8 5cbe a104 083e b241 853b
00000130: 3118 6b3d 623a 8e3c d66b 8e3d f2ea a93d
00000140: aa8d 07be 4bd3 423c 0c1e 13be 4d96 18be
00000150: 0dda be3d ba6c a33d 0a85 debd 7aea 543d
00000160: 6bdd f2bd d628 63bd 9174 5ebd 4129 243e
00000170: a64a 5cbd e07b 05be 2c8b ee3d d151 ffbd
00000180: 0ec6 22be 68fe fabd 3d43 a3bd a0c8 33bc
00000190: 125e e5bd 696a 073e 7b90 793c 1615 c43b
000001a0: 7e6a 0e3d 6e55 ee3d df25 b93d 1228 3a3d
000001b0: 53cc c93d 45cf d4bd fe1a 6f3d fc0a 883d
000001c0: 696e 80bd 84e3 433d c436 933d dbaf 833c
000001d0: 2d58 01be 7fd7 0cbe cce9 88bd dde6 f6bd
000001e0: 10d6 473c d970 2fbe 21da 113e 7966 d13d
000001f0: 76b3 903d d421 68bd 8fba a2bb a135 91bd
00000200: 9046 8a3c 0974 523c e1b3 1c3e 15b8 583e
00000210: 0923 803e 220a d3bc bc1d 0fbe 78ac 123d
00000220: 8a70 d03d f4d1 d4bd 7e3c bf3c 8cf3 b7bd
00000230: 69d5 17be c908 8bbd 08cc fc3d 93ab aeb8
00000240: e5a3 253d 40d8 ebbd 761e eabd 19b9 04be
00000250: fad2 03bd 9234 bb3d aa64 813d 796d 11be
00000260: 4d44 e13b ee15 973c 568b 2d3e 065a 093e
00000270: c092 b1bd 24dd df3d 9038 06be 2349 92bd
00000280: 7e48 053c 2c1d 07be af7f cebd 941d 3b3d
00000290: 0ed4 1fbd 90c2 0fbd e3ab e83b da1d c0bc
000002a0: 4921 c93d 7138 353e 0773 54be ebaa c9bd
000002b0: 5d06 06be daf0 e33d 9f64 80bd 472f 32bd
000002c0: ac0c c43b 5b06 07bd bbf7 c83a 092e 013d
000002d0: 69fa 80bd 1526 1b3d b9f4 1c3c 4b98 a63c
000002e0: 7605 00be dca8 47bd 7b6a 473d 3adc 5cbd
000002f0: 3402 30bd c0a7 a03d c612 b13d 716d c3bd
00000300: 3e50 debd 6d06 2a3d a601 5abd d7fa c6bd
00000310: 7bc4 be3c 0b80 d7bd 51c5 30be f4f9 47bd
00000320: 440d b23d a14d 653d 1de8 f3bd 0771 eebd
00000330: f920 2fbc 13eb 88bc d4d3 2b3d 439e 0e3e
00000340: 41c4 51be 4412 b73c 83e9 bb3c 2da2 1d3d
00000350: 382b 8bbd 0593 30bd 6065 47ba 90e8 d9bd
00000360: 5556 dbbd b564 213d 3c5b 3b3e b27a e23d
00000370: 1249 aebd 96b7 e5bd 92d6 233d 9860 ae3d
00000380: 1f9b bfbd 9c0a f5bd c150 1bbe 60f6 243d
00000390: b854 c03d 2da4 0dbd c97e d33d b26f a9bd
000003a0: 8c22 2e3d 5714 3a3e 41fb 7b3d e88c 2cbe
000003b0: 1d56 5a3d 444c 21be d642 2abe 876d 05be
000003c0: 1e2f df3d 736a a23d 3b96 fe3d 81d2 cfbd
000003d0: 6cc3 7a3d 0ffa 3ebe 8866 13be 8410 7e3d
000003e0: bb2e 21bc 5e1c 0ebe 6b65 9a3d 471f 973c
000003f0: a71f 2a3d a8cd 903c cfff f9bd 68a9 0fbe
-0.060606033 0.087424956 0.18680896 0.020931134 0.0879267 0.063518405 0.07687406 0.119950265
-0.06069705 0.036732975 -0.14154953 -0.11237405 0.0033621292 -0.04051899 -0.08873846 0.09499015
0.045923453 -0.02818355 -0.18145217 -0.06210991 -0.09385751 -0.012946799 0.04957403 -0.09361031
0.1016354 -0.044407565 0.031700917 0.017621826 0.10627492 -0.11576046 -0.026984083 0.087603696
-0.03446831 -0.19847947 -0.15705897 0.030666277 -0.19491133 0.19479293 0.092073575 0.023492487
0.11832494 0.00747327 0.019322632 0.08889252 0.11557111 0.027415639 -0.1480798 0.002840271
0.1717401 -0.07973211 0.18718685 -0.14757724 -0.15606193 -0.13001077 -0.15321378 -0.07476713
-0.21512991 0.073607035 0.09247928 -0.15599665 0.04574199 0.06745522 0.01081213 0.1475436
0.024832368 -0.12010476 -0.020019963 0.09762331 0.124261454 0.08475437 -0.016297301 -0.1089706
0.028703228 -0.2155489 0.13283016 0.0040666694 0.057396118 0.017361823 0.06954162 0.082967654
-0.13237634 0.0118911965 -0.1436693 -0.14901085 0.09318934 0.07979722 -0.10865219 0.051981427
-0.118586384 -0.055458866 -0.054310385 0.16031362 -0.053782128 -0.13035536 0.11647639 -0.12466777
-0.15895864 -0.122555554 -0.07971809 -0.010973126 -0.11199583 0.13224186 0.015232201 0.005983959
0.034769528 0.11637388 0.090404265 0.04544837 0.09853425 -0.10391096 0.05837535 0.0664272
-0.06271059 0.047824398 0.0718818 0.016075065 -0.12631293 -0.1375408 -0.06685218 -0.120557524
0.012197033 -0.17132892 0.14243366 0.10224623 0.070654795 -0.056672886 -0.004966087 -0.07090307
0.01687935 0.012845048 0.15302993 0.21163972 0.2502673 -0.025761668 -0.13976187 0.03580901
0.10177715 -0.10391608 0.023344275 -0.08982 -0.14827503 -0.06788785 0.123436034 -8.328925e-05
0.040439505 -0.11515856 -0.11431591 -0.12961234 -0.032183625 0.09140886 0.06318028 -0.14201917
0.006874597 0.018443074 0.16947684 0.13413247 -0.086705685 0.10930851 -0.13107514 -0.07142856
0.008134959 -0.13194722 -0.100829475 0.045682505 -0.03902059 -0.03509766 0.0071005686 -0.023451734
0.09820802 0.17697312 -0.20747004 -0.09847053 -0.13088365 0.11129923 -0.06269192 -0.04350212
0.005982956 -0.032965045 0.0015332618 0.031538043 -0.06297762 0.037878115 0.009579831 0.02033629
-0.12502083 -0.04874502 0.048685532 -0.053920962 -0.04297085 0.07844496 0.08646159 -0.09542359
-0.10855149 0.041510034 -0.05322423 -0.09715813 0.023287049 -0.10522469 -0.1726277 -0.04882236
0.086939365 0.055982236 -0.119095065 -0.11642652 -0.010689014 -0.016713655 0.041950062 0.1392756
-0.20485021 0.022347577 0.022938496 0.03848474 -0.06795353 -0.04310896 -0.00076063536 -0.10640061
-0.10709826 0.039402682 0.18296522 0.110585585 -0.08510031 -0.11216657 0.039999552 0.085145175
-0.09355759 -0.11964914 -0.15167524 0.040274024 0.09391159 -0.0345804 0.10326917 -0.08273257
0.042513415 0.18171822 0.06151891 -0.16850626 0.05330478 -0.1575175 -0.16627058 -0.13030063
0.10897659 0.0793046 0.12430998 -0.10147572 0.061221525 -0.18650077 -0.14394581 0.06202747
-0.009837802 -0.13878009 0.07538875 0.018447531 0.041534092 0.01767619 -0.12206995 -0.14029467

fc4.bias f4 [9]
00000000: 0ece c6bd 92ef e3bd 41c7 ebbd e85d 343d
00000010: 0ad3 7dbd cd66 62bd 8b85 0dbe 03bb a53b
00000020: 41f6 4a3d
-0.097072706 -0.11129679 -0.11512614 0.04403487 -0.06196884 -0.05527382 -0.13820474 0.005057694
0.049551252
