policy_p1.pt (torch, 24092 bytes, 6 tensors)

fc1.weight f4 [64, 9]
0	0xbeee461e	-0.4653787
1	0xbea80be9	-0.32821587
2	0xbebba1d1	-0.36646894
3	0x3f3283a5	0.69732124
4	0x3ef9a5a5	0.4875919
5	0x3f18ba56	0.59659326
6	0xbebbdc59	-0.3669155
7	0xbd6ca0a1	-0.057770375
8	0xbe9e1cf9	-0.3088148
9	0xbe9d05a9	-0.3066838
10	0xbe775bc5	-0.24156101
11	0x3f3a193f	0.7269477
12	0xbe335903	-0.17514424
13	0xbe081dff	-0.13292693
14	0x3f3de7bb	0.7418172
15	0xbee58c65	-0.44833675
16	0xbed33589	-0.41251782
17	0x3e571a60	0.21006155
18	0x3edd2d23	0.431985
19	0x3dbf897c	0.09352395
20	0xbdd7e543	-0.10541775
21	0x3d910a48	0.07082039
22	0x3e9e952a	0.30973178
23	0xbcc62a88	-0.024190202
24	0xbe7d57fd	-0.24740596
25	0xbd6b953b	-0.057515364
26	0x3e9cf0f9	0.30652598
27	0x3cc4bb4a	0.024015088
28	0x3d9108f1	0.070817836
29	0xbe71a7cd	-0.23599167
30	0x3dbb2fcc	0.09139976
31	0x3f1f2173	0.62160414
32	0xbf187257	-0.5954947
33	0xbe36d94d	-0.17856331
34	0xbdcf3c81	-0.10118962
35	0x3e1c3606	0.15254983
36	0x3ec5c019	0.3862312
37	0x3e841025	0.25793567
38	0xbeff5a48	-0.49873567
39	0xbeae96db	-0.3409947
40	0x3dbf3ac9	0.09337384
41	0x3f1f6a85	0.6227191
42	0x3f12ee33	0.57394713
43	0x3e82145b	0.25406155
44	0xbeb8ed33	-0.3611847
45	0x3d2705e3	0.0407771
46	0x3dbf8718	0.09351939
47	0xbe2e1531	-0.17000271
48	0x3dcf0d8b	0.10110005
49	0xbee88790	-0.45415926
50	0xbefa8461	-0.48929122
51	0x3f1a6360	0.60307884
52	0x3ea2c494	0.31790602
53	0x3f295423	0.6614401
54	0x3c9915b0	0.0186871
55	0x3e34b224	0.1764608
56	0xbeed5e76	-0.4636113
57	0x3e9c393c	0.30512416
58	0x3f03e416	0.51519907
59	0xbe8eee2c	-0.27916086
60	0xbf00e318	-0.5034652
61	0xbcd333be	-0.025781509
62	0x3df4989f	0.11943173
63	0x3ec7e9c6	0.39045542
64	0xbd9cbf57	-0.07653683
65	0xbe784cdb	-0.24248068
66	0x3e9ca294	0.30592787
67	0xbf736e52	-0.9509021
68	0xbe882b70	-0.2659564
69	0x3f3f1bb4	0.74651647
70	0x3e7a7d88	0.24461949
71	0xbea57f65	-0.32323757
72	0xbf065f88	-0.5248952
73	0x3ed95751	0.4244943
74	0xbf164ed5	-0.5871404
75	0x3dc7573c	0.097334355
76	0x3ed6ca8b	0.41951403
77	0x3dbaf229	0.0912822
78	0xbedccfcc	-0.43127286
79	0x3ec0a0b1	0.37622598
80	0x3e138967	0.14407884
81	0x3eefc478	0.4682958
82	0x3f1bce64	0.608618
83	0x3eb68490	0.35648012
84	0xbec6c025	-0.3881847
85	0xbed52fac	-0.41637933
86	0x3e2a8090	0.16650605
87	0xbdb884bb	-0.09009691
88	0xbc85ea2b	-0.016347012
89	0xbebe4d20	-0.37168217
90	0xbeb12645	-0.3459951
91	0x3f04d603	0.51889056
92	0x3eaa0f67	0.33214876
93	0xbe8dea75	-0.2771794
94	0x3eb8582d	0.36004773
95	0xbebbd592	-0.3668638
96	0xbe982119	-0.29712752
97	0x3d2c78df	0.04210746
98	0x3e359a45	0.1773463
99	0xbe2395b0	-0.1597507
100	0x3d999a65	0.075001515
101	0x3f112367	0.56694645
102	0x3db1608c	0.08660993
103	0xbe99288d	-0.2991375
104	0x3f1cb189	0.612084
105	0xbe524180	-0.20532799
106	0xbdec8c11	-0.11550153
107	0x3ecd1cb6	0.40060967
108	0xbc140c50	-0.009036139
109	0x3ecbeaab	0.39827475
110	0xbed3f4ea	-0.41397792
111	0xbdbc7108	-0.092012465
112	0xbf196d31	-0.5993224
113	0x3f074b1e	0.52848995
114	0xbee90721	-0.4551325
115	0x3ed29388	0.41128182
116	0x3ef2286b	0.4729646
117	0xbe7ef069	-0.24896397
118	0xbe93c51b	-0.28861317
119	0x3e7eb977	0.24875437
120	0xbeac177a	-0.3361166
121	0x3ea1c9ec	0.31599367
122	0xbe874e86	-0.26427096
123	0x3ecddff6	0.4020993
124	0xbe8ffa71	-0.2812076
125	0xbe32e9fb	-0.17472069
126	0x3f2ca959	0.67445904
127	0x3eeae45e	0.45877355
128	0xbe5a33c1	-0.21308805
129	0x3ec86231	0.39137414
130	0xbf5839c5	-0.8446315
131	0xbe9fd0c0	-0.3121395
132	0x3dfd98c1	0.12382651
133	0x3e09887a	0.13430968
134	0xbe918979	-0.28425196
135	0xbdcf535c	-0.101233214
136	0x3eb9b28c	0.36269033
137	0x3ec71a79	0.38887385
138	0x3eb6d801	0.35711673
139	0xbf3d158b	-0.73860997
140	0x3ec78512	0.38968712
141	0x3c9fef04	0.019523151
142	0x3e698300	0.22803879
143	0xbec62db1	-0.38706735
144	0xbe514eaf	-0.20440172
145	0x3eb8dded	0.36106816
146	0xbe19a7c1	-0.150054
147	0x3b0f6d38	0.0021885168
148	0xbea550de	-0.3228826
149	0xbe7f10f9	-0.24908818
150	0xbbfbed83	-0.0076882257
151	0xbdac7dc7	-0.084224276
152	0x3dd68937	0.104753904
153	0x3f0a730e	0.5408181
154	0x3e4e08fa	0.20120612
155	0xbd943fe3	-0.07238748
156	0x3ee7698f	0.45197722
157	0xbefce4ab	-0.4939321
158	0xbe817d12	-0.25290734
159	0x3efc56b8	0.4928491
160	0xbe92141f	-0.28530976
161	0xbeb15285	-0.3463327
162	0xbdc21a1d	-0.09477637
163	0xbeb3bfa6	-0.35107154
164	0x3e7d0c94	0.2471183
165	0xbe7fbee2	-0.2497516
166	0xbe8392d4	-0.25697958
167	0x3ed51fac	0.41625726
168	0x3e24d0ca	0.16095272
169	0xbf04e8f3	-0.5191795
170	0x3f51ad3a	0.8190495
171	0xbd6c1178	-0.057633847
172	0x3ecdb7fe	0.40179437
173	0x3e159184	0.14606291
174	0xbe2369e4	-0.15958363
175	0x3ed3ffaa	0.41405994
176	0xbdb3f5ef	-0.087871425
177	0xbf4ac379	-0.7920452
178	0xbcc3093c	-0.023808114
179	0xbeb97e1a	-0.3622902
180	0x3ecaadd1	0.39585736
181	0xbdd2ab8e	-0.10286628
182	0xbbb4268d	-0.0054977597
183	0xbea782bf	-0.3271694
184	0x3ee5314f	0.44764182
185	0xbe894e7e	-0.26817697
186	0x3e52ebc0	0.20597744
187	0xbea7fa96	-0.3280837
188	0xbdd19d7c	-0.10235116
189	0x3e4872f6	0.19575104
190	0x3e84abf2	0.25912434
191	0xbdfd54d3	-0.123696946
192	0xbe06bf0e	-0.13158819
193	0x3ed25225	0.41078296
194	0xbf119ea9	-0.5688272
195	0xbd75a3a0	-0.059970498
196	0x3d82fb54	0.06395593
197	0xbe069f92	-0.13146809
198	0x3df10cf9	0.117700525
199	0xbc80cf91	-0.015723975
200	0x3f06bacb	0.52628773
201	0xbe241c07	-0.16026317
202	0xbec3443c	-0.38137996
203	0xbf3775a9	-0.7166391
204	0x3e6ca22a	0.23108736
205	0x3e11b04f	0.14227413
206	0x3f3630d8	0.7116828
207	0xbe113f6e	-0.14184353
208	0x3def15ea	0.11674102
209	0x3ecaabdc	0.39584243
210	0xbf00f0fb	-0.50367707
211	0x3eeed7ac	0.4664892
212	0x3e0424b9	0.12904634
213	0xbe589540	-0.21150684
214	0x3da6378a	0.08116062
215	0x3e9c1e27	0.30491754
216	0x3f2b08d7	0.66810364
217	0xbdac3507	-0.08408552
218	0xbe591c93	-0.21202306
219	0x3f147735	0.57994395
220	0xbe535094	-0.20636207
221	0xbd2943a0	-0.041324258
222	0x3f1d6417	0.6148085
223	0xbcbd444c	-0.023103856
224	0xbc8526c6	-0.01625384
225	0xbef7008c	-0.48242605
226	0x3e5cf4e6	0.21577796
227	0xbead056a	-0.33793193
228	0x3e7edf97	0.2488998
229	0x3f2f2d82	0.68428814
230	0x3e8445e0	0.2583456
231	0xbea7da12	-0.32783562
232	0xbea5be4b	-0.32371745
233	0xbf24339b	-0.64141244
234	0xbe3abaef	-0.18235372
235	0xbe6daf88	-0.23211491
236	0xbb05337d	-0.002032488
237	0x3e1e8464	0.1548019
238	0x3f400f8c	0.7502372
239	0xbdba6ceb	-0.09102806
240	0xbf043ca8	-0.51655054
241	0xbe5f5b59	-0.2181219
242	0xbda85909	-0.08220107
243	0xbe9949f6	-0.2993924
244	0xbf320e30	-0.695529
245	0xbee5aab9	-0.44856814
246	0xbe13ae11	-0.1442187
247	0x3ee710c8	0.4512999
248	0x3ec7ae83	0.3900033
249	0x3ec4b39e	0.38418287
250	0x3e87a8d7	0.26496002
251	0x3e98b898	0.29828334
252	0x3f1889f8	0.59585524
253	0xbf268c52	-0.6505786
254	0x3d7fc7e0	0.062446475
255	0xbe8f6784	-0.28008664

fc1.bias f4 [64]
0	0xbf0d76f0	-0.5525961
1	0xbd2a8401	-0.041629795
2	0xbf13f0f7	-0.5778956
3	0x3d976ca4	0.073937684
4	0x3dc183d8	0.09448975
5	0xbea67fab	-0.32519278
6	0xbd85e4b9	-0.06537766
7	0x3e35ca6a	0.17752996
8	0x3bca3a45	0.006171497
9	0xbebfc5ce	-0.374556
10	0xbe1af1c0	-0.15131283
11	0x3ec5bdae	0.38621277
12	0x3f1b469f	0.60654634
13	0xbeeb6775	-0.4597737
14	0x3ee3d807	0.44500753
15	0x3cdc5243	0.026894694
16	0x3f31a072	0.69385445
17	0xbea4c9f8	-0.3218534
18	0xbe23b2c1	-0.15986158
19	0xbd6d4900	-0.057930946
20	0x3f2b20ac	0.6684673
21	0x3f19bee7	0.6005692
22	0xbcd251c1	-0.025673749
23	0x3ee0bcb8	0.4389398
24	0xbf1eb2ab	-0.61991376
25	0x3ddcd0cb	0.107820116
26	0xbdd9e6e0	-0.10639739
27	0x3ebc309c	0.36755836
28	0xbe5a6253	-0.2132657
29	0xbeda63cc	-0.42654264
30	0x3f2dd9b5	0.6791032
31	0x3f1db028	0.6159692
32	0xbef0a3c2	-0.46999937
33	0xbe6df803	-0.2323914
34	0x3f003239	0.50076634
35	0xbf2284fa	-0.63484156
36	0xbeb81a38	-0.35957503
37	0x3edd13c2	0.43179137
38	0x3d5b5379	0.053546403
39	0xbed0fcde	-0.40817922
40	0x3f4fb4b0	0.8113508
41	0x3f00a3c7	0.50249904
42	0xbe9e8917	-0.30963966
43	0xbe4318c5	-0.19052418
44	0xbec21876	-0.37909287
45	0xbe91519b	-0.28382573
46	0xbf075af9	-0.5287319
47	0xbeaf554f	-0.34244773
48	0xbc827c49	-0.015928404
49	0x3f1c9ba9	0.6117502
50	0x3e0f2414	0.13978606
51	0x3f185f33	0.5952026
52	0x3ef22c51	0.47299436
53	0xbe3486e3	-0.1762958
54	0xbe26ab3a	-0.16276255
55	0xbe110fb3	-0.14166145
56	0xbf027bbd	-0.5097006
57	0x3eae6461	0.34060958
58	0xbed0ea17	-0.40803596
59	0x3ec1a14d	0.37818375
60	0x3cce6782	0.02519584
61	0xbf226c24	-0.6344626
62	0x3e6f219c	0.23352665
63	0x3e9b9a2f	0.3039107

fc2.weight f4 [64, 64]
0	0x3ec3efc6	0.3826887
1	0x3d4228e8	0.047402292
2	0xbea0c9ae	-0.3140387
3	0x3dabaa1a	0.08382054
4	0x3e6b9138	0.23004615
5	0xbe96abdb	-0.2942799
6	0x3d349357	0.044085827
7	0xbdeded89	-0.11617572
8	0x3e3552bf	0.17707346
9	0x3e99ab9a	0.30013734
10	0xbd04edef	-0.032453474
11	0x3e2e6d80	0.17033958
12	0x3dc9a526	0.09845953
13	0x3c33b1b9	0.010967665
14	0x3e6058dc	0.21908897
15	0x3dff7bde	0.12474798
16	0x3e23fc2f	0.16014169
17	0x3dbc35c6	0.09189944
18	0x3ee492c4	0.44643223
19	0xbe10cd7a	-0.14140883
20	0x3dd7bd94	0.10534206
21	0xbdf639da	-0.12022753
22	0x3e033f39	0.12817086
23	0xbe17a981	-0.14810754
24	0xbeb4d9be	-0.35322374
25	0x3aef2334	0.0018244744
26	0x3c09a372	0.008400785
27	0x3e6f3157	0.23358665
28	0x3e8e49ca	0.27790672
29	0xbe288995	-0.16458733
30	0xbb9e7d91	-0.004836746
31	0x3dcc77dd	0.099837996
32	0x3e1e4f08	0.15459836
33	0xbad07a62	-0.0015905614
34	0x3e4c06cd	0.1992447
35	0xbf38a5b5	-0.7212785
36	0xbd9bec8e	-0.076134786
37	0x3e5ca5bc	0.21547598
38	0x3dd6abe7	0.104820065
39	0x3e97e887	0.29669592
40	0x3e4a08ed	0.19729967
41	0x3de8562c	0.11344561
42	0x3e2f3f97	0.17114101
43	0xbcc67dc2	-0.024229888
44	0x3d885aa1	0.06657911
45	0xbdcc5e3f	-0.099789135
46	0xbe4a536d	-0.19758387
47	0x3da17096	0.07882802
48	0x3d5b4886	0.05353596
49	0x3cfbd026	0.030738901
50	0xbdfd2481	-0.12360478
51	0x3e3906a6	0.18068942
52	0x3e276029	0.16345276
53	0x3c66bad1	0.014082626
54	0x3ea47996	0.32124013
55	0x3ddf71d4	0.10910383
56	0x3ed11f1e	0.40844053
57	0x3d6c7536	0.05772897
58	0x3d0712b7	0.032976832
59	0xbe77143b	-0.24128811
60	0xbdb7815b	-0.089602195
61	0xbe065e3d	-0.13121887
62	0x3e202c66	0.15641937
63	0x3df1c2a4	0.11804703
64	0xbea5f329	-0.3241208
65	0x3e8c81fb	0.27442917
66	0xbdb1df97	-0.086852245
67	0xbca1c010	-0.019744903
68	0x3c536a02	0.012903692
69	0xbde5e5ae	-0.112254485
70	0x3db8eecd	0.09029923
71	0x3e1520c8	0.14563286
72	0xbdd0cb33	-0.10195007
73	0x3eafa5d5	0.34306207
74	0x3e3851d5	0.17999966
75	0x3e9130b0	0.28357458
76	0x3e41f86e	0.18942425
77	0xbe44f9e5	-0.19235952
78	0x3eed6a3f	0.46370122
79	0x3ea30143	0.318369
80	0x3dd9f196	0.10641782
81	0x3e4fd85d	0.2029738
82	0xbd512ba6	-0.051067017
83	0x3ec05855	0.37567392
84	0xbe19a9ee	-0.1500623
85	0xbdc92487	-0.0982142
86	0xbdc77ed7	-0.0974099
87	0x3d67fe19	0.05663881
88	0xbe60f44f	-0.21968196
89	0xbd78ffeb	-0.060790937
90	0x3cc33f04	0.02383376
91	0x3de4fa2f	0.11180531
92	0xbd242be1	-0.04008091
93	0x3ead36be	0.33830827
94	0xbceae3ad	-0.028673017
95	0xbeec2155	-0.4611918
96	0xbcbd1d6f	-0.023085324
97	0xbd36d9d3	-0.044641327
98	0xbdda9df2	-0.10674657
99	0xbeebae76	-0.4603154
100	0xbc738ecc	-0.014865588
101	0x3e2056ec	0.15658158
102	0x3cfb8ace	0.030705836
103	0x3f0651b3	0.52468413
104	0xbc98b8e6	-0.018642854
105	0x3d2af463	0.04173697
106	0xbe69e347	-0.22840606
107	0x3dd9c027	0.10632353
108	0x3e7fdb36	0.24985966
109	0xbeb71c92	-0.35763985
110	0xbdd4f408	-0.10398108
111	0x3d52833d	0.05139469
112	0x3e4c3e61	0.1994567
113	0x3d4070af	0.046982463
114	0xbe85331b	-0.26015553
115	0x3e3ced81	0.18449976
116	0x3ea7ebad	0.32796994
117	0x3d71b5b4	0.059011176
118	0x3ee09e32	0.43870693
119	0x3df8c879	0.12147612
120	0x3f1231bc	0.5710714
121	0x3e043241	0.12909795
122	0x3e45ea3b	0.19327633
123	0x3d8272a9	0.06369526
124	0x3e5c1807	0.2149354
125	0xbdb425a9	-0.087962456
126	0x3de7eb72	0.113242045
127	0xbe29f39a	-0.16596833
128	0xbc7bf43e	-0.015378056
129	0x3d8792ef	0.06619822
130	0x3c4de4a1	0.012566716
131	0xbd8148d6	-0.063127205
132	0xbd499974	-0.04921861
133	0x3d400d5c	0.04688774
134	0x3cbb5250	0.022866398
135	0xbbe34a14	-0.006936321
136	0xbd584c14	-0.05280693
137	0x3c7792aa	0.015110651
138	0xbde4116c	-0.111361355
139	0xbcdc2693	-0.026873862
140	0xbd4eb0f0	-0.05046171
141	0xbca6aec0	-0.020347
142	0xbcf0a33e	-0.029374715
143	0xbd7087cc	-0.058723256
144	0xba52f100	-0.0008046776
145	0xbc37637d	-0.011193153
146	0xbe05b922	-0.13058904
147	0x3d1cb5bb	0.03825925
148	0x3db4e9c2	0.08833648
149	0xbc4d7b12	-0.012541549
150	0xbdbc492e	-0.091936454
151	0x3d672677	0.056433167
152	0xbd8fb31e	-0.07016586
153	0xbe047b6f	-0.12937711
154	0xbbde9fcf	-0.006793953
155	0x3d008527	0.031376984
156	0xbdd7d2e2	-0.105382696
157	0x3d8cb66c	0.06870732
158	0xbdb17573	-0.0866498
159	0xbd16c1a3	-0.03680576
160	0x3cf9de78	0.03050159
161	0x3d310830	0.0432207
162	0x3d3b449f	0.04571974
163	0x3d811892	0.063035145
164	0x3df2d86c	0.118576854
165	0xbce0243d	-0.02736103
166	0xbde5098c	-0.111834615
167	0x3c24995e	0.010046331
168	0xbdcd7049	-0.10031182
169	0x3dcaf532	0.099100485
170	0x3ddf3264	0.10898283
171	0xbdb4cff7	-0.08828729
172	0xbdde6890	-0.108597875
173	0xbdb70530	-0.08936536
174	0x3ddac48b	0.10682019
175	0x3a52c76f	0.0008040582
176	0xbd2a8627	-0.041631844
177	0xbda3ee66	-0.08004455
178	0x3b251c92	0.0025194031
179	0xbdfb2b0f	-0.12264072
180	0xbc792ad6	-0.015207967
181	0x3d85ddf4	0.06536475
182	0x3bd66920	0.0065432936
183	0x3d89ef6d	0.0673512
184	0x3c67dc35	0.014151623
185	0xbde17459	-0.1100852
186	0x3c745bad	0.014914435
187	0xbde20656	-0.11036365
188	0x3dd6d704	0.1049023
189	0xbcbfc3ce	-0.023408797
190	0xbd340a1a	-0.043954946
191	0xbe045c8c	-0.12925929
192	0x3e09f9c1	0.1347418
193	0x3c8a75ed	0.016901935
194	0x3dc82139	0.09771962
195	0x3da3a51f	0.07990479
196	0x3bbce168	0.005764175
197	0xbece5025	-0.4029552
198	0x3cdae696	0.02672128
199	0xbd9d8bcc	-0.0769268
200	0x3c53d052	0.012928085
201	0x3e9dcd20	0.3082056
202	0x3e3a3710	0.18185067
203	0x3e1f72ab	0.15571086
204	0x3e9267ba	0.28594762
205	0x3e8646ef	0.26225993
206	0x3ebd4c35	0.36972204
207	0x3d32b73a	0.04363177
208	0x3daba5a0	0.083812
209	0x3dc91d7c	0.09820077
210	0x3df2852a	0.11841805
211	0xbd919ff5	-0.071105875
212	0xbbe582aa	-0.0070041018
213	0xbd545596	-0.051839434
214	0xbe51fa7c	-0.20505708
215	0x3d9de044	0.07708791
216	0x3c7d7a74	0.01547109
217	0xbdbba443	-0.0916219
218	0xbe52f73f	-0.2060213
219	0x3eb27f32	0.34862667
220	0xbd3dde17	-0.04635438
221	0xbe53932a	-0.20661607
222	0x3dab879b	0.08375474
223	0x3e5d75be	0.21626946
224	0x3e180e50	0.1484921
225	0x3e44ef0e	0.19231817
226	0x3e0f46d0	0.13991857
227	0xbed679a0	-0.41889668
228	0xbe11a80e	-0.14224264
229	0x3de296d7	0.11063927
230	0x3d73b483	0.05949832
231	0x3e9ca5bc	0.30595195
232	0x3d9a81e6	0.075443074
233	0xbd3cfd79	-0.046140168
234	0x3c044605	0.008073335
235	0x3dc651a9	0.09683544
236	0x3dded4d4	0.108804375
237	0xbe838328	-0.25686002
238	0xbeb39b28	-0.35079312
239	0xbdbfe502	-0.09369852
240	0x3e1a9fda	0.15100041
241	0x3d95a906	0.07307629
242	0xbe857c3e	-0.26071352
243	0xbce4a137	-0.027908904
244	0x3e4528c7	0.19253837
245	0x3defcd59	0.11709089
246	0x3e574ca5	0.21025331
247	0x3d9719dd	0.0737798
248	0x3ef85f07	0.4851
249	0x3dadd5cc	0.08488044
250	0xbe57cc7d	-0.210741
251	0xbe8065fe	-0.25077814
252	0x3c260c62	0.010134788
253	0x3e221eeb	0.15832107
254	0x3d60169d	0.054709066
255	0x3e10e82d	0.14151068

fc2.bias f4 [64]
0	0x3e5be3cb	0.21473615
1	0x3cdf33e7	0.027246429
2	0x3c313e7a	0.010818118
3	0x3e18a095	0.14905007
4	0x3d9caf08	0.07650572
5	0x3e2bd7c1	0.16781522
6	0x3df6b03c	0.12045333
7	0xbc851861	-0.016246976
8	0x3e8063e3	0.25076208
9	0xbe1b735c	-0.15180725
10	0x3cf9496b	0.030430516
11	0x3de1eacf	0.11031114
12	0xbe5ad3d8	-0.21369874
13	0xbe856d28	-0.26059842
14	0xbe3709bd	-0.17874809
15	0xbea0b7b3	-0.3139015
16	0x3da00a7d	0.078145005
17	0xbd593ecd	-0.053038407
18	0x3d73b60e	0.059499793
19	0x3cfa5211	0.03055671
20	0x3e60d4c0	0.21956158
21	0xba2c1d77	-0.000656567
22	0x3d6b438b	0.05743746
23	0xbe251dc2	-0.16124633
24	0xbd81a931	-0.06331099
25	0xbe3d1dc9	-0.18468393
26	0x3aaf0ad7	0.0013354671
27	0x3e757135	0.23968966
28	0xbbccd0b6	-0.006250466
29	0xbe1be66f	-0.15224622
30	0x3cbcbc07	0.023038877
31	0x3d8af4d3	0.06784978
32	0xbd26a4f3	-0.04068465
33	0x3d1d12d4	0.038348034
34	0xbe1d58c3	-0.15365891
35	0xbe141d66	-0.1446434
36	0x3c51130c	0.012760889
37	0xbe3c13b9	-0.18366899
38	0x3e8589e8	0.26081777
39	0xbe5eabac	-0.21745175
40	0xbe62d07f	-0.22149847
41	0xbe1c8984	-0.15286833
42	0x3d9daed4	0.076993614
43	0x3e5df929	0.21677078
44	0x3e9947e0	0.2993765
45	0xbdbafcef	-0.091302745
46	0xbea7ab63	-0.32747945
47	0x3eb8a1ac	0.36060846
48	0xbd07de51	-0.033171
49	0x3cf13bcd	0.02944746
50	0xbe9ea796	-0.30987233
51	0xbcf4d76b	-0.029887876
52	0x3e650cd3	0.22368173
53	0x3a47b414	0.0007618081
54	0x3e193190	0.14960313
55	0x3e7068e8	0.23477519
56	0xbddd1c8a	-0.10796459
57	0xbe93848d	-0.28812066
58	0xbd088d55	-0.03333791
59	0x3c7dce07	0.015491015
60	0x3e33066f	0.17482923
61	0xbad62f37	-0.0016340975
62	0x3bf5e40a	0.007503991
63	0x3d4b53a9	0.04964033

fc3.weight f4 [9, 64]
0	0xbdb34cb2	-0.08754863
1	0x3de22c68	0.11043626
2	0x3d9c1d94	0.07622829
3	0x3e6d72f2	0.2318838
4	0x3e899fe0	0.26879787
5	0x3e12b204	0.1432572
6	0x3d06096a	0.03272382
7	0x3e293ddf	0.16527508
8	0xbe7e1544	-0.248128
9	0xbe571277	-0.21003138
10	0x3e6a4604	0.22878271
11	0x3eb27e15	0.34861818
12	0x3ebe74ff	0.37198636
13	0x3f044a9e	0.51676357
14	0xbf0b1231	-0.5432463
15	0x3e9cc5a1	0.3061953
16	0xbe906f43	-0.28209886
17	0xbed80ab8	-0.42195678
18	0x3eb74e4b	0.3580192
19	0x3e417ab6	0.18894467
20	0xbef329b7	-0.47492763
21	0xbe6bb599	-0.23018493
22	0x3daf7ecb	0.08569106
23	0xbdd316e0	-0.103070974
24	0x3d7aa86e	0.061195783
25	0x3ead08d4	0.33795798
26	0xbe916906	-0.2840044
27	0x3e2a558f	0.166342
28	0x3f028f80	0.51000214
29	0x3e0391e6	0.12848625
30	0xbe9c9d58	-0.30588794
31	0x3e635e31	0.222039
32	0x3f118f24	0.5685904
33	0xbe6a3078	-0.22870052
34	0xbc2a7cf1	-0.010405765
35	0x3e8346cb	0.25639948
36	0xbe1fcb53	-0.15604906
37	0x3f01a707	0.5064549
38	0xbe7313bb	-0.23737995
39	0x3eea596f	0.45771357
40	0x3f0dcecb	0.55393666
41	0xbe132380	-0.14369011
42	0x3e7ca540	0.24672413
43	0xbf07c40d	-0.53033525
44	0xbd8e6c29	-0.06954224
45	0x3e5b911c	0.21442074
46	0x3f09df98	0.538568
47	0xbedf2cd3	-0.43588886
48	0x3e179232	0.14801863
49	0x3e3e4333	0.18580322
50	0x3f15bfd9	0.5849586
51	0xbed2f236	-0.41200417
52	0x3e8fc3c5	0.28079048
53	0x3eb3018b	0.34962115
54	0x3bfc0e2c	0.007692119
55	0xbec1b347	-0.3783209
56	0x3f02b65b	0.510595
57	0xbe2d691c	-0.16934627
58	0xbdd4dc59	-0.103935905
59	0xbc33100d	-0.01092912
60	0xbe7afc8c	-0.24510401
61	0xbedfc6bc	-0.4370631
62	0x3dfc9b2d	0.12334285
63	0xbe8f6368	-0.28005528
64	0x3ec02bb8	0.37533355
65	0xbcab3d04	-0.020903118
66	0xbb7ba480	-0.003839761
67	0x3e3082fa	0.17237464
68	0x3de1c654	0.11024156
69	0x3d827149	0.06369264
70	0xbea73271	-0.3265567
71	0xbd5d5f84	-0.05404617
72	0xbe9030df	-0.28162286
73	0x3e274481	0.16334726
74	0x3e101d3a	0.14073649
75	0x3e90aef3	0.28258476
76	0x3f00433a	0.5010258
77	0x3e5e91fb	0.21735375
78	0xbe66cea6	-0.22539768
79	0xbd2623e2	-0.040561564
80	0xbe39d133	-0.1814621
81	0xbe857f21	-0.26073554
82	0x3ed22579	0.41044214
83	0x3e6ae74a	0.22939792
84	0xbf19e988	-0.60121965
85	0x3e00e793	0.12588339
86	0xbdd43d5c	-0.10363266
87	0xbe792685	-0.243311
88	0x3e704d78	0.23467052
89	0xbe4cb88c	-0.19992274
90	0xbe6d5303	-0.23176198
91	0xbe3dbc07	-0.18528758
92	0x3d156d55	0.03648122
93	0x3d4e13bb	0.050311785
94	0xbee6bdce	-0.45066684
95	0xbdaefa3d	-0.08543823
96	0xbd87155f	-0.06595873
97	0xbe96335b	-0.29336056
98	0x3ed32d00	0.4124527
99	0x3e399bbc	0.18125814
100	0x3edcc438	0.43118453
101	0x3ec18a0f	0.37800643
102	0xbe0f3029	-0.13983215
103	0xbcd229b3	-0.02565465
104	0x3ddd8d6e	0.10817991
105	0x3e854f80	0.26037216
106	0x3e67462d	0.22585364
107	0xbeb9ad1b	-0.36264881
108	0xbe80e4a1	-0.2517443
109	0x3ee6ba50	0.4506402
110	0x3f09ef5f	0.53880876
111	0xbd1cccc0	-0.038281202
112	0xbec0fd96	-0.3769347
113	0xbe611934	-0.2198227
114	0x3ea6786f	0.3251376
115	0x3ea1cb53	0.31600437
116	0xbe68a0f9	-0.22717656
117	0xbedb94e4	-0.42887032
118	0xbec09aac	-0.37618005
119	0xbdbbbe8d	-0.09167204
120	0xbe94dc24	-0.29074204
121	0x3cd10149	0.025513308
122	0x3e8e78f6	0.2782666
123	0xbd7309aa	-0.05933539
124	0xbeebc72d	-0.46050397
125	0xbdc2221a	-0.094791606
126	0xbd80415e	-0.06262468
127	0x3d646190	0.055757105
128	0x3dd86b0e	0.10567294
129	0x3ebc207f	0.36743543
130	0x3d433567	0.04765835
131	0x3e91c048	0.2846701
132	0x3e627897	0.22116314
133	0x3e5f4332	0.21802977
134	0x3e5f9e57	0.21837746
135	0xbe96af34	-0.29430544
136	0xbe345054	-0.17608768
137	0x3f0c2868	0.54749155
138	0x3eadf1f0	0.33973646
139	0x3d14d33f	0.036334272
140	0x3eb81256	0.3595149
141	0xbdce9227	-0.1008647
142	0xbd7f1d86	-0.062284015
143	0x3f0a55a7	0.54036945
144	0xbda3e1ec	-0.080020756
145	0xbf0dea15	-0.55435306
146	0x3eb43b33	0.35201415
147	0xbbff7747	-0.0077962014
148	0xbcdd59f2	-0.027020428
149	0x3dc6cb63	0.09706762
150	0xbde153b9	-0.11002297
151	0x3f16cfc4	0.58910775
152	0x3c4ca813	0.012491244
153	0x3e1f82eb	0.15577285
154	0x3ec26048	0.37964082
155	0x3de72ff2	0.11288442
156	0xbe4172fb	-0.18891518
157	0x3cf33ad0	0.02969113
158	0xbd2de3c3	-0.04245354
159	0xbedb4c1a	-0.42831498
160	0xbd289b2d	-0.041163612
161	0x3edab440	0.42715645
162	0x3cc762c6	0.024339091
163	0xbc11f3ad	-0.0089081945
164	0x3ede2d32	0.43393856
165	0x3f062c03	0.52410907
166	0xbc036e25	-0.008021866
167	0x3e26c577	0.16286264
168	0xbce3c24c	-0.027802609
169	0x3eed9d94	0.46409285
170	0xbd4bedd4	-0.049787357
171	0xbec3edbb	-0.3826731
172	0xbed85d3e	-0.42258638
173	0x3eb56eb4	0.35436022
174	0x3ee99ac0	0.45625877
175	0xbe2c005a	-0.16797009
176	0x3c827c42	0.015928391
177	0xbe0d6731	-0.13808896
178	0x3f0e98bb	0.557018
179	0x3d945938	0.072435796
180	0xbea49714	-0.32146513
181	0xbef4a5af	-0.47782657
182	0xbe238ca0	-0.15971613
183	0xbd7fa259	-0.062410686
184	0xbe9d9f1d	-0.30785456
185	0x3f1d0c83	0.61347216
186	0xbf1dc187	-0.61623424
187	0x3dac5090	0.084138036
188	0xbe8ffeba	-0.28124028
189	0xbe445029	-0.19171204
190	0xbd92e20d	-0.07172022
191	0xbeb758c1	-0.358099
192	0xbe8a9568	-0.27067113
193	0xbea474d1	-0.32120374
194	0x3cdd0ff8	0.026985154
195	0xbe919a9b	-0.28438267
196	0xbe1788b3	-0.1479824
197	0xbe690ed1	-0.22759558
198	0x3e0b2d04	0.13591391
199	0x3ea73e97	0.3266494
200	0xbec74047	-0.38916227
201	0x3ebbed1e	0.36704344
202	0xbdd10526	-0.1020606
203	0x3d05bb07	0.032649066
204	0x3dba727b	0.09103867
205	0x3f015515	0.5052045
206	0xbe86b306	-0.2630846
207	0xbd516f5b	-0.051131587
208	0xbd5fc882	-0.05463458
209	0x3e4022ad	0.18763228
210	0xbe18ee92	-0.14934757
211	0xbea302e3	-0.3183814
212	0xbe9f22c5	-0.31081215
213	0x3e95af32	0.29235226
214	0x3e8ecbb3	0.27889785
215	0x3db24926	0.08705358
216	0xbe016edf	-0.1263995
217	0x3ee3d88b	0.44501147
218	0x3e952c08	0.29135156
219	0xbdd80888	-0.10548502
220	0xbdcbdb9f	-0.09953999
221	0x3ef27a66	0.47359008
222	0xbead943a	-0.3390215
223	0xbe2abc2d	-0.16673346
224	0x3f34307c	0.7038648
225	0x3c00f1ea	0.007870177
226	0x3e8a7071	0.2703891
227	0xbe20bc72	-0.15696886
228	0x3eb5171b	0.3536919
229	0x3ee2c4ee	0.4429087
230	0xbe778958	-0.24173486
231	0x3eb6bc68	0.35690618
232	0x3ef6db24	0.48214066
233	0x3ed34525	0.4126369
234	0x3d93b5f8	0.07212442
235	0x3d8c3d72	0.06847657
236	0xbe3afb00	-0.18259811
237	0xbcba7b11	-0.02276376
238	0x3ef2a365	0.47390285
239	0xbf070e36	-0.5275606
240	0x3be0a429	0.006855507
241	0xbea26e2c	-0.3172468
242	0xbd4757e7	-0.048667815
243	0x3e368a19	0.17826118
244	0x3e0d2f68	0.13787615
245	0x3e28f7f5	0.16500838
246	0xbecc4113	-0.39893398
247	0x3e5a1918	0.21298635
248	0x3f1975f8	0.5994563
249	0xbe31357c	-0.17305559
250	0xbda2612e	-0.07928692
251	0xbe379cc8	-0.17930901
252	0xbeb0713d	-0.34461394
253	0xbb3b9aac	-0.0028626127
254	0x3e68b2dd	0.22724481
255	0xbee027ee	-0.43780464

fc3.bias f4 [9]
0	0x3b07815e	0.0020676474
1	0xbd805d20	-0.06267762
2	0xbe6822af	-0.2266948
3	0x3c225a9d	0.009909299
4	0x3e75f792	0.24020222
5	0xbdb1e2eb	-0.08685859
6	0xbe314f52	-0.17315415
7	0xbe4da0fc	-0.20080942
8	0xbe1a59ea	-0.15073362
