policy_p1.pt (torch, 41304 bytes, 8 tensors)

fc1.weight f4 [64, 9]
0	0xbe78bcab	-0.24290721
1	0x3d89e9bf	0.06734037
2	0x3da8f3e3	0.08249643
3	0xbe4cfa55	-0.20017369
4	0x3ec1747e	0.3778419
5	0xbe92d296	-0.2867629
6	0xbd9282c7	-0.0715385
7	0x3ebdfb78	0.37105918
8	0x3dc7125b	0.09720298
9	0xbe0f30b5	-0.13983424
10	0x3f01055a	0.5039879
11	0xbe8ef2b2	-0.27919537
12	0x3de3cd2b	0.11123117
13	0xbcc2a0d9	-0.023758339
14	0x3e7bd542	0.2459307
15	0xbed80e06	-0.421982
16	0xbdb5017c	-0.08838174
17	0xbe4c2e0e	-0.19939443
18	0xbe843709	-0.25823238
19	0xbe30544f	-0.17219661
20	0x3eb635e4	0.3558799
21	0xbe0e8f2e	-0.13921806
22	0x3d8b73e0	0.06809211
23	0x3e9c4ab4	0.30525744
24	0xbe6b2dcd	-0.2296669
25	0x3d19ca67	0.03754654
26	0xbeae33e9	-0.3402398
27	0x3ccf66a9	0.025317507
28	0xbb0187db	-0.0019764814
29	0x3ebaa91d	0.36457148
30	0xbcc507d0	-0.024051577
31	0x39676003	0.00022065644
32	0x3e637789	0.22213568
33	0x3d9f65bc	0.07783076
34	0xbe6fe8e0	-0.23428679
35	0xbe5e2a75	-0.21695884
36	0xbe456ba6	-0.19279346
37	0xbe820f9a	-0.25402528
38	0xbea110dd	-0.31458178
39	0xbe466b5b	-0.1937689
40	0xbe1afc7c	-0.15135378
41	0xbe87f87d	-0.2655677
42	0x3eaef9ab	0.34174857
43	0x3e72d0ec	0.2371251
44	0x3e9f42a9	0.31105545
45	0xbe7d7359	-0.24751033
46	0x3db583ec	0.08863053
47	0x3ee72491	0.45145085
48	0x3d8e3bc3	0.069449924
49	0x3e939dbc	0.2883128
50	0xbe0b9610	-0.13631463
51	0x3e369522	0.17830327
52	0xbdd48217	-0.10376375
53	0xbe8bd8ae	-0.2731375
54	0xbce31490	-0.027719766
55	0x3d13b47a	0.036060788
56	0x3ec2ab93	0.38021526
57	0x3d2803c6	0.041019224
58	0x3d7591bb	0.059953433
59	0x3e8e7ab8	0.27828002
60	0xbcc3ca6f	-0.023900239
61	0x3cfb8faf	0.030708162
62	0x3dbab99c	0.091174334
63	0x3e0499f9	0.12949361
64	0x3e82d3f9	0.25552347
65	0x3de04076	0.10949795
66	0xbe978689	-0.2959483
67	0xbe98ec20	-0.2986765
68	0xbe9212a5	-0.2852985
69	0xbe969b00	-0.2941513
70	0xbe8ede97	-0.27904198
71	0xbe917dfa	-0.28416425
72	0xbefe09bd	-0.49616805
73	0xbdd7adce	-0.105311975
74	0xbdb74db3	-0.08950367
75	0x3e433b9c	0.19065708
76	0x3eee5f2e	0.4655699
77	0x3e115a17	0.14194523
78	0xbe274e76	-0.16338524
79	0xbda6aaf6	-0.08138077
80	0x3dd326d2	0.10310139
81	0x3c34da5e	0.011038391
82	0x3edceb03	0.4314805
83	0x3e8971cb	0.2684463
84	0x3e180bbe	0.1484823
85	0x3ea21018	0.31652904
86	0x3e41c676	0.18923363
87	0x3e53ffe4	0.20703083
88	0x3ebd9424	0.37027085
89	0x3e7e40ca	0.24829403
90	0xbeef9e16	-0.46800297
91	0xbdb4e196	-0.088320896
92	0xbe03e162	-0.12878945
93	0xbe669335	-0.22517093
94	0xbe0114dd	-0.12605615
95	0xbe49afcb	-0.19695966
96	0x3ec22266	0.3791687
97	0xbd4b3f27	-0.049620774
98	0xbed671ad	-0.41883603
99	0xbe8b1c8c	-0.27170217
100	0xbe8df8ca	-0.27728873
101	0x3e520225	0.2050863
102	0xbe90bbd8	-0.28268313
103	0x3e2a999e	0.16660163
104	0xbe977336	-0.29580086
105	0x3e6e0fb2	0.23248175
106	0xbe9b6910	-0.30353594
107	0xbe910336	-0.28322762
108	0xbe4d6daa	-0.20061365
109	0xbec2da47	-0.38057157
110	0xbe831c47	-0.2560751
111	0xbe1a8fa4	-0.15093857
112	0x3ee20de5	0.44151226
113	0xbe031ae7	-0.12803231
114	0xbd0b6d0f	-0.034039553
115	0xbe1f0ee3	-0.15533023
116	0xbe3faffc	-0.18719476
117	0xbe84b81d	-0.25921717
118	0xbe863e63	-0.26219472
119	0x3eb56b67	0.35433504
120	0xbeb75696	-0.35808247
121	0x3e5e4326	0.21705303
122	0x3cdb6268	0.026780322
123	0xbf0299df	-0.5101604
124	0x3e6a7033	0.22894363
125	0x3e9c5786	0.30535525
126	0xbe5cfc9b	-0.21580736
127	0xbe31e6e8	-0.1737324
128	0x3e6d1497	0.23152386
129	0xbec3c775	-0.3823811
130	0x3d9a61e6	0.07538204
131	0x3e8ce8ee	0.2752146
132	0xbeacbdae	-0.33738464
133	0xbef8eba7	-0.48617288
134	0x3eb6f628	0.35734677
135	0x3e163308	0.14667904
136	0xbd955ece	-0.07293473
137	0xbecc25a4	-0.39872468
138	0xbe818e1c	-0.25303733
139	0x3ebce70a	0.3689502
140	0x3d6e6ae7	0.05820742
141	0xbe93fd7d	-0.28904334
142	0xbe828815	-0.25494447
143	0x3e90603a	0.28198415
144	0xbd89f9db	-0.06737109
145	0xbea9a00d	-0.33129922
146	0xbe828159	-0.2548931
147	0x3b87c73b	0.004143623
148	0xbebe7c66	-0.37204283
149	0xbe091db1	-0.13390233
150	0x3e85de02	0.2614594
151	0x3e91b2e6	0.284568
152	0x3f0c478a	0.5479666
153	0xbeda9b9f	-0.42696854
154	0x3e1f870c	0.1557886
155	0x3ea5580d	0.3229374
156	0xbc414f36	-0.0117986705
157	0xbee79f51	-0.45238736
158	0x3eb1d44f	0.3473229
159	0x3ce53de2	0.02798361
160	0xbe19be28	-0.15013945
161	0xbebd8e72	-0.3702274
162	0x3db023ca	0.08600576
163	0x3e955304	0.29164898
164	0x3cfd0ce5	0.030889938
165	0x3e732c1d	0.23747297
166	0x3ecd232d	0.400659
167	0x3ed7ad23	0.4212428
168	0x3e8bed63	0.2732955
169	0x3d8dd789	0.06925876
170	0x3d229527	0.039693024
171	0x3db65455	0.08902804
172	0x3d93ef01	0.07223321
173	0xbf0d4ddb	-0.55196923
174	0x3c6a8655	0.014314254
175	0xbd98c01e	-0.074585184
176	0xbe82bb7c	-0.25533664
177	0xbebd5342	-0.36977583
178	0xbea94996	-0.33063954
179	0x3e478966	0.19486007
180	0x3e969649	0.29411533
181	0x3e1dabec	0.15397614
182	0x3d60bae4	0.054865733
183	0x3eafb16b	0.34315047
184	0x3d8fbeec	0.07018837
185	0x3d9cef77	0.07662862
186	0x3e9898f4	0.29804194
187	0x3e80e9aa	0.25178272
188	0x3dde3730	0.1085037
189	0xbda0d936	-0.0785393
190	0xbe140097	-0.1445335
191	0xbef2acc3	-0.47397432
192	0x3c9f9796	0.019481461
193	0xbf01b1d4	-0.5066197
194	0x3d454446	0.048160814
195	0x3e9bcc8b	0.3042949
196	0x3c379686	0.011205321
197	0x3d9fa118	0.07794398
198	0x3ea28e92	0.31749398
199	0xbde56c97	-0.112023525
200	0xbb0669b0	-0.0020509772
201	0xbeb0de51	-0.34544614
202	0x3ea7d830	0.32782125
203	0xba62a3dd	-0.00086456334
204	0x3e146925	0.14493234
205	0xbef79fd6	-0.48364133
206	0x3e524db8	0.2053746
207	0x3e3c9166	0.1841484
208	0xbe937758	-0.2880199
209	0x3d8e7006	0.069549605
210	0x3e83ca73	0.25740394
211	0xbe8f8e37	-0.2803819
212	0xbd86c43c	-0.065803975
213	0x3e4e368a	0.20137993
214	0xbebb3478	-0.36563468
215	0xbf02d406	-0.5110477
216	0xbd33d852	-0.04390747
217	0x3d975c80	0.0739069
218	0xbe38d576	-0.18050179
219	0xbe8a4b53	-0.27010593
220	0xbe89b5e0	-0.26896572
221	0x3e41050b	0.1884958
222	0x3e953486	0.29141635
223	0x3eb84d53	0.35996494
224	0x3eb590ed	0.35462132
225	0xbddd8c52	-0.108177796
226	0x3ed31c5c	0.41232574
227	0x3e58841b	0.21144144
228	0x3ccac562	0.024752323
229	0xbd8b88dd	-0.06813214
230	0xbe941480	-0.2892189
231	0xbd44a20a	-0.048006095
232	0xbe4d48e9	-0.20047344
233	0x3e83511f	0.25647828
234	0xbe1b18ae	-0.15146133
235	0xbe8a6d6b	-0.27036604
236	0xbeafbd8b	-0.34324297
237	0x3de3f7c0	0.11131239
238	0x3ec883a5	0.39162937
239	0x3e27514a	0.16339603
240	0xbf09874f	-0.5372209
241	0x3a082f86	0.000519507
242	0xbe0bc65a	-0.13649884
243	0xbed1065f	-0.40825173
244	0xbeada8d7	-0.33917877
245	0x3d1ef62d	0.03880899
246	0xbeb2caea	-0.34920436
247	0xbece0035	-0.40234533
248	0x3e23717f	0.15961264
249	0xbe8eac3a	-0.27865773
250	0xbe8dac6f	-0.2767062
251	0x3e3e59ff	0.18589018
252	0x3f000650	0.5000963
253	0x3e049438	0.12947166
254	0xbe68bf75	-0.22729285
255	0x3ec11baf	0.37716433

fc1.bias f4 [64]
0	0x3e2794b1	0.16365315
1	0x3d50e422	0.050998814
2	0x3e40b78c	0.18820018
3	0x3e627e5f	0.22118519
4	0xbee87e8d	-0.4540905
5	0x3e7e4ecc	0.24834746
6	0x3e8b82fb	0.27248368
7	0xbedad852	-0.42743164
8	0x3d22b4f7	0.039723363
9	0x3ee3ec8d	0.4451641
10	0xbde7ea7e	-0.11324023
11	0xbeee0252	-0.46486145
12	0xbd9e3003	-0.07724001
13	0x3de67658	0.11253041
14	0xbe8c0632	-0.27348477
15	0xbe67da47	-0.2264186
16	0xbeb5a4c3	-0.35477266
17	0x3dffdb05	0.124929465
18	0x3eb70b2b	0.35750708
19	0x3e62acf7	0.22136293
20	0x3e2b779c	0.16744846
21	0xbe1a20aa	-0.15051523
22	0xbe1e1f87	-0.15441714
23	0xbe01c0e6	-0.12671241
24	0xbb2ceb96	-0.0026385537
25	0x3d8a908c	0.067658514
26	0xbe297f03	-0.16552357
27	0xbebf5fa8	-0.37377667
28	0xbddce6be	-0.10786198
29	0xbea363d4	-0.319121
30	0x3e91789b	0.28412327
31	0x3e0420b3	0.12903099
32	0x3a0903ad	0.0005226683
33	0x3d945f4d	0.0724474
34	0x3e6a399c	0.22873539
35	0x3e2c73b7	0.16841017
36	0xbe44f492	-0.19233921
37	0x3e29c0e6	0.16577491
38	0x3e94e146	0.2907812
39	0x3edf35df	0.43595788
40	0xbde62b63	-0.11238744
41	0x3f088d5d	0.53340703
42	0xbe98e46e	-0.29861778
43	0xbe5efe37	-0.21776663
44	0xbe564b92	-0.20927265
45	0x3e3c28d6	0.18374953
46	0xbed5e2af	-0.41774508
47	0xbee7e7cf	-0.45294043
48	0x3e8e23f3	0.27761802
49	0xbe4a4f94	-0.19756919
50	0xbeb545cc	-0.35404813
51	0xbec400c4	-0.38281834
52	0x3eb34f71	0.35021546
53	0xbdfbc42a	-0.12293275
54	0xbe4daa9a	-0.2008461
55	0xbc87d22e	-0.016579714
56	0x3cfeeb9b	0.031118205
57	0x3ec24eb3	0.37950668
58	0xbcc885f2	-0.024477933
59	0xbe8020a4	-0.25024903
60	0xbd92dd2b	-0.07171091
61	0xbdf61d02	-0.120172516
62	0x3eab000c	0.33398473
63	0xbe691f00	-0.22765732

fc2.weight f4 [64, 64]
0	0x3e2e0d4d	0.16997261
1	0xbd9db115	-0.07699791
2	0x3d1921de	0.037385814
3	0x3dbc4995	0.09193722
4	0xbc87723f	-0.016533969
5	0x3c74253d	0.014901456
6	0xbd26fab7	-0.040766444
7	0xbdc092be	-0.09402989
8	0xbd35c26a	-0.04437486
9	0xbd712f85	-0.05888321
10	0xbb9a69ed	-0.0047123344
11	0xbf26634d	-0.6499527
12	0x3c67027c	0.014099713
13	0xbe4370d0	-0.19086003
14	0xbe119de9	-0.14220394
15	0x3df4f5a0	0.11960912
16	0xbe4c408a	-0.19946495
17	0x3e2f168f	0.17098449
18	0x3e2c154e	0.16805002
19	0xbd7a3695	-0.06108721
20	0xbb1f47e7	-0.0024304332
21	0xbd6db136	-0.05803033
22	0xbcfff92d	-0.031246746
23	0x3de20843	0.11036732
24	0xbced7ab3	-0.028989172
25	0xbd16a949	-0.036782537
26	0x3e7710a7	0.24127446
27	0xbdeb9067	-0.11502152
28	0xbe4234ab	-0.18965404
29	0x3d10e084	0.035370365
30	0x3de7d902	0.11320688
31	0x3e88f225	0.26747242
32	0x3e0787ee	0.13235447
33	0x3d1df2ae	0.038561516
34	0x3da58d55	0.080835976
35	0x3d847b31	0.064688094
36	0xbe0b2492	-0.13588169
37	0x3bcb8aa9	0.006211598
38	0xbccfc3cf	-0.025361924
39	0x3d0bd4ae	0.034138374
40	0x3ca99b08	0.020703807
41	0xbceb66ca	-0.028735537
42	0x3e5ffbb5	0.21873362
43	0xbdec98a7	-0.115525536
44	0x3ddaeb45	0.10689405
45	0xbd13ce0a	-0.036085166
46	0x3ec55a87	0.3854563
47	0xbe0cf85f	-0.13766621
48	0xbd21d2c0	-0.039507627
49	0x3e38a5c1	0.1803198
50	0x3d0654e9	0.03279582
51	0x3e2c2350	0.16810346
52	0x3df29731	0.11845244
53	0xbe4e5205	-0.20148475
54	0x3e163480	0.14668465
55	0xbd32fef5	-0.043700177
56	0xbd8fa5de	-0.070140585
57	0xbe6ec031	-0.23315503
58	0x3d1bdc0b	0.038051646
59	0x3d87409d	0.06604121
60	0x3d23d7a7	0.040000584
61	0x3cd28008	0.025695816
62	0x3b9c6003	0.0047721877
63	0x3de4cd76	0.11172001
64	0xbd79001f	-0.06079113
65	0x3cfa9537	0.03058873
66	0x3c2e89d0	0.010652974
67	0xbabe0e51	-0.0014500116
68	0x3e4fd865	0.20297392
69	0x3e16b3cf	0.14717029
70	0x3da3ee39	0.08004422
71	0x3ef7d7d3	0.48406848
72	0xbc48fb1d	-0.012266901
73	0xbe2cd0ae	-0.1687648
74	0x3e415da4	0.18883377
75	0x3f0d5144	0.55202127
76	0x3e1d7c7e	0.15379521
77	0x3dc14f80	0.094389915
78	0x3dc40c76	0.09572689
79	0x3dbc5f33	0.09197845
80	0x3e4bb94b	0.19894902
81	0x3d353ce8	0.044247538
82	0xbe65f433	-0.22456436
83	0xbca6cbc2	-0.020360831
84	0xbdb04794	-0.086074024
85	0x3d215f71	0.03939766
86	0x3d33e8ff	0.043923374
87	0x3d8fd1d5	0.07022444
88	0xbd9cda28	-0.076587975
89	0xbc63dea2	-0.01390806
90	0xbe08996c	-0.13339776
91	0x3d102a19	0.035196397
92	0xbbbb91a4	-0.005724149
93	0x3de0ec25	0.10982541
94	0x3d490609	0.04907802
95	0x3c658b82	0.014010312
96	0xbd9aa625	-0.07551221
97	0x3def8a07	0.116962485
98	0xbd19c7df	-0.037544128
99	0xbc0ae2a0	-0.008476883
100	0x3d97e215	0.074161686
101	0xbba90f34	-0.005159283
102	0xbd4e94dc	-0.050434932
103	0xbd225d56	-0.039639793
104	0x3b1fa8c5	0.002436207
105	0xbdca6966	-0.098833844
106	0xbcf7a9a5	-0.03023226
107	0x3e06167f	0.13094519
108	0xbdf7efcd	-0.12106285
109	0x3d273a8f	0.04082733
110	0xbe1dd3aa	-0.15412775
111	0x3e5735e8	0.21016657
112	0x3dd2aee2	0.102872625
113	0xbc89b2ee	-0.016808953
114	0x3ca25f94	0.019820966
115	0x3bdb667b	0.0066955662
116	0x3cf72c4d	0.030172491
117	0x3d8aa72f	0.06770169
118	0xbdbef865	-0.09324721
119	0xbd92f38e	-0.071753606
120	0xbe1fe2a0	-0.15613794
121	0xbe409ac6	-0.18809041
122	0x39905c2a	0.00027534488
123	0xbd8eb6ef	-0.069684856
124	0x3dab0637	0.08350795
125	0x3d9f7dad	0.07787643
126	0xbe3db8df	-0.18527554
127	0xbd57404e	-0.05255156
128	0x3dfbaac1	0.12288428
129	0x3e42d833	0.19027786
130	0x3d40f7ce	0.047111325
131	0x3cda659e	0.026659783
132	0x3e422ac7	0.18961631
133	0xbde58b46	-0.11208205
134	0xbb897987	-0.0041953954
135	0x3e38b39f	0.1803727
136	0x3de7e228	0.11322433
137	0xbe1baca6	-0.15202579
138	0x3e3db403	0.185257
139	0x3ebb8a62	0.36629015
140	0x3d516e41	0.051130537
141	0x39b7e2ae	0.0003507337
142	0x3dd17a61	0.1022842
143	0xbc1ded5d	-0.009639111
144	0x3e40dd6e	0.18834469
145	0x3cf61c34	0.030042745
146	0xbe0ecbb7	-0.13944899
147	0x3c34f87c	0.011045571
148	0xbe2cf4ca	-0.16890255
149	0x3dff7cdc	0.12474987
150	0x3df3b720	0.11900163
151	0x3e1adef6	0.15124115
152	0x3cb7cbd0	0.022436053
153	0x3c975dcb	0.018477341
154	0x3e2bef7f	0.1679058
155	0x3e00977f	0.12557791
156	0x3e363d69	0.17796864
157	0x3c913e9a	0.017730046
158	0x3c13469c	0.008989003
159	0x3e26fc2d	0.16307135
160	0xbe493655	-0.19649632
161	0x3d166224	0.036714688
162	0x3dcad5b7	0.09904044
163	0x3df4f68b	0.11961087
164	0x3e4c0330	0.19923091
165	0x3e2296d0	0.15877843
166	0xbe2dbead	-0.16967268
167	0xbe694f90	-0.22784257
168	0xb96fe7bd	-0.00022879145
169	0xbe13892c	-0.14407796
170	0x3d895105	0.067049064
171	0x3cbc5ecd	0.022994423
172	0xbe12d760	-0.14339972
173	0x3d8af98e	0.0678588
174	0xbd91b0e4	-0.07113817
175	0x3d8c1e2f	0.068416946
176	0x3dfa66d8	0.12226647
177	0x3c43d049	0.0119515145
178	0x3d94e9a4	0.07271126
179	0x3d4c3703	0.04985715
180	0xbdcf7271	-0.1012925
181	0x3e2d71f0	0.16937995
182	0x3d977a4f	0.073963754
183	0x3da87b8e	0.08226691
184	0x3da3f206	0.08005147
185	0x3da12d0a	0.07869919
186	0x3d1b6fef	0.037948545
187	0x3de5e7d1	0.11225856
188	0x3ddba319	0.10724468
189	0xbdb561e4	-0.08856562
190	0xbe48d21c	-0.196114
191	0x3d67d18a	0.056596316
192	0xbe602226	-0.21888027
193	0x3d3234f1	0.04350752
194	0x3d7c6c27	0.06162658
195	0x3de05170	0.10953033
196	0xbe999cf1	-0.3000255
197	0xbd6010b1	-0.05470342
198	0xbda56f41	-0.080778606
199	0xbe14e530	-0.14540553
200	0x3e96ac8a	0.29428512
201	0xbe7bdee0	-0.24596739
202	0xbdd1d605	-0.10245899
203	0xbd397b54	-0.04528363
204	0x3dd6bcdd	0.104852416
205	0x38aa3023	8.115198e-05
206	0xbc84adb7	-0.016196115
207	0x3e7bbb43	0.24583153
208	0xbe80e21a	-0.25172502
209	0xbd0b0d59	-0.033948276
210	0xbd2c23d6	-0.042026363
211	0x3dc5729e	0.09641002
212	0xbe41b837	-0.18917929
213	0x3d9bd2dc	0.076085776
214	0xbe1cdcbb	-0.15318577
215	0x3e019943	0.12656121
216	0xbe06f13c	-0.13177961
217	0xbdccd333	-0.100012206
218	0x3ec53dfb	0.3852385
219	0xbea22410	-0.31668139
220	0xbddd1a91	-0.10796083
221	0xbe3fe72e	-0.18740532
222	0xbd929b20	-0.07158494
223	0x3d5e17b6	0.05422183
224	0xbd9f5682	-0.07780172
225	0x3ae1ce15	0.0017227555
226	0x3de65e60	0.11248469
227	0xbdfb0ff4	-0.12258902
228	0x3d877f4c	0.06616077
229	0x3e329005	0.17437752
230	0xbdf09652	-0.11747421
231	0xbe9e373d	-0.30901518
232	0x3df9bd0e	0.121942624
233	0xbc8a0a86	-0.016850721
234	0xbb8fac8c	-0.004384583
235	0x3e03253a	0.1280717
236	0xbe1bda53	-0.15220003
237	0xbe77108a	-0.24127403
238	0xbdd713da	-0.10501833
239	0xbe8834d2	-0.266028
240	0x3e9b6f0a	0.30358154
241	0x3e8e7f78	0.27831626
242	0x3e0a6393	0.13514547
243	0x3d4d7c74	0.050167516
244	0xbe560289	-0.20899405
245	0xbca6f02f	-0.0203782
246	0x3d232106	0.039826415
247	0xbdab4c72	-0.0836419
248	0x3d0cbb39	0.034358237
249	0xbe25b853	-0.16183595
250	0xbe1d7194	-0.15375358
251	0x3eff08f8	0.4981153
252	0xbdba1b81	-0.09087277
253	0x3da200ac	0.079102844
254	0xbed49c3e	-0.41525453
255	0xbe2b2245	-0.16712292

fc2.bias f4 [64]
0	0x3d9203d2	0.07129635
1	0xbc5c1ba0	-0.013434321
2	0xbe2d4fbc	-0.16924948
3	0xbe621cd4	-0.2208131
4	0xbdb7f5fe	-0.08982466
5	0xbe1e67eb	-0.15469329
6	0x3e036e69	0.12835087
7	0xbe38054c	-0.1797077
8	0x3ce260f7	0.027634127
9	0xbd7d8e73	-0.06190343
10	0x3e2c0ec9	0.16802515
11	0xbc89b814	-0.016811408
12	0xbdd7cf92	-0.10537638
13	0x3d81a669	0.06330568
14	0x3dcbe284	0.09955314
15	0xbd9b4b68	-0.07582742
16	0xbdc75e70	-0.097348094
17	0xbb500287	-0.0031739788
18	0x3d61a5b0	0.055089653
19	0xbdd2f4a1	-0.103005655
20	0xbd260e06	-0.040540718
21	0xbdc8ec91	-0.098107465
22	0x3b92a2b7	0.0044749635
23	0xbd35398d	-0.044244338
24	0x3e28c7ae	0.16482422
25	0xbd3aebdf	-0.0456351
26	0xbe1fa0c2	-0.15588668
27	0xbda07947	-0.07835632
28	0xbe1dd67d	-0.15413852
29	0xbdf3c6d6	-0.11903159
30	0x3d3c8c90	0.04603249
31	0xbdf72d9b	-0.120692454
32	0x3d22998e	0.039697222
33	0xbd03501e	-0.032058828
34	0xbd8769e1	-0.06611992
35	0x3d5a127c	0.053240284
36	0xbdd9d585	-0.10636429
37	0xbdd1496f	-0.102190845
38	0xbe2dbd91	-0.16966845
39	0xbdfa8e30	-0.12234151
40	0xbd20a85e	-0.039223067
41	0xbe50dc11	-0.20396449
42	0xbe00d5f3	-0.12581615
43	0xbdca42ca	-0.0987602
44	0xbdae1027	-0.084991746
45	0x3df1cdf4	0.118068606
46	0x3d921ed1	0.07134784
47	0xbdb96988	-0.090533316
48	0xbca4f0ab	-0.02013429
49	0xbddbaecf	-0.107267015
50	0xbd421ca4	-0.047390595
51	0xbb392caf	-0.0028255393
52	0xbd0b1b2e	-0.033961467
53	0xbe34a536	-0.17641148
54	0xbcf7f018	-0.030265853
55	0xbd848c5f	-0.06472086
56	0xbe2ae917	-0.16690479
57	0x3bf207dc	0.007386191
58	0x3cb32425	0.021867821
59	0xbb7f557e	-0.003896087
60	0xbc0392be	-0.0080305915
61	0xbe0a749a	-0.13521042
62	0xbdcb3513	-0.099222325
63	0xbdbec6f5	-0.09315292

fc3.weight f4 [64, 64]
0	0x3e03ef6d	0.12884302
1	0x3d011f2d	0.031523872
2	0xbe2d1754	-0.1690343
3	0x3e275191	0.16339709
4	0xbe410ee0	-0.1885333
5	0xbe9a1604	-0.30094922
6	0x3d10fdf8	0.035398453
7	0xbd41ea1d	-0.04734241
8	0x3de42634	0.11140099
9	0xbe00e767	-0.12588273
10	0x3d1fe112	0.039033003
11	0x3e1707c5	0.14749058
12	0x3e8c04b2	0.27347332
13	0x3dbb4632	0.09144248
14	0x3e626c7b	0.22111695
15	0xbca04a33	-0.019566631
16	0x3d633f72	0.055480428
17	0x3ab13fd2	0.0013523048
18	0x3cf8dae5	0.030377815
19	0xbd96507b	-0.07339569
20	0x3d9c675a	0.076369
21	0xbd8cdc47	-0.06877952
22	0x3e848290	0.2588086
23	0xbeaba9e5	-0.33528057
24	0x3d9a182f	0.07524144
25	0xbdbbb015	-0.09164444
26	0xbdffedd4	-0.12496534
27	0xbe3e1059	-0.18560924
28	0x3eef5b4a	0.46749336
29	0xbe4c6f11	-0.19964243
30	0x3cbe10a1	0.023201289
31	0xbe05947c	-0.13044924
32	0x3c6aed1d	0.014338759
33	0xbaebe0ff	-0.0017996131
34	0xbe79c46c	-0.24391335
35	0x3e14c1ac	0.14527005
36	0xbda71bb1	-0.081595786
37	0xbe531c61	-0.20616294
38	0x3e157dbf	0.1459875
39	0x3c8c9f3e	0.017165776
40	0x3dce4729	0.100721665
41	0xbd45f3d8	-0.04832825
42	0xbd454bfa	-0.04816816
43	0x3e4d589a	0.2005333
44	0xbe4f4c13	-0.20243864
45	0x3e0eca67	0.13944398
46	0x3d4cff2d	0.050048042
47	0xbef20737	-0.4727113
48	0x3cb4032b	0.021974167
49	0x3d372c2a	0.044719853
50	0x3e7aa079	0.24475278
51	0xbe199b96	-0.15000758
52	0x3e7c281d	0.24624677
53	0xbbbab81c	-0.005698217
54	0x3e9b9a1a	0.30391008
55	0x3d7a68cc	0.0611351
56	0xbe2c7add	-0.16843744
57	0x3d789585	0.060689468
58	0x3e148654	0.14504367
59	0x3e077008	0.1322633
60	0x3d1e7360	0.03868425
61	0xbe85c881	-0.26129535
62	0xbca37e41	-0.019957663
63	0x3e1453ef	0.14485143
64	0xbcdc8264	-0.026917644
65	0xbe24a7e1	-0.16079666
66	0x3e3f2251	0.18665434
67	0x3d31cab3	0.0434062
68	0xbd21f345	-0.03953864
69	0x3e2b38ed	0.16720934
70	0x3d626804	0.05527498
71	0xbd6d6721	-0.05795968
72	0xbd6f4638	-0.058416575
73	0x3de54051	0.11193908
74	0x3d50d542	0.05098463
75	0x3d7ae106	0.061249755
76	0xbba96680	-0.0051696897
77	0xbc3f1651	-0.0116630355
78	0x3d0fd44a	0.035114564
79	0x3e5e9fbc	0.21740621
80	0x3e50ef4b	0.20403783
81	0xbd792d08	-0.06083396
82	0x3dbdd3ff	0.09268951
83	0x3d348bc5	0.044078607
84	0x3d99208e	0.074769124
85	0x3e8a41ba	0.2700327
86	0xbe65996a	-0.22421804
87	0x3e108619	0.14113654
88	0xbe0b1eac	-0.13585919
89	0xbc1ec8bf	-0.009691416
90	0x3e8143be	0.25246996
91	0x3e496b1f	0.1966977
92	0xbeb01247	-0.34388945
93	0x3d036fc7	0.03208902
94	0x3d91fb51	0.07128013
95	0x3d7e6e13	0.062116694
96	0xbe325daf	-0.1741855
97	0x3c0171f6	0.007900706
98	0x3e33db8e	0.17564222
99	0xbda02336	-0.07819216
100	0x3e0c97b1	0.1372974
101	0x3db0fd65	0.08642081
102	0xbe0f4663	-0.13991694
103	0x3e84bce6	0.25925368
104	0x3d9f4136	0.0777611
105	0xbd821faa	-0.06353696
106	0xbcbc939a	-0.0230196
107	0x3e424105	0.18970115
108	0x3d3f3ddb	0.04668985
109	0xbe236dd0	-0.15959859
110	0xbe48589c	-0.19565052
111	0x3ea8f534	0.32999575
112	0xbcf97ec2	-0.03045595
113	0x3d4837a9	0.048881207
114	0xb9515b51	-0.00019965811
115	0x3cfee9c2	0.031117324
116	0xbea27f44	-0.3173772
117	0x3deff2ba	0.11716218
118	0x3cccf7db	0.02502053
119	0x3df9c275	0.12195293
120	0x3d66af66	0.056319617
121	0x3c7869e8	0.015161969
122	0xbd3431b4	-0.043992713
123	0xbde4099e	-0.11134647
124	0xbde83703	-0.11338618
125	0x3e8849da	0.26618844
126	0x3e27394d	0.16330452
127	0xbe41c8b8	-0.18924224
128	0x3dcb191f	0.09916901
129	0x3c82a118	0.015945956
130	0xbd843212	-0.06454863
131	0xbd37070e	-0.044684462
132	0x3e515e55	0.20446141
133	0xbd494e7e	-0.04914712
134	0xbd459737	-0.048239913
135	0xbc328433	-0.010895777
136	0x3ccbe588	0.024889722
137	0xbdd1193e	-0.10209893
138	0x3cfd1cb9	0.030897485
139	0x3d932c45	0.07186178
140	0x3d166934	0.036721423
141	0x3e3198a4	0.17343384
142	0x3e8654cc	0.2623657
143	0x3e1dcab1	0.15409352
144	0x3c24f33f	0.01006776
145	0x3e10382a	0.14083925
146	0x3de54dbc	0.11196467
147	0xbe0014a2	-0.12507871
148	0xbcd765cd	-0.02629366
149	0x3e4cc7f0	0.19998145
150	0x3dde087e	0.108414635
151	0xbe1576ba	-0.14596072
152	0x3ded7f5c	0.115965575
153	0xbe07a99e	-0.13248298
154	0x3d54d25a	0.05195842
155	0x3e8c63d4	0.27419913
156	0xbe0dc384	-0.13844115
157	0x3de80804	0.11329654
158	0x3e325843	0.17416482
159	0x3e4e4230	0.20142436
160	0xbcb9e0ba	-0.022690166
161	0x3c4e7c31	0.012602852
162	0xbd740e88	-0.05958417
163	0x3da3580a	0.079757765
164	0x3e9455ff	0.2897186
165	0x3e24a483	0.16078381
166	0xbd0e71c7	-0.034776475
167	0x3db0857d	0.08619211
168	0x3d93df08	0.07220274
169	0xbdfddd1e	-0.123956904
170	0x3dd36463	0.103218816
171	0x3dfa52bd	0.12222812
172	0x3e9fdf4f	0.31225058
173	0xbd6a3829	-0.057182465
174	0x3eb1390e	0.34613842
175	0xbb3c7937	-0.0028758773
176	0xbe3c3921	-0.18381168
177	0xbd2730d5	-0.040818054
178	0x3c98c45c	0.018648319
179	0xbdb523c2	-0.08844711
180	0x3d4cad5b	0.049970012
181	0x3d885ef9	0.066587396
182	0xbdde98df	-0.108690016
183	0xbddb7132	-0.1071495
184	0xbd1a90fa	-0.037735917
185	0xbdb659ae	-0.08903824
186	0x3bcef966	0.0063163517
187	0x3dabd6ce	0.0839058
188	0x3c390066	0.011291599
189	0xbe87b63f	-0.2650623
190	0x3d8976c2	0.067121044
191	0xbe29f26d	-0.16596384
192	0x3e1da4c9	0.15394892
193	0x3d80212f	0.06256329
194	0x3ce753ba	0.028238166
195	0x3ecf7ed9	0.40526465
196	0xbccb57b0	-0.024822086
197	0x3d2e84a7	0.042606976
198	0xbda8b035	-0.08236734
199	0x3e16162d	0.14656897
200	0x3cfad899	0.03062086
201	0x3cd54d9a	0.02603798
202	0xbe0ea231	-0.13929059
203	0xbda2967a	-0.079388574
204	0x3e485a8f	0.19565795
205	0xbe601313	-0.21882276
206	0x3e63624b	0.22205465
207	0x3e09d380	0.13459587
208	0x3d81f023	0.063446306
209	0x3e553f51	0.20824935
210	0xba7dbe38	-0.0009679529
211	0x3dd5219d	0.10406802
212	0x3e23c81b	0.15994303
213	0xbdb24738	-0.0870499
214	0xbd94eb76	-0.07271473
215	0x3dd61bf3	0.1045455
216	0xbd3dfcf1	-0.0463838
217	0x3dd53ad7	0.104116134
218	0x3e568977	0.20950876
219	0xbe3a3491	-0.18184115
220	0x3db0e1d6	0.08636825
221	0xbcd73170	-0.02626869
222	0x3e1c8762	0.1528602
223	0x3d33743a	0.043812014
224	0x3e08c884	0.1335774
225	0x3e4356e0	0.19076109
226	0x3e838652	0.25688416
227	0xbe17c610	-0.14821649
228	0x3c1cf430	0.009579703
229	0x3e3d6d59	0.18498744
230	0xbe05e263	-0.13074641
231	0xbd9ba1f0	-0.075992465
232	0xbe088d2e	-0.13335106
233	0x3eb32463	0.34988698
234	0x3d548de1	0.05189312
235	0x3d5e7541	0.05431104
236	0xbe6cf6f0	-0.23141074
237	0x3da59281	0.08084584
238	0x3ed9ca33	0.42537078
239	0x3d55a128	0.052155644
240	0x3e5c75fc	0.21529382
241	0xbd532fef	-0.051559385
242	0xbd3bb83e	-0.045830004
243	0x3e16d9e9	0.14731564
244	0xbcc1f0de	-0.023674425
245	0xbe08fb92	-0.13377216
246	0x3e4ca603	0.19985203
247	0xbc378f2a	-0.011203567
248	0xbde7e1f8	-0.11322397
249	0xbe24a6ca	-0.1607925
250	0x3dfbaa74	0.12288371
251	0x3e401293	0.18757086
252	0x3e1e1873	0.15439014
253	0x3d8d9c85	0.06914619
254	0x3a9613bc	0.0011449973
255	0x3e0b6d8c	0.13616008

fc3.bias f4 [64]
0	0x3c5fe9b9	0.013666564
1	0x3d57847e	0.05261659
2	0x3e7dc457	0.24781929
3	0x3d3d2ed2	0.04618723
4	0x3c845294	0.016152658
5	0xbd316820	-0.043312192
6	0xbde87d5d	-0.11352036
7	0x3c6199cb	0.013769577
8	0xbdd69bb4	-0.10478917
9	0xbc2e11e3	-0.010624382
10	0x3df44a80	0.11928272
11	0xbda28c7c	-0.079369515
12	0xbcc50093	-0.024048125
13	0x3ba58a82	0.005051912
14	0xbc1496fc	-0.009069201
15	0xbd32d17c	-0.04365681
16	0xbddef278	-0.10886091
17	0x3ba2b2b7	0.004965152
18	0x3d488928	0.048958927
19	0xbda0aab6	-0.078450605
20	0x3c18a914	0.009317655
21	0x3c8eef93	0.017448222
22	0x3e00f644	0.12593943
23	0x3e4f408b	0.20239465
24	0x3d24f518	0.040272802
25	0x39962be8	0.00028642942
26	0xbda2e79b	-0.079543315
27	0xbe2fefd7	-0.17181335
28	0xbd1315f1	-0.035909597
29	0xbd5d91bc	-0.05409406
30	0xbe036d21	-0.12834598
31	0x3e05798d	0.13034649
32	0x3d8bbbd4	0.06822935
33	0x3d402652	0.046911545
34	0xbcc8eaad	-0.024525965
35	0x3d8fa655	0.07014147
36	0xbd962c94	-0.07332721
37	0xbd63b3c3	-0.055591356
38	0xbc9739ba	-0.018460143
39	0xbe338c81	-0.17534067
40	0x3d5d2fe5	0.054000754
41	0xbdf1f31d	-0.11813948
42	0x3e8ed066	0.2789337
43	0xbce3043f	-0.027711986
44	0x3d9a8ead	0.075467445
45	0x3de85223	0.11343791
46	0xbd0c4468	-0.034244925
47	0xbd914e22	-0.07094981
48	0x3dd01f9f	0.10162281
49	0x3e17bc39	0.14817895
50	0x3d144ac7	0.036204126
51	0xbd68bccf	-0.056820687
52	0x3db9668d	0.09052763
53	0x3df23e6f	0.118283145
54	0x3dd3025b	0.10303184
55	0xbe06242d	-0.13099737
56	0xbdd70db1	-0.10500658
57	0xbdfdd3aa	-0.12393887
58	0xbd570a68	-0.05250016
59	0xbd35777d	-0.044303406
60	0xbdc7cd67	-0.09755974
61	0x3d2fc677	0.04291388
62	0xbc937a5e	-0.018002685
63	0xbd2632eb	-0.040575903

fc4.weight f4 [9, 64]
0	0xbee1f8d0	-0.4413514
1	0x3d81a83c	0.06330916
2	0xbdacb702	-0.084333435
3	0x3e27443e	0.16334626
4	0x3e297682	0.16549113
5	0x3e31f6dc	0.17379326
6	0xbdfd14a7	-0.12357455
7	0xbe6f3b4d	-0.23362465
8	0xbca70018	-0.020385787
9	0x3e07efc4	0.13275057
10	0xbd3ba348	-0.045810014
11	0xbcaf4af8	-0.021398053
12	0x3e2478cd	0.16061707
13	0xbe9f7aa9	-0.3114827
14	0x3e750a80	0.23929787
15	0x3e59243a	0.21205226
16	0xbea1712a	-0.3153165
17	0x3d800afd	0.06252096
18	0x3e11ec7a	0.14250365
19	0x3e2a3722	0.16622594
20	0x3e2866c0	0.16445446
21	0x3e6f9748	0.23397553
22	0x3e1413f7	0.14460741
23	0xbd1e6871	-0.03867382
24	0xbde7c192	-0.113162175
25	0xbe1ad58a	-0.15120521
26	0x3db5bad2	0.08873524
27	0x3ea18406	0.31546038
28	0x3e409ed4	0.18810588
29	0x3c243df5	0.010024537
30	0xbe40955d	-0.18806978
31	0x3c271626	0.010198152
32	0x3e2361a8	0.15955222
33	0x3e25bc98	0.16185224
34	0x3d5efd64	0.05444087
35	0x3e1d4b5f	0.15360783
36	0xbe059c52	-0.13047913
37	0x3cf8afb5	0.030357221
38	0xbe1a98cd	-0.15097351
39	0xbe77f23d	-0.242135
40	0xbddb627b	-0.10712143
41	0x3e471ad4	0.19443828
42	0x3eae29f4	0.34016383
43	0x3de20f3d	0.11038063
44	0xbc8b1626	-0.016978335
45	0xbe3967f7	-0.18106066
46	0x3d8f40cc	0.06994781
47	0x3df58d51	0.119898446
48	0x3d5d1c30	0.05398196
49	0xbec006e2	-0.3750525
50	0x3e484163	0.19556193
51	0x3cf2ed4c	0.029654168
52	0x3e654606	0.22389993
53	0x3e047700	0.1293602
54	0xbe060553	-0.13087969
55	0x3d67b9a8	0.05657354
56	0x3d1b61a6	0.03793492
57	0xbe2d7d47	-0.16942321
58	0xbe2892fe	-0.16462323
59	0xbd86752a	-0.06565316
60	0xbf12d6d4	-0.5735905
61	0x3ce20e72	0.027594779
62	0x3e82a018	0.25512767
63	0xbc3673aa	-0.011135975
64	0xbe361c81	-0.17784311
65	0x3d3b16a5	0.045675892
66	0x3dc114d2	0.09427799
67	0x3d82bc9f	0.06383633
68	0x3cb76c5f	0.022390543
69	0x3e22ed19	0.15910758
70	0x3d923cb6	0.07140486
71	0xbe225bd2	-0.15855339
72	0x3ca0f668	0.019648746
73	0x3c6edf9f	0.014579683
74	0xbe4bfaa0	-0.19919825
75	0xbd20f5f8	-0.039297074
76	0x3c203c0d	0.009779942
77	0xbea80066	-0.32812804
78	0xbe229342	-0.15876487
79	0xbea4db3d	-0.32198516
80	0x3f06023b	0.52347153
81	0x3e307a5c	0.17234176
82	0x3e04a536	0.12953648
83	0x3ed6f423	0.41983137
84	0x3dfd51ed	0.12369142
85	0x3daa8556	0.08326213
86	0x3e1eb45e	0.15498492
87	0xbe4fe49c	-0.20302051
88	0x3d24f724	0.040274754
89	0x3e37df66	0.17956313
90	0xbb8c0ba1	-0.004273847
91	0xbe58c906	-0.21170434
92	0xbd5d2bf7	-0.053997006
93	0x3d272f14	0.04081638
94	0xbe902959	-0.28156546
95	0xbe8e3f68	-0.2778275
96	0x3e2086df	0.15676449
97	0x3de4dfd3	0.111755036
98	0x3db723ff	0.089424126
99	0x3d34a85d	0.044105876
100	0x3db362df	0.087590925
101	0xbdd286c0	-0.10279608
102	0xbd4a39a0	-0.04937136
103	0x3d1043ea	0.035221018
104	0xbca44b83	-0.020055538
105	0xbe5c3b7f	-0.21507071
106	0x3f257206	0.6462711
107	0xbe8932c0	-0.26796532
108	0x3e9705cc	0.2949661
109	0xbc8e3f10	-0.017364055
110	0xbd2d25e3	-0.04227246
111	0x3d6eef7c	0.05833386
112	0x3e4517c7	0.19247352
113	0x3e813359	0.25234488
114	0x3e6a5b3f	0.2288637
115	0xbead5dec	-0.3386072
116	0x3dd15c06	0.1022263
117	0xbcb2a14d	-0.02180543
118	0xbe1686b2	-0.1469982
119	0xbd60f71e	-0.05492317
120	0xbd4d13fb	-0.050067883
121	0x3d9fdfd0	0.07806361
122	0xbe459f31	-0.19299008
123	0xbd56dca2	-0.052456506
124	0x3da6aff9	0.08139033
125	0xbe3c537a	-0.18391219
126	0x3e93ccdd	0.28867236
127	0xbef535db	-0.4789265
128	0xbd06ad5a	-0.032880165
129	0xbdfd0d78	-0.123560846
130	0x3e3d1567	0.18465196
131	0xbe37c7f7	-0.17947374
132	0x3e8bd7cb	0.27313074
133	0x3e5a931c	0.2134518
134	0x3eb118ab	0.34589133
135	0x3e4b38e8	0.19845927
136	0xbda2a524	-0.07941654
137	0xbe4a49b2	-0.19754675
138	0x3dc35ead	0.09539542
139	0x3dd7ed62	0.10543324
140	0xbc196e51	-0.00936468
141	0xbe46812a	-0.1938521
142	0xbdbea753	-0.09309258
143	0xbd60e290	-0.054903567
144	0xbdbef04c	-0.09323177
145	0x3e66ece4	0.22551304
146	0xbe386870	-0.1800859
147	0x3dedf28e	0.11618529
148	0x3dd383c1	0.103278644
149	0xbdd1ddc8	-0.102473795
150	0xbc98a9ae	-0.018635597
151	0x3e3a44f0	0.1819036
152	0x3e49156c	0.19637078
153	0xbe995cd1	-0.29953626
154	0xbde3080c	-0.11085519
155	0xbde02832	-0.10945167
156	0xbeb22e71	-0.34801057
157	0xbd9115a8	-0.07084209
158	0x3e88a2b9	0.26686648
159	0xbdb8521b	-0.090000354
160	0x3e6453a5	0.22297533
161	0x3e65a09e	0.22424552
162	0x3eace0ce	0.33765262
163	0xbde0aa44	-0.109699756
164	0x3e717785	0.2358075
165	0xbd390efb	-0.045180302
166	0xbf180873	-0.5938789
167	0xbdf39d21	-0.11895204
168	0xbe42bd62	-0.19017556
169	0xbe64e651	-0.22353484
170	0x3e1a8549	0.15089907
171	0xbe75e417	-0.2401279
172	0xbbabb071	-0.0052395393
173	0xbd5e5cc9	-0.054287706
174	0x3e32be98	0.17455518
175	0x3e94ec6a	0.2908662
176	0xbe2fb9aa	-0.17160669
177	0xbe2983a7	-0.16554128
178	0x3e40bbde	0.18821666
179	0x3dcd8bcf	0.10036432
180	0x3c823d22	0.015898291
181	0x3db4b271	0.088230975
182	0x3d716e09	0.05894283
183	0xbd8b15ce	-0.06791268
184	0xbd9f9a7a	-0.07793136
185	0x3d575068	0.052566916
186	0xbe840b3b	-0.25789818
187	0xbe7fd984	-0.2498532
188	0x3e03089c	0.12796253
189	0x3df836c7	0.12119823
190	0x3dc8dc22	0.09807612
191	0xbb8ca0d8	-0.004291635
192	0xbd3c4b19	-0.045970056
193	0x3dc814dc	0.097696036
194	0xbd036e1a	-0.032087423
195	0x3e1c93e3	0.1529079
196	0x3d8a1325	0.06741933
197	0x3df83048	0.12118584
198	0x3d7ac65e	0.061224334
199	0x3c935a57	0.017987413
200	0xbc36cec0	-0.0111576915
201	0x3dd7876a	0.10523875
202	0xbe25790f	-0.16159461
203	0xbd739849	-0.059471402
204	0xbe8f9b7b	-0.2804831
205	0xbeb2fa03	-0.3495637
206	0x3e8f05db	0.27934155
207	0x3e344f4f	0.17608379
208	0xbcb991fb	-0.022652617
209	0xbe531e28	-0.20616972
210	0x3d92a946	0.071611926
211	0xbe030ce1	-0.12797882
212	0xbdb9dccb	-0.09075316
213	0x3e1eefd1	0.1552117
214	0xbc8ff852	-0.017574463
215	0x3e16b6d4	0.14718181
216	0xbd88fe8d	-0.06689177
217	0x3ea37fad	0.31933346
218	0x3e0bf3f7	0.13667284
219	0x3cff5809	0.031169908
220	0xbde56861	-0.11201549
221	0xbddc09c4	-0.1074405
222	0x3e37e634	0.1795891
223	0x3e48f4c5	0.19624622
224	0x3e29afc6	0.16570958
225	0xbded67fc	-0.11592099
226	0xbe4b18c4	-0.19833666
227	0xbdce8c2c	-0.100853294
228	0x3df14985	0.11781601
229	0x3db1e07c	0.08685395
230	0xbeea5109	-0.4576495
231	0xbe2a7b6e	-0.16648647
232	0xbd4797c2	-0.048728712
233	0xbc1bdabc	-0.0095126
234	0x3e255baa	0.16148248
235	0x3d381400	0.04494095
236	0x3e967eac	0.29393518
237	0x3dba0e30	0.09084737
238	0xbea89bfd	-0.3293151
239	0x3e237e29	0.15966095
240	0xbddaad92	-0.10677637
241	0xbc1574eb	-0.009122114
242	0x3e726fbe	0.23675439
243	0xbd87e23f	-0.0663495
244	0xbd426e19	-0.04746828
245	0x3e294851	0.16531493
246	0x3d2f61d9	0.042817924
247	0xbca0fd73	-0.019652104
248	0xbda865da	-0.08222552
249	0x3d025b39	0.031825278
250	0x3edc5d85	0.430401
251	0x3dbd67b2	0.09248294
252	0xbedeb05d	-0.4349393
253	0xbe608412	-0.21925381
254	0x3e7e03e8	0.24806178
255	0x3e40087b	0.18753235

fc4.bias f4 [9]
0	0x3d60e06b	0.05490152
1	0x3de03f49	0.10949571
2	0x3da954b9	0.08268113
3	0x3dcb1805	0.09916691
4	0x3e38a214	0.18030578
5	0x3e184988	0.148718
6	0xbcab0ee7	-0.02088113
7	0x3d050ee7	0.032484915
8	0x3ccd092b	0.025028786
