policy_p2.pt (torch, 41304 bytes, 8 tensors)

fc1.weight f4 [64, 9]
0	0x3dd18405	0.10230259
1	0xbead8b98	-0.33895564
2	0xbec9b706	-0.39397448
3	0x3e1e3319	0.1544918
4	0xbeab2d98	-0.33433223
5	0xbdae5550	-0.08512366
6	0xbeca5f5a	-0.39525872
7	0x3dc6e0b3	0.09710827
8	0x3df3c161	0.119021185
9	0xbcaa6e12	-0.020804439
10	0x39aaae0e	0.00032554608
11	0xbe66f4dd	-0.22554345
12	0x3e89f67c	0.26945865
13	0xbca91d48	-0.020643845
14	0xbce13f8e	-0.027496126
15	0xbddc3774	-0.10752764
16	0x3e6d7611	0.2318957
17	0xbd93d705	-0.07218746
18	0xbd9b6bdb	-0.07588931
19	0x3d5207e9	0.051277075
20	0xbd3fbcfc	-0.04681109
21	0xbe218e95	-0.15777047
22	0xbea8fd1d	-0.3300561
23	0xbea58ed3	-0.3233553
24	0x3d34172d	0.043967415
25	0xbdebdafa	-0.11516376
26	0x3e17c8a2	0.14822629
27	0xbcaccc69	-0.021093564
28	0xbe3c2abb	-0.18375675
29	0xbc9b095c	-0.018925361
30	0xbe3e514e	-0.18585703
31	0xbe5fc7e8	-0.21853602
32	0x3e66a1d9	0.22522677
33	0x3d83c8ab	0.06434759
34	0xbeb888ff	-0.3604202
35	0xbe14c413	-0.14527921
36	0x3dc0e724	0.094190866
37	0xbea712b0	-0.32631445
38	0x3e688fc5	0.22711094
39	0xbe4405df	-0.19142865
40	0xbe0af5cb	-0.13570325
41	0xbd874172	-0.066042796
42	0x3e15e018	0.14636266
43	0x3d8d9f3e	0.06915139
44	0x3c9a3ebb	0.01882874
45	0x3e315b12	0.17319897
46	0x3e714952	0.23563126
47	0x3ec2d3d3	0.38052234
48	0x3e4dc5c3	0.20094971
49	0x3b1ee8cf	0.0024247651
50	0x3ddaec3d	0.1068959
51	0x3eadcfd6	0.3394763
52	0x3ee72dce	0.45152134
53	0x3e290eb9	0.16509522
54	0x3e838308	0.25685906
55	0xbe822137	-0.25415966
56	0xbe3330fe	-0.17499158
57	0xbe89d07c	-0.26916873
58	0xbec986a9	-0.3936055
59	0xbecc383f	-0.39886662
60	0x3e3e3f3b	0.18578808
61	0x3db4ecec	0.08834252
62	0xbe19541d	-0.14973493
63	0x3d3203c4	0.043460622
64	0x3da2321e	0.07919715
65	0x3e67f041	0.22650243
66	0xbe8f239d	-0.27956858
67	0xbee6a9a3	-0.45051298
68	0xbe8627ba	-0.26202184
69	0xbebc573f	-0.36785313
70	0x3c9b3d00	0.018949986
71	0xbe965523	-0.2936183
72	0xbedad83e	-0.42743105
73	0xbe8a00bf	-0.26953694
74	0xbe666ca5	-0.22502382
75	0xbd936406	-0.07196812
76	0x3da2e7ca	0.079543665
77	0xbdcf31ae	-0.101168975
78	0xbd4a4e33	-0.049390983
79	0xbe843fb4	-0.25829852
80	0x3e337f15	0.17528947
81	0x3de287e5	0.11061076
82	0xbeca952e	-0.3956694
83	0x3ec9073e	0.39263338
84	0x3d271f00	0.04080105
85	0xbdae3f31	-0.085081466
86	0xbe7f1364	-0.2490974
87	0x3ebf9f35	0.37426153
88	0xbe86ff36	-0.26366585
89	0xbe799ed8	-0.24377
90	0xbe356daf	-0.17717622
91	0xbdb3cfd7	-0.08779877
92	0x3eb24fa0	0.34826374
93	0x3e0b5a15	0.13608582
94	0xbe8ec7a9	-0.27886704
95	0x3e152d50	0.14568067
96	0xbd1bd709	-0.03804687
97	0xbd935047	-0.07193046
98	0x3eb68eee	0.35655922
99	0xbc2f25d0	-0.010690168
100	0x3e9c8004	0.30566418
101	0x3e205164	0.15656048
102	0xbed0d39b	-0.40786442
103	0xbe98f1f1	-0.29872087
104	0x3e66fdab	0.22557704
105	0x3dd33eaa	0.103146866
106	0xbc38835b	-0.011261786
107	0xbe18e40b	-0.14930741
108	0x3e36d998	0.17856443
109	0xbe6c9000	-0.23101807
110	0x3d22a5e4	0.039708987
111	0x3dfd67e4	0.12373331
112	0x3e94d795	0.29070726
113	0xbea04de5	-0.3130943
114	0xbe645b1c	-0.2230038
115	0xbdd7055b	-0.10499068
116	0x3ea6e432	0.32595974
117	0xbed50a5e	-0.41609472
118	0xbe452657	-0.19252907
119	0xbe9e0c6c	-0.30868852
120	0xbe49d75e	-0.19711062
121	0xbe82016b	-0.25391707
122	0xbecf6f58	-0.40514636
123	0xbcbc6f0e	-0.023002174
124	0x3ec3e0f0	0.3825755
125	0x3e0341bf	0.12818049
126	0x3e874bb0	0.26424932
127	0xbba2a6f1	-0.0049637486
128	0x3e66e77a	0.22549239
129	0x3de23071	0.11044396
130	0x3d8c91a3	0.068637155
131	0x3e370191	0.17871691
132	0x3e3e891b	0.18606989
133	0x3da7f4db	0.08200999
134	0x3eabd9c4	0.3356458
135	0xbd5b8631	-0.05359477
136	0x3e411825	0.18856867
137	0x3d8baded	0.06820283
138	0xbebeb455	-0.37246957
139	0x3e052303	0.13001637
140	0xbde1c411	-0.11023725
141	0xbc0304a8	-0.007996716
142	0xbdc91806	-0.09819035
143	0x3e600b39	0.21879281
144	0xbe95a6fe	-0.29228967
145	0xbcba457d	-0.022738213
146	0xbced8f76	-0.028999072
147	0x3dd84124	0.105592996
148	0xbdb57e3a	-0.088619664
149	0x3e850256	0.25978345
150	0xbeefe9cb	-0.46858057
151	0xbde94636	-0.11390345
152	0x3de1bde0	0.11022544
153	0x3e4b040d	0.19825764
154	0x3e839d05	0.25705734
155	0x3e5fffd5	0.21874936
156	0x3d4a5c25	0.049404282
157	0x3e7ffac4	0.24998003
158	0x3e8a822d	0.2705244
159	0xbd89e2e5	-0.0673273
160	0x3e66ce6a	0.22539678
161	0x3ea77438	0.32705855
162	0xbe6f1093	-0.23346166
163	0xbe000035	-0.12500079
164	0x3e9c6fd1	0.3055406
165	0xbc4b1bf5	-0.012396802
166	0xbd9e74ec	-0.07737145
167	0xbe093396	-0.13398585
168	0xbee7922f	-0.45228717
169	0xbea963d2	-0.3308397
170	0xbec21fe8	-0.37914968
171	0xbead2727	-0.33818933
172	0xbdcd498b	-0.10023793
173	0x3eb7efc2	0.35925108
174	0xbf07c8c1	-0.530407
175	0x3d295f73	0.041350793
176	0x3c7ed6de	0.015554158
177	0xbde3c183	-0.11120894
178	0x3e089397	0.13337551
179	0x3e759353	0.23981981
180	0xbd69cadf	-0.05707824
181	0xbe227e1a	-0.15868416
182	0x3c12b894	0.00895514
183	0xbed5561f	-0.41667268
184	0x3e1860e0	0.14880705
185	0xbd095086	-0.03352406
186	0xbee4d122	-0.44690806
187	0xbe65fca2	-0.22459653
188	0xbe275432	-0.16340712
189	0x3e393df5	0.18090041
190	0xbeb6ded2	-0.35716873
191	0xbe802172	-0.25025517
192	0xbedc5bbb	-0.43038735
193	0x3e8bb7b5	0.27288595
194	0xbe481316	-0.1953853
195	0xbe1405f0	-0.1445539
196	0xbeabd5ca	-0.33561546
197	0x3e85d7dc	0.2614125
198	0x3eb0f51e	0.3456201
199	0x3de8ebdf	0.11373114
200	0x3d973b6a	0.07384379
201	0x3e3ba3d2	0.18324211
202	0x3e1f6a34	0.15567857
203	0xbd9cc891	-0.076554425
204	0x3d8b3213	0.0679666
205	0x3d608bce	0.05482083
206	0x3e4e0e25	0.20122583
207	0xbd927b3c	-0.07152411
208	0xbeb42f98	-0.3519256
209	0x3d120b73	0.03565545
210	0x3e0e50a0	0.13897943
211	0x3e46a250	0.19397855
212	0x3eb61942	0.35566145
213	0x3de6d590	0.112712026
214	0x3e8fb209	0.28065518
215	0x3ded9c4d	0.11602078
216	0x3e502d7a	0.20329848
217	0x3c20f7f8	0.009824745
218	0xbe78d1f0	-0.24298835
219	0xbd1f2218	-0.038850874
220	0xbe5c2f5e	-0.21502444
221	0xbd25668e	-0.040381007
222	0xbe92be04	-0.28660595
223	0x3ce9be21	0.028533043
224	0x3e8c8334	0.2744385
225	0xbe6114f5	-0.2198065
226	0x3ee48e7a	0.4463995
227	0xbcdefb58	-0.02721946
228	0xbed0fbd0	-0.40817118
229	0xbe10851c	-0.14113277
230	0xbe3d530a	-0.18488708
231	0xbd7c1077	-0.06153914
232	0x3ec10d05	0.37705246
233	0x3e8571b9	0.26063326
234	0x3c920ef1	0.01782939
235	0x3b79bf15	0.0038108279
236	0xbcf30746	-0.029666554
237	0xbe67df52	-0.22643784
238	0x3ce9a462	0.028520767
239	0x3de047ef	0.1095122
240	0x3da142f6	0.078741
241	0x3dfaf67c	0.122540444
242	0x3d96477e	0.07337855
243	0xbe9ec6b8	-0.31010985
244	0xbe172536	-0.14760289
245	0x3ec9207a	0.3928259
246	0xbc82ed2d	-0.015982235
247	0x3e4a67ea	0.19766203
248	0x3d9aa419	0.075508304
249	0x3ec41a18	0.38301158
250	0xbde3e25d	-0.1112716
251	0xbddcc4b6	-0.10779707
252	0x3e9b3d1d	0.30320063
253	0x3e948fcb	0.29015955
254	0x3e1805f0	0.14846015
255	0x3e23bd59	0.15990199

fc1.bias f4 [64]
0	0xbe2bf174	-0.16791326
1	0x3ec43df2	0.3832851
2	0xbd522a85	-0.05131008
3	0xbde41754	-0.11137262
4	0x3ebae906	0.36505908
5	0xbdef5082	-0.116852775
6	0xbd660d0d	-0.05616479
7	0x3db16e66	0.08663635
8	0x3ea00fab	0.31261954
9	0xbd9a5a04	-0.075367
10	0x3df572a5	0.11984757
11	0xbee4e5c2	-0.4470654
12	0x3cbf51f5	0.02335451
13	0xbe7d8d4d	-0.24760933
14	0x3dcaca53	0.099018715
15	0x3ee1171f	0.43962952
16	0xbebaaf52	-0.36461884
17	0x3e9afadf	0.30269524
18	0xbc168fa5	-0.009189521
19	0xbe8bfcbd	-0.27341262
20	0x3e66addd	0.22527261
21	0x3e12ebe6	0.143478
22	0x3e9aea62	0.30256945
23	0xbeb7a400	-0.3586731
24	0xbe914cb8	-0.28378844
25	0x3e2a68ef	0.16641591
26	0x3eca3a18	0.39497447
27	0x3eb67574	0.35636485
28	0x3ecbb55b	0.397868
29	0x3ed5ff16	0.41796178
30	0x3d96f6bb	0.07371279
31	0xbe88e586	-0.26737612
32	0xbdb05b23	-0.08611133
33	0xbec76d08	-0.38950372
34	0x3e6133eb	0.21992461
35	0xbe83b635	-0.2572495
36	0xbe882c4e	-0.26596302
37	0x3e80d8b8	0.25165343
38	0xbea0d8eb	-0.31415495
39	0xbdda8e1e	-0.10671638
40	0x3dd1299a	0.10213013
41	0xbe8d173a	-0.27556783
42	0xbf00ae95	-0.5026639
43	0xbe90ee50	-0.28306818
44	0x3e110287	0.1416112
45	0x3ec16486	0.37772006
46	0xbe96a47e	-0.29422373
47	0x3e9ce779	0.3064535
48	0xbde06457	-0.10956638
49	0x3e5c1bb5	0.21494944
50	0x3edf2e8b	0.43590197
51	0xbe7f0087	-0.24902545
52	0x3e976dd3	0.29575977
53	0xbe45afcf	-0.19305347
54	0x3e08eed0	0.1337235
55	0xbd2f33ad	-0.04277389
56	0xbd89a2d7	-0.06720512
57	0x3ec5956e	0.38590568
58	0xbed289af	-0.4112067
59	0x3d3ea0a9	0.046539936
60	0xbe8735f0	-0.2640834
61	0xbeadcb59	-0.33944204
62	0x3c317083	0.010830048
63	0xbeaa21ec	-0.33229005

fc2.weight f4 [64, 64]
0	0xbd0717af	-0.03298157
1	0x3de646cf	0.112439744
2	0xbe695feb	-0.22790496
3	0x3c061cb4	0.008185554
4	0xbe881021	-0.26574805
5	0xbe0de7a4	-0.13857895
6	0xbe56fc2c	-0.20994633
7	0x3e445938	0.19174659
8	0x3dd852cc	0.10562667
9	0x3b82e4f9	0.003994581
10	0xbd7b2a6f	-0.061319765
11	0xbd26e0dd	-0.04074179
12	0xbe03f495	-0.1288627
13	0x3ddebc76	0.1087579
14	0xbce71c16	-0.028211635
15	0xbd05f7c8	-0.032707006
16	0xbc962870	-0.018329829
17	0x3d95110c	0.07278642
18	0x3d26c762	0.04071749
19	0x3e87aa3b	0.26497063
20	0x3e11b54e	0.14229318
21	0xbda60aa5	-0.08107499
22	0xbdebde3a	-0.11516996
23	0x3e6e6ec3	0.2328444
24	0xbd998d05	-0.074976005
25	0x3ce4e196	0.027939599
26	0x3d27d20f	0.04097181
27	0x3d3456bf	0.04402804
28	0xbd66fc6f	-0.056393083
29	0xbe47b9b9	-0.19504441
30	0x3da2b9ef	0.0794562
31	0x3ded67a0	0.115920305
32	0xbd5ecea7	-0.054396298
33	0xbd58d87a	-0.052940823
34	0xbda796e0	-0.08183074
35	0xbd8b9cfc	-0.06817052
36	0xbcfe3d87	-0.031035198
37	0x3e7808b7	0.24222074
38	0xbe322034	-0.17395097
39	0x3e54e946	0.20792112
40	0xbcfd856a	-0.030947406
41	0x3e3a4a9e	0.18192527
42	0x3d85259a	0.065013126
43	0xbe023982	-0.1271725
44	0x3deba915	0.11506859
45	0xbe79dc3e	-0.24400422
46	0xbbda9e5b	-0.0066717095
47	0x3debda96	0.11516301
48	0xbcea631b	-0.02861171
49	0xbd349fe9	-0.044097815
50	0x3db0a130	0.08624494
51	0xbdbbd12d	-0.091707565
52	0xbdf82fbf	-0.12118482
53	0x3d973c23	0.07384517
54	0x3d34eaf9	0.0441694
55	0xbe5b2184	-0.21399504
56	0x3d623c1a	0.0552331
57	0xbc43609f	-0.011924892
58	0x3c7e0969	0.015505173
59	0xbe3d48a0	-0.18484735
60	0xbe1d43cd	-0.15357895
61	0xbe33f0a9	-0.17572273
62	0xbd254a3e	-0.040354006
63	0x3d143fd8	0.0361937
64	0x3d76e170	0.060273588
65	0xbccaa672	-0.02473757
66	0xbd00f765	-0.031485934
67	0x3e264334	0.16236573
68	0x3c631ff5	0.0138626
69	0x3e20a4af	0.15687822
70	0x3cea18c6	0.028576266
71	0xbe3e296c	-0.18570489
72	0xbe7082fb	-0.23487465
73	0x3e3b026d	0.18262644
74	0x3e25f270	0.16205764
75	0xbe0df3a9	-0.1386248
76	0xbe0ea800	-0.13931274
77	0xbe279052	-0.16363648
78	0x3ea02bc3	0.31283388
79	0xbe888647	-0.26664945
80	0x3d8a5939	0.06755299
81	0xbd16743b	-0.03673194
82	0xbe5f0055	-0.2177747
83	0xbd348830	-0.04407519
84	0xbe9b3c8e	-0.30319637
85	0xbe1e7cb7	-0.15477262
86	0x3df4e263	0.11957242
87	0x3cfe0837	0.031009777
88	0xbd1b0fe5	-0.037856955
89	0xbe99b548	-0.3002112
90	0xbdfe1d1a	-0.124078944
91	0xbccd70e0	-0.025078237
92	0xbe05c9d1	-0.13065268
93	0xbd8adc83	-0.067803405
94	0x3e1b4b07	0.1516534
95	0xbd643043	-0.05571009
96	0xbdc66a56	-0.09688251
97	0xbd873fbd	-0.06603954
98	0x3e48e886	0.1961995
99	0xbe1b6af6	-0.15177521
100	0x3c9df55f	0.019282041
101	0x3d019476	0.031635724
102	0xbe1718e5	-0.1475559
103	0x3d17e06c	0.03707926
104	0xbe6eb78d	-0.23312207
105	0x3d899c82	0.067193046
106	0x3b7a1dd4	0.0038164752
107	0x3e0547c0	0.13015652
108	0xbdd50d0c	-0.10402879
109	0x3d565726	0.052329205
110	0xbe2112c8	-0.1572982
111	0xbe8ce0bd	-0.27515212
112	0xbd2c58af	-0.042076763
113	0xbe273b77	-0.16331278
114	0xbe1851f1	-0.14875008
115	0xbd9a47cc	-0.075332254
116	0xbe6c0800	-0.23049927
117	0x3cd5034e	0.026002552
118	0xbe59ab63	-0.21256785
119	0x3e32a825	0.17446955
120	0xbe5f9b7e	-0.2183666
121	0xbdeb8c32	-0.115013495
122	0x3e4fa1d9	0.20276584
123	0x3e2b4bb5	0.16728099
124	0xbe529b95	-0.20567162
125	0x3e9584df	0.29202935
126	0xbe076060	-0.13220358
127	0xbde954ed	-0.113931514
128	0xbdfd39a1	-0.123645075
129	0xbe005bb5	-0.12534983
130	0xbd55b4eb	-0.05217449
131	0xbe78657b	-0.24257462
132	0xbd10730d	-0.03526597
133	0x3e683ac6	0.2267867
134	0xbea25442	-0.3170491
135	0x3d86ce00	0.0658226
136	0xbde8d1bf	-0.11368131
137	0xbde35be0	-0.11101508
138	0xbde3924c	-0.11111888
139	0x3dac42aa	0.08411153
140	0xbbf60ac6	-0.0075086085
141	0xbd61f59d	-0.055165876
142	0x3c437094	0.011928696
143	0x3ca41604	0.02003003
144	0xbed461d4	-0.41480887
145	0xbcd5028f	-0.026002197
146	0xbe236347	-0.1595584
147	0xbdfffd76	-0.12499516
148	0x3e019931	0.12656094
149	0x3d09fb3b	0.033686858
150	0x3daf7200	0.08566666
151	0xbd38d9dd	-0.045129646
152	0x3d0463d8	0.03232178
153	0x3e030b7f	0.12797354
154	0xbdc5f501	-0.096658714
155	0xbddd5c3d	-0.10808609
156	0x3c6ea772	0.014566289
157	0xbe5b0018	-0.21386755
158	0x3c7bd982	0.015371682
159	0xbe20be0c	-0.15697497
160	0xbe33598d	-0.1751463
161	0x3d8a8727	0.067640595
162	0xbdd89049	-0.10574395
163	0xbd847ca1	-0.064690836
164	0x3e585a97	0.21128307
165	0xbdc9b9ae	-0.09849869
166	0xbd8da62d	-0.06916461
167	0x3e884b12	0.26619774
168	0x3df22bd9	0.118247695
169	0x3d17d0dc	0.03706442
170	0xbc0b7933	-0.008512783
171	0xbe599e2a	-0.21251741
172	0x3e168540	0.14699268
173	0xbd9e8cec	-0.077417225
174	0xbe0d696d	-0.13809748
175	0x3c978944	0.01849807
176	0xbdb0d83e	-0.08634995
177	0x3d9fa308	0.077947676
178	0x39e41f1e	0.00043510733
179	0xbdc3ae0c	-0.09554681
180	0xbcb9cc6f	-0.02268049
181	0x3da36a00	0.07979202
182	0xbd82e705	-0.0639172
183	0x3d3977a9	0.045280132
184	0x3d23c72c	0.039984867
185	0x3c0191aa	0.007908264
186	0x3e19fa8c	0.15036982
187	0xbdd1083b	-0.10206648
188	0xbcf2e13b	-0.029648414
189	0xbe61645b	-0.22010939
190	0xbe87571e	-0.26433653
191	0xbdcbfb60	-0.09960055
192	0xbc885808	-0.01664354
193	0x3d8129d9	0.0630681
194	0xbe2f8f27	-0.17144452
195	0xbe8944de	-0.26810354
196	0xbe35e59a	-0.17763367
197	0x3ddaa278	0.1067552
198	0xbd6297a2	-0.05532039
199	0x3d8ebdd7	0.06969803
200	0x3c57ae68	0.01316414
201	0x3e67dee3	0.22643618
202	0xbba23648	-0.0049503185
203	0x3d9cb659	0.076519676
204	0xbe8122e9	-0.25221947
205	0xbe225b5b	-0.15855162
206	0xbd573c31	-0.052547637
207	0x3d91351d	0.07090209
208	0x3b401a3b	0.002931251
209	0xbd2ecca3	-0.042675626
210	0xbe21ef5f	-0.15813969
211	0xbd79ba57	-0.060968723
212	0xbded82e6	-0.115972325
213	0xbd3278d1	-0.04357225
214	0x3e122630	0.1427238
215	0xbe0bdb6f	-0.13657926
216	0x3ed9d63e	0.42546266
217	0x3dbc3c30	0.09191167
218	0x3e0a116c	0.13483208
219	0xbe087ead	-0.13329573
220	0x3da7fa44	0.08202031
221	0xbe6fc223	-0.23413901
222	0xb9a297fb	-0.00031012282
223	0x3d015d14	0.031582907
224	0xbdfd7024	-0.12374905
225	0xbe54cab3	-0.20780449
226	0x3df6c0e7	0.12048512
227	0xba83dd3c	-0.001006044
228	0x3c22f48a	0.009945998
229	0x3d84b51c	0.06479856
230	0xbed1ef64	-0.41002953
231	0xbe14e72a	-0.14541307
232	0x3d1b00fa	0.03784273
233	0xbdbf7b6b	-0.09349712
234	0x3e029880	0.12753487
235	0xbd9f56ef	-0.07780253
236	0xbe781023	-0.24224906
237	0x3dc4b2a4	0.096043855
238	0x3e0d244a	0.13783374
239	0xbd740e7c	-0.059584126
240	0xbe82e5c8	-0.25565934
241	0x3dd28697	0.10279577
242	0xbd5bdf1a	-0.053679563
243	0x3e4a2eff	0.1974449
244	0xbd37a379	-0.044833634
245	0x3d51a786	0.051185153
246	0x3e097f68	0.13427508
247	0xbd61bac0	-0.05510974
248	0xbdb6328b	-0.08896359
249	0x3dbaa9af	0.09114396
250	0x3cadf089	0.02123286
251	0xbd97d9a7	-0.07414561
252	0xbc669b3f	-0.0140750995
253	0xbe09de54	-0.13463718
254	0xbe3340cb	-0.17505185
255	0x3e183a53	0.14865999

fc2.bias f4 [64]
0	0xbdf8de1f	-0.12151741
1	0xbd156e7f	-0.03648233
2	0x3e06a0e5	0.13147314
3	0x3e196918	0.14981496
4	0xbd9068fe	-0.07051276
5	0xbcfeb4ac	-0.03109201
6	0x3e23d196	0.1599792
7	0x3e2d3e2c	0.16918248
8	0xbdec723b	-0.11545225
9	0x3e016a40	0.12638187
10	0xbe47aac6	-0.19498739
11	0xbd1912b6	-0.03737136
12	0x3e181198	0.14850461
13	0xbe5bdd13	-0.21471052
14	0x3ddb0fed	0.10696397
15	0x3d6b287c	0.057411656
16	0x3d521767	0.05129185
17	0x3dd659b6	0.1046633
18	0x3b170b90	0.0023047663
19	0x3e516946	0.20450315
20	0xbd914280	-0.07092762
21	0xbe0c6980	-0.1371212
22	0xbe08acfa	-0.13347235
23	0xbcb05ed1	-0.021529587
24	0xbda5e3d3	-0.08100095
25	0x3e3ef960	0.18649817
26	0xbd36e6df	-0.04465377
27	0x3e5bbac0	0.21457958
28	0xbe3d5a8f	-0.18491577
29	0xbe1312e6	-0.14362678
30	0xbdcf2713	-0.10114875
31	0x3e60c4e4	0.21950108
32	0x3d937557	0.07200115
33	0xbdfc7178	-0.1232633
34	0xbd19f08b	-0.037582915
35	0xbe59926d	-0.21247263
36	0xbd909cf2	-0.07061185
37	0x3d6475e3	0.055776488
38	0x3e5dc492	0.21657017
39	0x3dcb96cc	0.099408716
40	0xbddc76c1	-0.10764838
41	0x3e73f8b5	0.23825343
42	0xbe2121cb	-0.15735547
43	0x3d26a587	0.040685203
44	0xbe425734	-0.18978578
45	0x3e45cd9f	0.1931672
46	0x3d170313	0.036868166
47	0xbe4ba287	-0.19886218
48	0x3de38d54	0.111109406
49	0x3d641784	0.05568649
50	0x3cbdee76	0.023184996
51	0xbccf89a3	-0.025334185
52	0xbe201cf9	-0.15636052
53	0x3dd27620	0.10276437
54	0x3e49e322	0.1971555
55	0xbd7adb46	-0.06124427
56	0x3e251a55	0.16123326
57	0x3d9588e9	0.07301504
58	0xbd85f746	-0.06541304
59	0xbb3b8620	-0.002861388
60	0xbdcbfe78	-0.099606454
61	0xbd4ebb94	-0.050471857
62	0x3d6b9e72	0.057524152
63	0x3e2003da	0.15626469

fc3.weight f4 [64, 64]
0	0x3d8e36f6	0.06944077
1	0x3e41213a	0.18860331
2	0x3e7cb984	0.24680144
3	0xbe5b83ae	-0.2143695
4	0x3e6354b5	0.22200282
5	0x3e058b0a	0.1304132
6	0x3e9e98df	0.30976006
7	0x3dc88c6a	0.09792407
8	0xbdda5b2d	-0.10661922
9	0xbdba8896	-0.09108083
10	0x3ea6fc56	0.32614392
11	0x3d19cfd2	0.03755171
12	0x3e2dc087	0.16967975
13	0x3dce8fb2	0.100860015
14	0x3ea2fa13	0.31831416
15	0xbdc8e7e1	-0.098098524
16	0x3cbb18e6	0.022839021
17	0x3def697c	0.116900414
18	0xbd3fbc8d	-0.046810675
19	0xbdeeeffa	-0.11666866
20	0xbe1949f0	-0.14969611
21	0xbdc0d0c3	-0.09414818
22	0xbd9e46b8	-0.07728332
23	0x3d62f8b9	0.05541298
24	0xbddc78c7	-0.10765224
25	0x3c4f660c	0.012658607
26	0x3c743e25	0.014907395
27	0x3dfd6200	0.12372208
28	0xbd23b60d	-0.03996854
29	0x3d4190c8	0.047257215
30	0x3b26188f	0.0025344228
31	0x3db1aa4a	0.08675058
32	0xbda277be	-0.07932995
33	0x3dfaad54	0.12240091
34	0x3de330d3	0.11093297
35	0x3deaf642	0.11472751
36	0x3e7a85b8	0.24465072
37	0x3e17265c	0.14760727
38	0x3e4b5f7b	0.19860642
39	0x3d513f08	0.051085502
40	0x3e9c4bc7	0.30526564
41	0x3e4384d2	0.19093636
42	0x3e71aedf	0.23601864
43	0x3aabc240	0.0013104156
44	0x3dd7b51f	0.10532593
45	0xbe0f91a8	-0.14020407
46	0xbd995cde	-0.07488416
47	0x3e7bb45a	0.24580517
48	0xbd10d486	-0.03535893
49	0x3e18bce4	0.14915806
50	0xbdb75fc9	-0.089538164
51	0xbe26df80	-0.16296196
52	0xbcdcf9a4	-0.026974507
53	0x3d8498d2	0.06474461
54	0x3e0af8b2	0.13571432
55	0xbd2b407c	-0.041809544
56	0xbe0d8f41	-0.13824178
57	0xbc810af1	-0.015752288
58	0x3dad5d50	0.084650636
59	0xbd7ee001	-0.062225346
60	0xbe5d17bf	-0.2159109
61	0x3de9a0e7	0.11407643
62	0xbe9316df	-0.28728387
63	0xbeba22b6	-0.36354607
64	0xbded1ca0	-0.115777254
65	0x3e000251	0.12500884
66	0x3d6bc61a	0.05756197
67	0xbda2e15f	-0.079531424
68	0x3e5a79bb	0.21335499
69	0x3dcdd48a	0.10050304
70	0x3e15fc76	0.14647087
71	0x3d94aa21	0.07259012
72	0xbde31b02	-0.11089136
73	0xbd8c89b6	-0.06862204
74	0x3db061d6	0.08612411
75	0x3dba6ffa	0.09103389
76	0xbe8a3340	-0.26992226
77	0x3e687179	0.22699536
78	0xbd6702d4	-0.05639918
79	0xbd4dc52d	-0.05023687
80	0xbe602728	-0.21889937
81	0xbe086caf	-0.1332271
82	0xbd2dee6a	-0.042463697
83	0x3dfb1f44	0.12261823
84	0x3e370f34	0.17876893
85	0x3cd89138	0.026436433
86	0x3d7b0756	0.061286293
87	0x3cead015	0.028663674
88	0xbc8a15a3	-0.01685602
89	0x3dc15e22	0.094417825
90	0x3d945eac	0.0724462
91	0x3d8ef043	0.0697942
92	0x3d884f5b	0.06655761
93	0x3e76e5d0	0.24111104
94	0x3e162310	0.14661813
95	0x3e2365d8	0.15956819
96	0xbe369da2	-0.1783357
97	0xbd523427	-0.051319268
98	0xbc5b72ed	-0.0133941
99	0xbe29d8f2	-0.16586664
100	0x3e0c5ef9	0.13708104
101	0x3d65b8e6	0.056084536
102	0xbc917a86	-0.017758619
103	0x3dc6b003	0.0970154
104	0xbe2c4918	-0.16824758
105	0xbe126f87	-0.14300357
106	0xbdc920e5	-0.09820727
107	0x3e1a2877	0.15054499
108	0x3e79654a	0.24355045
109	0xbdd1c855	-0.102432884
110	0xbbbe1b9a	-0.00580163
111	0x3d8f7151	0.07004035
112	0xbcdcfea1	-0.026976885
113	0x3e1f5266	0.15558776
114	0x3d7e69b1	0.062112514
115	0x3d2f8ed5	0.042860825
116	0x3db15023	0.08657863
117	0xbdd68685	-0.10474876
118	0x3da23de6	0.079219624
119	0xbdd1c3c3	-0.10242417
120	0x3db88a2a	0.09010728
121	0x3d288847	0.04114559
122	0xbd902124	-0.07037571
123	0x3d2db78f	0.042411383
124	0xbd835097	-0.06411856
125	0x3e3a8ce9	0.18217815
126	0x3e643a4c	0.22287863
127	0xbe8215af	-0.25407168
128	0xbd08b141	-0.033372167
129	0xbea58a89	-0.32332256
130	0x3afbd5a4	0.001921345
131	0xbd07a7ca	-0.033119
132	0x3c07b638	0.00828319
133	0xbd898379	-0.067145295
134	0x3e34dc4e	0.17662165
135	0xbdbb58ed	-0.091478206
136	0xbed6c908	-0.4195025
137	0x3e175c2b	0.14781253
138	0x3ccbb748	0.024867669
139	0xbde5d8d4	-0.11222997
140	0x3d91b689	0.07114894
141	0xbe8a97df	-0.27068993
142	0x3d5cccad	0.05390613
143	0x3db7e8ed	0.08979974
144	0x3e70d724	0.2351957
145	0x3da52e73	0.080655
146	0xbdc99262	-0.098423734
147	0x3d90ca16	0.07069795
148	0xbec34122	-0.3813563
149	0xbe3c207d	-0.18371768
150	0xbe3d319e	-0.18475959
151	0x3ea71a20	0.3263712
152	0x3e3df933	0.18552093
153	0x3e0ba751	0.13638045
154	0x3dc173d7	0.09445923
155	0xbdaabb4f	-0.083365075
156	0x3d4d5b4d	0.0501359
157	0x3cc035d6	0.023463171
158	0x3d85afdd	0.06527684
159	0xbd0da3ff	-0.034580227
160	0x3e1d6148	0.15369141
161	0xbcf553cf	-0.02994719
162	0xbdaa0a4e	-0.08302747
163	0xbe3699c4	-0.17832094
164	0xbe3e215b	-0.18567412
165	0x3bf9f058	0.007627528
166	0x3e499a70	0.1968782
167	0x3deabb58	0.11461514
168	0xbe5afb0f	-0.21384834
169	0xbd8864aa	-0.06659825
170	0xbe589ed0	-0.21154332
171	0x3e1bb062	0.15204003
172	0x3def5d20	0.11687684
173	0x3dfc80a3	0.12329223
174	0x3de89316	0.113561794
175	0xbdf0cc5d	-0.11757729
176	0x3d8414f7	0.06449311
177	0xbe48d335	-0.19611819
178	0xbe153c17	-0.14573704
179	0x3da0f721	0.07859636
180	0xbdbfd8b9	-0.093675084
181	0x3c6fa0fc	0.014625784
182	0x3da99b4d	0.082815744
183	0xbe0fbc38	-0.14036644
184	0xbdc8e695	-0.09809605
185	0xbca4bf5e	-0.020110782
186	0x3e5e099e	0.21683356
187	0x3c86ca18	0.016453788
188	0xbe83bec7	-0.2573149
189	0x3e1e7be5	0.1547695
190	0x3df6433e	0.12024544
191	0x3d8a58fb	0.06755253
192	0x3e003040	0.12518406
193	0xbeb19292	-0.34682137
194	0xbdad6c80	-0.0846796
195	0xbd060a1e	-0.032724492
196	0x3df4a5cb	0.11945685
197	0x3d08dfe9	0.033416662
198	0x3d2ca115	0.042145807
199	0xbe2304b6	-0.15919766
200	0x3dd8cb3f	0.10585641
201	0xbe26827f	-0.16260718
202	0xbe190cc3	-0.14946274
203	0xbdd23322	-0.10263659
204	0x3d2af8a5	0.041741032
205	0xbdce52c9	-0.10074384
206	0x3dbea550	0.093088746
207	0xbe7b074a	-0.245145
208	0x3cd85af7	0.026410563
209	0xbd7cfe93	-0.06176622
210	0x3ddfcfa5	0.10928277
211	0x3d72100e	0.059097342
212	0xbc07ab9b	-0.00828066
213	0xbd67ed6e	-0.056622915
214	0x3dc58caf	0.09645974
215	0x3daa4abf	0.08315038
216	0x3dd46aac	0.103719085
217	0xbe291c04	-0.16514593
218	0xbe18da8e	-0.14927122
219	0x3d153109	0.036423717
220	0x3e4769d3	0.19473962
221	0x3e945f74	0.28979075
222	0xbde40339	-0.11133427
223	0x3b5b90ea	0.0033503124
224	0x3e9d0e9a	0.30675203
225	0xbdacb46f	-0.084328525
226	0x3d8b0d87	0.067896895
227	0xbe3d4d98	-0.18486631
228	0x3eacc9fc	0.33747852
229	0x3dbbd77e	0.09171961
230	0xbdd6dd03	-0.104913734
231	0xbc619563	-0.013768527
232	0xbdf9f733	-0.12205353
233	0x3e152269	0.14563908
234	0xbce4bee8	-0.027923062
235	0xbc5ba1ce	-0.013405276
236	0xbcee8080	-0.029114008
237	0xbd82c7c4	-0.063857585
238	0x3e28d459	0.16487254
239	0x3d109b23	0.0353042
240	0xbe879197	-0.26478264
241	0xbe129742	-0.14315513
242	0x3e94e183	0.29078302
243	0x3e5a5529	0.21321549
244	0x3d2d08b4	0.042244628
245	0xbd571118	-0.052506536
246	0xbe1cdaa3	-0.15317778
247	0x3dc2ccc6	0.09511714
248	0xbd82a75a	-0.06379576
249	0xbd0eb36b	-0.034839075
250	0xbce8ebbb	-0.028432718
251	0xbd63c875	-0.055611093
252	0x3d51f207	0.051256206
253	0x3e3289ab	0.17435329
254	0xbb653072	-0.0034971503
255	0xbd9d5949	-0.076830454

fc3.bias f4 [64]
0	0xbd8ebcd7	-0.06969612
1	0xbdeaa3f5	-0.114570536
2	0x3dd174a2	0.10227324
3	0x3d22f0fd	0.039780606
4	0x3e243983	0.16037564
5	0x3e46e46d	0.19423075
6	0x3e116921	0.1420026
7	0xbd25a018	-0.04043588
8	0x3e2f6165	0.17126997
9	0xbcf0db1f	-0.02940136
10	0xbcf7e9a7	-0.030262781
11	0x3d9cbb99	0.07652969
12	0x3e37ed2c	0.17961568
13	0x3de6cc0b	0.11269387
14	0x3df79f2b	0.12090906
15	0x3e1b0621	0.15139057
16	0x3e08d14c	0.1336109
17	0xbe0bb9fb	-0.13645165
18	0x3c8b9517	0.017038865
19	0x3d30e1bf	0.04318404
20	0x3e7fa59d	0.2496552
21	0xbc453534	-0.01203661
22	0x3d250516	0.040288053
23	0xba0e2580	-0.0005422458
24	0xbdd5faf1	-0.10448254
25	0x3e66bc6f	0.22532819
26	0xbd94c8a9	-0.072648354
27	0x3e97ecb5	0.2967278
28	0xbd2f27bb	-0.0427625
29	0x3dc690ad	0.096955635
30	0x3e1dd562	0.1541343
31	0xbd35fb4f	-0.04442912
32	0xbc7b834c	-0.015351128
33	0xbd8cd6a6	-0.068768784
34	0x3e55c12b	0.20874469
35	0xbe13d1e3	-0.14435534
36	0xbc3a7517	-0.011380455
37	0xbc171022	-0.009220155
38	0x3d2e70e8	0.042588145
39	0x3d9f9b4f	0.07793295
40	0x3e19cbff	0.15019225
41	0x3e0f2af9	0.13981237
42	0x3da233c7	0.07920032
43	0xbdb926eb	-0.09040626
44	0x3e1ea0ac	0.15490979
45	0x3d895caa	0.067071274
46	0x3e348bff	0.1763153
47	0x3d9ecb91	0.07753671
48	0x3d3c1172	0.045915075
49	0x3d3ca788	0.046058208
50	0xbdc2ef2d	-0.095182754
51	0x3e6f717a	0.23383132
52	0x3de25d7f	0.11052989
53	0x3db56850	0.08857787
54	0x3d527a5a	0.051386215
55	0xbdeba6ba	-0.1150641
56	0x3d218d5c	0.03944145
57	0x3bc0bf8b	0.0058822087
58	0x3e580d34	0.21098787
59	0xbd5f25de	-0.054479472
60	0x3d6da5db	0.0580195
61	0x3dc1bfac	0.09460387
62	0x3ddf2134	0.10895005
63	0x3e494b1b	0.19657557

fc4.weight f4 [9, 64]
0	0xbe825851	-0.25458005
1	0xbe6cc19f	-0.23120736
2	0xbe779df0	-0.24181342
3	0x3e4b2c5b	0.19841139
4	0xbe302bf1	-0.17204262
5	0x3dc8bf19	0.09802074
6	0x3ce9c6c5	0.028537164
7	0x3dc3900d	0.0954896
8	0x3cf2d33c	0.02964174
9	0xbe97126c	-0.29506242
10	0x3e0c54cc	0.13704222
11	0xbebe21f3	-0.37135276
12	0xbd870516	-0.06592767
13	0xbc53b298	-0.012920998
14	0xbd0ef508	-0.03490165
15	0xbe79a69a	-0.2437996
16	0xbe004519	-0.12526359
17	0xbf0f901b	-0.5607926
18	0x3e4b992f	0.19882654
19	0xbe9aef53	-0.30260715
20	0xbe83b8cf	-0.25726935
21	0xbdb817e1	-0.089889295
22	0x3e019b68	0.12656939
23	0x3e359c12	0.17735317
24	0xbb9881b9	-0.004654136
25	0xbcad2a36	-0.021138292
26	0x3d182ecd	0.037154008
27	0xbe92c0fe	-0.28662866
28	0xbdea4ce7	-0.11440449
29	0xbd453718	-0.048148245
30	0xbe9cbac8	-0.30611253
31	0xbe49f5db	-0.19722693
32	0x3d6a8c35	0.057262618
33	0xbcebfc53	-0.028806841
34	0xbde88e44	-0.1135526
35	0xbc8d5035	-0.01725016
36	0x3d8e6538	0.069529
37	0x3dc8c7ba	0.0980372
38	0xbe98753c	-0.29776943
39	0xbb260d75	-0.002533761
40	0x3d519229	0.05116478
41	0xbd93b3ba	-0.072120145
42	0x3e7dbcec	0.24779099
43	0xbde03f06	-0.10949521
44	0xbd167b61	-0.036738757
45	0xbe1e7e00	-0.15477753
46	0xbe626357	-0.22108208
47	0x3e98c65e	0.29838842
48	0xbe821191	-0.25404027
49	0xbccc5374	-0.024942137
50	0xbeb20dad	-0.3477606
51	0xbe1bd9f5	-0.15219863
52	0x3d82326e	0.06357275
53	0xbd3590d0	-0.044327557
54	0xbdefeddf	-0.11715292
55	0xb8a4d800	-7.8603625e-05
56	0xbdca8b13	-0.098898076
57	0x3cb296b5	0.021800378
58	0xbda20b1b	-0.079122745
59	0x3c9d9b35	0.019239048
60	0x3e880f01	0.26573947
61	0xbe759c1c	-0.23985332
62	0x3e074fd4	0.13214046
63	0xbe3b5409	-0.18293776
64	0x3e26b0f2	0.16278437
65	0x3e04c1b5	0.12964518
66	0xbdf77fbe	-0.12084912
67	0xba2a6c1f	-0.00065010967
68	0xbe0d9157	-0.13824974
69	0xbdb68ad9	-0.08913202
70	0x3d4a7114	0.049424246
71	0xbdf49998	-0.11943358
72	0xbde7a79e	-0.11311267
73	0x3e2a9644	0.16658884
74	0x3d8de5b5	0.06928579
75	0xbe6c769f	-0.23092125
76	0xbe32d60b	-0.17464463
77	0x3f23b636	0.63949907
78	0x3d1c47cb	0.038154405
79	0xbdba440a	-0.09095009
80	0xbe3b0497	-0.1826347
81	0x3d1afe49	0.03784016
82	0xbd6d6711	-0.05795962
83	0x3b5a4291	0.0033303837
84	0xbe3bb163	-0.18329386
85	0xbd21cf6c	-0.039504454
86	0x3e813937	0.25238964
87	0x3e149a20	0.14511919
88	0xbde18af6	-0.11012833
89	0xbe55fbcd	-0.20896836
90	0x3ebdaf64	0.37047875
91	0xbf0dc3c2	-0.5537683
92	0xbdc4ec18	-0.09615344
93	0x3c1e3883	0.009657028
94	0x3d182fe9	0.037155066
95	0x3d36accd	0.04459839
96	0xbe7d9900	-0.24765396
97	0xbe1669fc	-0.14688867
98	0x3ba01332	0.0048851008
99	0x3d8bb58c	0.06821737
100	0x3e16e4e2	0.1473575
101	0x3d599066	0.053116225
102	0xbc61c860	-0.013780683
103	0xbdde46af	-0.108533256
104	0xbe498046	-0.19677839
105	0x3d534bf9	0.051586125
106	0xbe2f8a01	-0.17142488
107	0x3d32de18	0.043668836
108	0xbe2a3a3e	-0.1662378
109	0xbdf2c69b	-0.11854287
110	0xbe10070a	-0.14065185
111	0xbd9bad44	-0.07601407
112	0x3d63ac74	0.055584386
113	0xbe69d45a	-0.22834912
114	0x3e809f8d	0.25121728
115	0xbe01a741	-0.12661459
116	0x3d4eb0c1	0.050461534
117	0x3d220fed	0.03956597
118	0x3e85c7d0	0.26129007
119	0x3da8962c	0.08231768
120	0x3c241ceb	0.01001666
121	0xbde15f06	-0.110044524
122	0xbdb1d1ea	-0.08682616
123	0xbe208fff	-0.1567993
124	0x3bf0d131	0.0073491563
125	0x3c48106d	0.012210947
126	0xbdb65298	-0.08902472
127	0x3d523083	0.051315796
128	0xbed64766	-0.41851348
129	0xbd898170	-0.06714141
130	0x3d051e9f	0.032499906
131	0x3e0bf2b7	0.13666807
132	0xbccdb104	-0.025108822
133	0xbe6c8d96	-0.23100886
134	0x3d6119a8	0.05495611
135	0xbdf2d73c	-0.11857459
136	0xbd578c7a	-0.052624203
137	0xbe94f5b1	-0.29093698
138	0x3cca7951	0.024716051
139	0xbd069b05	-0.032862682
140	0xbcf2ec99	-0.029653834
141	0x3cc0cfb0	0.023536533
142	0xbe38c18c	-0.18042582
143	0x3eb025dd	0.34403887
144	0xbda4458f	-0.0802108
145	0xbeeea5d3	-0.4661089
146	0xbe7db8ee	-0.24777576
147	0x3f0a4904	0.54017663
148	0xbe202ae6	-0.15641364
149	0xbc52f4c8	-0.012875743
150	0xbe9e8331	-0.30959466
151	0x3ec5119a	0.3848999
152	0x3dd4ac09	0.103843756
153	0xbe17a569	-0.14809193
154	0x3f22d8a0	0.63611794
155	0xbc947bd3	-0.01812545
156	0x3dc267ae	0.094924316
157	0xbdc922ed	-0.09821115
158	0xbde05852	-0.10954346
159	0x3d2d1efa	0.04226587
160	0x3f0d752d	0.5525692
161	0x3dc2dd23	0.09514835
162	0x3dc37ecd	0.0954567
163	0xbc8f5068	-0.017494395
164	0x3e3fd6aa	0.18734232
165	0xbdb71a97	-0.089406185
166	0xbe89a946	-0.26886958
167	0xbd3e3cdd	-0.046444762
168	0xbe94fba6	-0.29098243
169	0xbdb871d1	-0.09006084
170	0x3e35bc5d	0.17747636
171	0xbd5bd960	-0.0536741
172	0xbe5ba32a	-0.21448961
173	0xbd8a821b	-0.06763097
174	0x3d19bfcc	0.037536427
175	0x3e2eb386	0.1706067
176	0xbe75e642	-0.24013618
177	0x3e8171cc	0.25282133
178	0xbd42b23f	-0.04753327
179	0xbdad16e8	-0.08451635
180	0x3dc961af	0.09833085
181	0xbcb29d1f	-0.021803437
182	0x3e5d83de	0.21632335
183	0xbdedb244	-0.11606267
184	0x3e1db91c	0.15402645
185	0x3d95e6b4	0.07319394
186	0xbe59b2f5	-0.21259673
187	0x3c2bf493	0.010495323
188	0x3dab308b	0.08358868
189	0xbe4f2add	-0.20231195
190	0xbe628421	-0.22120716
191	0xbed05d2f	-0.40696093
192	0x3be8b2cd	0.007101393
193	0xbe8beb04	-0.2732774
194	0xbe6875da	-0.22701207
195	0xbe89f6e9	-0.2694619
196	0xbdc46f73	-0.0959157
197	0x3d5412dd	0.051775802
198	0x3d6f036b	0.05835287
199	0xbeb4845b	-0.3525723
200	0xbe8494e3	-0.25894842
201	0xbd1acd95	-0.037793715
202	0xbe4898e1	-0.19589569
203	0xbcf07fba	-0.02935778
204	0xbe633488	-0.22188008
205	0xbd3938cb	-0.045220178
206	0x3ad9dd3f	0.0016621723
207	0x3defb8f3	0.11705198
208	0xbe0ea3e4	-0.13929707
209	0xbe69d0a0	-0.2283349
210	0x3d423cfb	0.047421437
211	0x3dd101b3	0.10205402
212	0xbd85feb5	-0.06542722
213	0xbdac0cd6	-0.08400886
214	0xbefbc5d0	-0.49174356
215	0x3e589188	0.21149266
216	0xbd76bcef	-0.060238775
217	0xbe0f8d63	-0.14018779
218	0x3ea52a80	0.32258987
219	0x3da2fb36	0.07958071
220	0xbed22265	-0.41041866
221	0xbe8a99d1	-0.27070478
222	0xbe4dd575	-0.20100959
223	0x3dbc3b4b	0.09190997
224	0x3e7e1c23	0.24815421
225	0x3f0228a0	0.5084324
226	0xbe826978	-0.2547109
227	0xbdfc8dc2	-0.12331726
228	0x3d4c280c	0.04984288
229	0x3d57e183	0.0527053
230	0xbda8f4af	-0.08249795
231	0xbe21dfbd	-0.15808006
232	0x3da1823e	0.0788617
233	0x3db69869	0.08915789
234	0x3e78fb98	0.24314725
235	0xbd56eec8	-0.052473813
236	0xbd556792	-0.052100725
237	0xbd8238d4	-0.06358495
238	0xbdb1550c	-0.086587995
239	0x3ec4c93f	0.3843479
240	0x3d8134fa	0.063089326
241	0x3e578105	0.21045311
242	0x3e4c840a	0.19972244
243	0x3b9851aa	0.004648407
244	0xbeecd6a6	-0.46257514
245	0xbe093c0c	-0.13401812
246	0xbe00edb9	-0.12590684
247	0x3dfcdc46	0.12346701
248	0x3e6c71d6	0.230903
249	0xbddb706a	-0.10714801
250	0xbe2afc1c	-0.16697735
251	0xbf136f25	-0.5759147
252	0x3dab7cfb	0.083734475
253	0xbea0e6ed	-0.31426182
254	0x3c8dca27	0.017308308
255	0x3c7e3282	0.015514972

fc4.bias f4 [9]
0	0xbd83b6ac	-0.06431326
1	0xbc2cdd0a	-0.010550747
2	0xbe230512	-0.15919903
3	0xbe193bd6	-0.14964232
4	0x3cbaa4a8	0.022783592
5	0xbe17b6b3	-0.14815788
6	0xbc1638e2	-0.009168835
7	0xbe611fc1	-0.2198477
8	0xbe36afc1	-0.17840482
