policy_p1.pt (torch, 41304 bytes, 8 tensors)

fc1.weight f4 [64, 9]
000000 df f8 db 3e 58 d2 c6 3e c8 67 94 be 76 79 00 be
       0.4296331 0.38832355 -0.2898543 -0.12546334
000010 2e d9 bf 3d e0 01 5b bd 65 a9 0f bd 98 0a 90 3d
       0.093675956 -0.053468585 -0.035073657 0.070332706
000020 7a 85 6b be 17 06 4b be 0e a5 26 3d 21 11 9b be
       -0.23000136 -0.19826542 0.040684752 -0.30286506
000030 84 55 c7 bd bc bd b2 bd 12 9e 4c be 1d b5 1a be
       -0.09733108 -0.08727595 -0.19982174 -0.15108152
000040 e0 91 97 3e 7c 51 03 3e 03 88 e2 3d 5f be 68 be
       0.2960348 0.12824053 0.110610984 -0.22728871
000050 cd d3 e5 bd fe 79 d5 3d 34 80 c8 be 11 a0 f2 bc
       -0.112220384 0.10423659 -0.3916031 -0.029617341
000060 66 b8 97 3e c9 99 bc bd 11 eb a4 be f8 84 a4 be
       0.29632872 -0.0920902 -0.3221059 -0.32132697
000070 50 32 32 be da 90 7c be 9d 0f ec bc 6a c4 4a 3e
       -0.17402005 -0.24664631 -0.028816039 0.19801489
000080 51 61 b0 be 88 73 e7 bd dd 77 6f be 4e 5b 97 be
       -0.34449247 -0.11301333 -0.23385568 -0.29561847
000090 94 9e 84 3e 6c e3 f5 3c 5a e8 bf be 8a df 94 be
       0.25902236 0.03001567 -0.37481958 -0.29076797
0000a0 9b 97 30 be a2 53 ab be b1 28 c3 be 6d 82 3e be
       -0.17245333 -0.33462244 -0.38116983 -0.18604441
0000b0 00 2d 04 be a7 17 bd 3e 57 7e 94 bd 58 8b c4 bd
       -0.12907791 0.36932108 -0.0725066 -0.0959689
0000c0 5b 36 3e be 6e 2e 7f 3d f5 d1 97 be d4 1c d3 bd
       -0.18575422 0.06230014 -0.29652372 -0.10308233
0000d0 24 57 2c be 23 c0 ab bd 2d a1 54 3e c0 8e 66 3d
       -0.16830117 -0.083862565 0.20764609 0.05628848
0000e0 a2 b6 98 bc 4f bd 9a be 90 16 ba 3e 88 a5 a4 3d
       -0.018641774 -0.30222556 0.3634534 0.08039385
0000f0 00 b9 f8 3d 2f fc e3 bd 5f 5b 39 be 7b e6 01 be
       0.12144661 -0.111320846 -0.18101262 -0.12685578
000100 36 3c 72 3e 45 2f 77 be 7c 41 d0 3e 8c 90 c4 3e
       0.23655781 -0.24139126 0.4067496 0.3839153
000110 ec b2 24 3e 80 27 81 3e 9b c9 4e be c7 9a d3 bd
       0.16083878 0.2522545 -0.20194094 -0.10332256
000120 9c 35 ba bd c0 12 52 be 2f d6 9a be ec cd 41 be
       -0.090922564 -0.20514965 -0.30241534 -0.18926209
000130 06 44 9d 3e 75 6f 49 be b5 37 74 3e cd 57 ea bd
       0.3071596 -0.19671424 0.23849376 -0.11442528
000140 45 61 ad be 4c 3b 4c 3d 98 f1 8e bd b1 8a 65 be
       -0.33863273 0.049861237 -0.06979674 -0.22416188
000150 5f 30 a8 3d a1 bf 85 3e 8c 18 e8 3c fb df 1c be
       0.08212351 0.26122764 0.028332017 -0.15319817
000160 3f 3b 9e 3c 8c 84 18 3e cf 6f 79 3e cc 44 90 3e
       0.01931536 0.14894313 0.24359058 0.28177488
000170 13 0c d5 be 87 9c ae 3e ec a0 cc be 2c e3 33 3e
       -0.41610774 0.34103796 -0.39966524 0.17567128
000180 90 ba f9 3d 0a 60 94 bd 90 c3 e3 3d 37 3c 8f be
       0.12193787 -0.072448805 0.11121285 -0.27975628
000190 ec 21 43 be 5e 6c 09 3e 4a 79 30 3e 5c 72 4c 3e
       -0.19055909 0.13420245 0.17233768 0.199655
0001a0 d6 f0 a9 3e db 08 7d be 34 58 90 3c 45 76 e4 3e
       0.33191556 -0.2471041 0.017620184 0.44621482
0001b0 38 f3 bd bd 0b 48 20 be 07 a0 b8 be 80 1d 33 3e
       -0.09274906 -0.15652482 -0.3605959 0.17491722
0001c0 c9 f8 b7 bc 04 38 a3 3e 2b 63 35 be 8b 59 45 be
       -0.022457497 0.31878674 -0.17713611 -0.19272439
0001d0 12 02 a5 3d 06 17 91 be a3 9a 26 3e 26 e5 97 3e
       0.080570355 -0.28337878 0.16269927 0.29667014
0001e0 39 de 96 bc f3 fa 4c 3e d8 a3 73 3e d3 09 eb bd
       -0.01841651 0.20017605 0.2379297 -0.11476483
0001f0 10 d7 03 be 03 42 40 3e dd 2e c2 3d ad d5 9d 3d
       -0.12875009 0.18775181 0.09481595 0.07706771
000200 08 e7 88 be eb 0f 24 be b3 41 cf 3e 4f d7 2d 3e
       -0.26738763 -0.16021697 0.40479812 0.16976665
000210 cb 1f 83 be 0e f1 48 3d 81 ab 77 3d f7 a7 dc 3d
       -0.25610194 0.049058013 0.060466293 0.10774224
000220 b7 03 7c be 6d 48 20 be eb 75 e2 3d 57 b1 1d 3d
       -0.24610792 -0.15652628 0.11057647 0.038499203
000230 12 bc a4 be 35 f3 87 3e a9 fb 69 3e bd ca 3e 3d
       -0.32174736 0.2655274 0.22849907 0.046580065
000240 4a 9a 14 bc 58 f6 78 3e a4 3e b5 3e 48 0b 1b 3e
       -0.0090699885 0.24312723 0.35399354 0.15141022
000250 39 49 31 bd e8 ef 7f 3e 08 a1 a7 3e c9 e8 1a 3e
       -0.04328272 0.2499386 0.32740045 0.15127863
000260 a6 60 b0 3e 9f 9f b4 3e ef 7d bd 3e b3 2b d7 3d
       0.34448737 0.3527803 0.37010142 0.10506382
000270 97 0f 15 3e d9 ad e8 3d 82 7d be be 37 8b be bd
       0.14556728 0.11361284 -0.3720513 -0.09303897
000280 ba 5e d5 3d 5e b4 a5 be 51 50 d2 bd 4c d9 68 be
       0.10418458 -0.32364172 -0.102692254 -0.22739142
000290 51 94 3b 3e 83 bb 6e 3e 3b 9d 18 3d e8 1d 0a be
       0.18318297 0.23313718 0.03725932 -0.13487971
0002a0 c9 46 b5 3e 2d 6d 35 3e 67 ce 43 be 34 6a 81 3e
       0.35405567 0.17717429 -0.19121705 0.2527634
0002b0 00 3d c3 3e 41 a2 ef bd 3e 22 68 be 21 50 20 3e
       0.38132477 -0.11700869 -0.22669312 0.15655567
0002c0 c4 9a b6 3b eb 41 65 be 11 50 23 bc ac 9b c0 3d
       0.0055726487 -0.22388427 -0.00996782 0.09404692
0002d0 53 fd 20 be e7 b9 c2 3e e5 e3 96 3d 85 83 12 be
       -0.15721636 0.38032457 0.07367686 -0.14307983
0002e0 f4 1c 56 be bf ce 33 bd 56 31 99 be 5d f2 65 3e
       -0.20909482 -0.04389834 -0.29920453 0.22455736
0002f0 46 d9 aa 3d 81 40 e1 bd f4 2d 9b 3e 6b 84 1d be
       0.08342223 -0.10998631 0.30308497 -0.15382545
000300 d2 81 0f be 1a db e0 bc a1 c4 e7 bd 6f 66 a8 3e
       -0.14014366 -0.027448226 -0.11316801 0.3289065
000310 f6 a6 cd 3e 16 2e 72 3e 17 fc 17 be c4 8a fc bd
       0.40166444 0.23650393 -0.14842258 -0.12331155
000320 9b f0 8f be e3 93 4a be ee 6a db ba 38 be e7 bd
       -0.28113255 -0.19782977 -0.0016740242 -0.11315578
000330 9f a9 8c bd 62 d4 ef 3e 1d 1d 03 be b7 b8 80 be
       -0.0686829 0.46841723 -0.12804075 -0.25140926
000340 71 89 03 3e 0c 5b 8a be c9 4d df be c9 11 93 be
       0.12845398 -0.27022588 -0.43614033 -0.28724506
000350 6c f9 a7 bd ae 9d da bd 52 d2 a9 3e 6f ac 6d 3d
       -0.0820187 -0.10674606 0.33168274 0.058025774
000360 99 f2 5d be e4 37 77 be d7 35 b7 bd a9 34 ae be
       -0.21674575 -0.24142414 -0.08945816 -0.34024552
000370 4f 0e 47 3e 8c a8 b3 bd 6e fa 8b 3c e5 52 25 bd
       0.19439052 -0.08772382 0.017087188 -0.040362258
000380 a4 8c 65 3e 5b c4 79 3e 0c 9a 29 3e 54 42 90 3e
       0.22416931 0.2439131 0.1656267 0.28175604
000390 44 f4 f0 3d 54 68 ff 3d 43 cb 91 3e b2 80 9c 3e
       0.1176534 0.12471071 0.2847539 0.30566937
0003a0 1c a3 8b 3e b4 e8 fd 3c 5a 9c 5b be 6c 1f 94 be
       0.2727288 0.03099475 -0.21446362 -0.28930223
0003b0 39 b6 5b bd 24 56 97 be 76 75 0b be da 54 4a be
       -0.053640578 -0.29557908 -0.13619027 -0.19758931
0003c0 e1 46 b2 3e f3 ee 64 3e 96 74 ac 3e e9 bc a3 be
       0.348197 0.22356777 0.33682698 -0.31980065
0003d0 f1 c8 3e 3e f1 22 f2 bd ec c8 23 3e 6c 21 29 be
       0.1863134 -0.11823071 0.15994614 -0.16516656
0003e0 d4 c7 21 be 4a ee d2 3d 0e 60 82 3e be 5b bd be
       -0.15798885 0.10299356 0.2546391 -0.36984056
0003f0 36 42 e1 be f9 9b 2e be a1 eb b4 be c2 6f 91 be
       -0.43995827 -0.17051686 -0.3533602 -0.28405577

fc1.bias f4 [64]
000000 a4 ad 81 be cb 7e b2 3d 66 be 85 bc b7 b8 88 3e
       -0.2532779 0.0871559 -0.01632614 0.26703426
000010 e7 f5 3e 3d 18 2f ca bd 81 94 05 3e c2 90 07 3b
       0.04662123 -0.09872264 0.13044931 0.0020685648
000020 81 27 a9 3e 2f 05 a8 bd dc 4e 0e bd 81 3a 9e 3e
       0.33037952 -0.08204114 -0.034743175 0.3090401
000030 d1 e4 f6 bd 85 d4 b3 bb fd 4c a4 be 24 53 35 3e
       -0.12055362 -0.005487981 -0.32089987 0.17707497
000040 42 c3 02 3e 53 a2 e4 bc 2b 33 2f be ae 3e 46 3d
       0.12769797 -0.027909433 -0.17109363 0.04839962
000050 ea c5 b9 3e dd 33 6a 3d 7a d7 c8 3c 0a 99 5a 3d
       0.3628381 0.057178367 0.02451681 0.053368606
000060 a2 46 76 bd 00 87 d8 3e ed a8 1b 3e c2 13 65 3d
       -0.060125954 0.42290497 0.15201159 0.055927046
000070 c4 45 ab bd 32 55 58 3e df 75 86 3e 8e 30 e4 3d
       -0.08362916 0.2112625 0.26261804 0.111420736
000080 d1 f4 c8 3d 00 99 c7 3b 52 d3 d2 bd a6 25 04 bd
       0.0981232 0.006091237 -0.102942124 -0.032262467
000090 e1 a8 f9 bd 3b 25 62 be 29 ff 93 3c b6 ec 57 bd
       -0.12190414 -0.22084515 0.018066006 -0.05271598
0000a0 fb 27 2e 3e 7d 48 d4 3e f6 ef 3b 3d ef ed 81 3e
       0.17007439 0.41461554 0.04588314 0.2537684
0000b0 1a 19 8a 3e dd 5d 10 be db c5 63 3c 74 47 c2 3e
       0.26972276 -0.14098306 0.013902153 0.3794514
0000c0 13 1f 9c 3e 52 19 fd bc 60 63 3e be 82 28 fb bd
       0.30492458 -0.030895863 -0.18592596 -0.122635856
0000d0 71 42 61 be a6 92 dc 3d d2 70 86 3e 5a 49 5e be
       -0.21998002 0.107701585 0.2625795 -0.21707669
0000e0 4f 1e 91 be 07 de 66 3e c9 3b fa 3b 2e 01 e8 bd
       -0.28343436 0.22545634 0.0076365215 -0.1132835
0000f0 fe 8d 39 be ec 3c a5 3e 20 2d b8 bc 83 c5 7e be
       -0.18120572 0.32273042 -0.022482455 -0.24880032

fc2.weight f4 [64, 64]
000000 9e b6 8c 3d f1 ea 9f 3d 3f cf eb bd ab 1d e6 3d
       0.06870769 0.078084834 -0.115141384 0.112361275
000010 2f 60 a3 3c bf 21 52 bd 13 11 ed bb a7 2c 02 be
       0.019943325 -0.051301714 -0.0072347014 -0.12712346
000020 c0 34 2c bd 4b ba 00 3e 19 05 47 3d a0 40 97 3d
       -0.042042494 0.12571065 0.048588846 0.07385373
000030 ef 1b 23 3e d6 1d 1a be 39 95 38 bd 5e 9a fa bd
       0.15928625 -0.15050444 -0.045064185 -0.122364745
000040 04 e8 36 3d 9b da 85 bd 56 f3 0c be 1a 91 ac 3d
       0.04465486 -0.06535836 -0.137647 0.084261134
000050 9c 13 f3 3d 07 bd 91 3d 55 08 50 3e d5 ec 05 3d
       0.118689746 0.07116132 0.20315678 0.032696564
000060 f7 cd ef 3d 63 43 21 3d 84 66 72 bd 05 58 11 3e
       0.117092066 0.039370906 -0.059179798 0.14193733
000070 90 0c c9 3d 33 49 5b 3d 29 d4 39 3b 4f 57 57 3b
       0.09816849 0.053536605 0.0028355217 0.0032858436
000080 1b ae 74 3d ff 62 90 bd e0 f6 be bd 4a 62 0a bd
       0.059736352 -0.07050132 -0.093244314 -0.033785142
000090 2d 3d b4 bd 40 9e 4e 3d 8b 0c 52 3d 21 3e 27 3e
       -0.08800731 0.050443888 0.051281493 0.16332294
0000a0 ba a6 98 bd 91 f5 30 bd 92 16 37 3d f1 22 8b 3d
       -0.074536756 -0.04320294 0.04469926 0.06793774
0000b0 22 80 06 bd 8e 80 bf bd f4 5b 22 be c0 3d de 3c
       -0.03283704 -0.09350692 -0.1585539 0.027129054
0000c0 6b db 28 3d 2c d2 d4 3d a6 e9 00 be 55 69 86 bb
       0.04122488 0.103916496 -0.1258913 -0.004101912
0000d0 d5 5e 12 3d 14 b8 41 bc 32 34 4f bd de 86 f0 bd
       0.03573497 -0.011823673 -0.050586887 -0.11744474
0000e0 4d 9c b5 bc 4c 57 fa 3d 9e 0c 35 be e2 00 bd 3d
       -0.022169257 0.12223682 -0.17680594 0.09228684
0000f0 36 8f 29 be 73 b9 0d 3e 77 a8 95 bd a3 bb a8 bb
       -0.16558537 0.13840275 -0.07307523 -0.005149321
000100 dc ce f2 3d 49 18 7f 3d a0 f7 ab 3d 46 a0 9f 3d
       0.118558615 0.06227902 0.0839684 0.077942416
000110 a6 4d fd 3d 46 6f 91 3d fa 95 dc 3c 09 8f 91 bc
       0.12368326 0.07101302 0.026926983 -0.0177684
000120 d9 ff 11 3d 55 be 09 3d a6 e2 88 3d 4e bc 3d bd
       0.035644386 0.03362878 0.06683855 -0.04632216
000130 73 27 19 3c d4 5f 14 3e 5a a6 64 bd db 35 22 bd
       0.009347784 0.1448968 -0.055822708 -0.03960214
000140 83 09 8d bd 1d f5 ab 3d be 49 e2 bd ec 68 aa bd
       -0.0688658 0.08396361 -0.110492215 -0.083207935
000150 28 36 c9 bc 20 54 26 3c e7 d4 77 bd c4 16 73 3d
       -0.024561957 0.010151893 -0.060505774 0.059347883
000160 96 f3 6b 3d 91 57 00 bd a0 38 bb 3d 8b 19 86 3d
       0.05760535 -0.03133351 0.0914166 0.06547841
000170 71 57 95 bd db 06 bc 3d b3 86 78 bc 03 7e cf bb
       -0.07292069 0.09180995 -0.015168834 -0.0063321604
000180 dd f4 c9 3d 9e a7 a4 bd c1 7b 27 3e 9f 01 a9 3e
       0.09861157 -0.08039783 0.16355802 0.3300905
000190 28 ed 1b 3e d4 98 e7 3c e0 a1 cc 3c 4f 65 95 3d
       0.15227187 0.028271116 0.024979532 0.07294714
0001a0 42 53 b2 bd c7 c3 01 3d 03 1e c6 3d 5f 4e 17 3e
       -0.087072864 0.03168085 0.09673693 0.1477599
0001b0 71 dc 07 3e 26 82 67 bd ea 77 d8 3d 72 83 d2 3d
       0.13267685 -0.056520604 0.10569747 0.102789775
0001c0 02 b4 9b 3d 6d f1 86 bc 1b e9 db 3d 40 2c 3c 3b
       0.07602693 -0.016472543 0.10737821 0.0028712898
0001d0 34 b9 be 3c 16 9e f6 3c 67 f3 cf bc 20 88 a1 3a
       0.023281671 0.030104678 -0.025384618 0.0012323894
0001e0 35 7e bd 3d 78 f8 aa 3d e9 9c cc 3d e3 02 85 3d
       0.09252588 0.08348173 0.09990866 0.06494691
0001f0 97 0d eb bd f9 7e fd bc 51 71 76 3d 48 4b ce 3d
       -0.114772014 -0.030944334 0.06016666 0.100729525
000200 d5 5e 8c bd ee a3 35 3c 4d a2 b5 3d 0f c5 1d bd
       -0.06854025 0.011086447 0.08868847 -0.038518008
000210 ba c1 a3 3d 4c 67 2e 3d 6f ff 40 3d 09 6f 8b bc
       0.07995935 0.04257898 0.0471186 -0.01702072
000220 9a 82 d1 bd ed 0b f0 bc 21 f7 d5 3d e6 50 ca bb
       -0.102299884 -0.029302562 0.10447527 -0.0061741946
000230 e2 b5 a9 bd b7 40 11 3e b9 0a 2d 3d 27 37 0a bd
       -0.082866445 0.14184843 0.042246554 -0.033744004
000240 0f 2b a0 3a 8d 69 cd bc 7a 4f 38 bd ae c1 b4 3d
       0.0012219864 -0.025074745 -0.04499767 0.08826004
000250 a6 3a b5 3d 7a 6c 2a 3e c8 36 7d 3e 2d 96 ba bb
       0.08849077 0.16642943 0.24727929 -0.005694172
000260 2e 1c 04 be e6 fd e5 3d ee 21 34 3c 08 66 96 3d
       -0.12901375 0.11230068 0.010994418 0.0734368
000270 94 ad e1 3d 97 9b 04 bd 53 87 99 bd 13 68 b3 bd
       0.110194355 -0.032374945 -0.07496514 -0.08760085
000280 60 1a bd bc 57 1b cc bb 93 1b 2b 3e 6e ce 1c 3e
       -0.023083866 -0.006228845 0.16709737 0.15313122
000290 b9 8e 1c bd 94 ab 1d 3d e9 56 60 3d 4d ec 4f 3e
       -0.03822205 0.038493708 0.054770384 0.20304985
0002a0 e9 f0 1f 3e 7a 98 00 3d 31 69 a0 bc ea 2c 19 be
       0.15619244 0.031395413 -0.01958141 -0.1495854
0002b0 83 3b 0b bd 00 36 86 bc b3 3a c3 3d 37 a2 8b 3c
       -0.0339923 -0.016383171 0.0953268 0.017045124
0002c0 4e 40 cc 3d e0 78 1c 3e 6d 32 b8 bd f5 77 df 3c
       0.09973203 0.15280485 -0.08993993 0.02727888
0002d0 65 91 75 3d 3c 54 c5 bd 7e d7 11 3e 5f 54 88 3e
       0.059953112 -0.09635207 0.1424236 0.2662687
0002e0 e4 5a 6e bd 09 94 36 3c 19 fc a6 3d 32 91 4c 3d
       -0.05819215 0.011143693 0.081535526 0.049943157
0002f0 2f 0a 63 3e 72 9d 30 3e cf a0 91 bb 46 7c c5 bd
       0.22171853 0.1724756 -0.0044442187 -0.09642844
000300 7d 26 b0 bd 4d bf f7 bb bf a6 a9 bc e8 a2 6d bb
       -0.08601091 -0.0075606466 -0.020709394 -0.003626043
000310 a4 3c 35 3c 53 d2 80 bd 23 51 19 bc 4c 02 83 bc
       0.011061821 -0.06290116 -0.009357723 -0.015992306
000320 3e 4f 32 3e d9 99 3f 3e e9 c1 aa bd 3a 8c e6 3c
       0.17413041 0.18711032 -0.08337767 0.028143037
000330 52 b0 59 bd 9f cb d7 3d f7 c8 98 bd 51 35 10 3e
       -0.053146668 0.105368845 -0.07460206 0.14082839
000340 03 24 b3 3d 26 2e 3e bd 16 76 86 3d 74 51 8d bd
       0.08747103 -0.04643073 0.06565492 -0.069003016
000350 49 39 82 bd 03 a0 1d 3e 8e 2f 8c 3d 0a 1c 2a bc
       -0.063585825 0.15393071 0.06845008 -0.010382662
000360 e0 e3 1b bd a0 8f d4 3d c4 c0 89 bb fe 13 6e 3d
       -0.038059115 0.10378957 -0.0042038877 0.058124535
000370 aa c8 cb 3d 41 df 72 bd 31 6a b2 3d 5d 32 13 3d
       0.09950383 -0.059294943 0.08711661 0.035936702
000380 56 c1 32 3d ca 8a 56 3d 7b c2 84 bd 70 8a c4 bd
       0.04364141 0.052378453 -0.06482407 -0.09596717
000390 de f6 e9 3d 6c c9 22 3e 7b 94 77 3c 98 ff 4d be
       0.11424039 0.15897149 0.015111084 -0.20117033
0003a0 9d 22 ae 3d 8e 8a 78 3d 60 b7 0c 3c 2e 60 03 bd
       0.08502696 0.06067901 0.008588642 -0.032074146
0003b0 4a 91 41 bc 5a 2e c3 bc 0d 41 fa bd 25 32 f0 3d
       -0.011814425 -0.023825813 -0.12219439 0.11728314
0003c0 f6 a7 9d 3b 18 9b 0b be 4b e6 bd bd e8 2e c4 3c
       0.0048112823 -0.13633382 -0.092724405 0.023948148
0003d0 17 dd 57 3b c7 e6 94 bd 98 e5 fa bd f5 8a 2d be
       0.0032938176 -0.0727058 -0.12250823 -0.16947539
0003e0 b1 68 17 be 32 07 6b 3d d8 e8 b6 3d d4 06 6f 3d
       -0.1478603 0.05737991 0.0893113 0.05835612
0003f0 72 3a 38 bd 35 33 77 3d cc 6e 17 3d a6 b5 d8 3c
       -0.044977613 0.06035157 0.0369709 0.026453804

fc2.bias f4 [64]
000000 02 dd 4d bd 0c 7a 64 3d a0 a0 28 bc c0 dc 57 3d
       -0.050259598 0.055780455 -0.010292202 0.052700758
000010 31 4b f1 bc 67 63 e9 bd ec b4 13 bd 83 11 95 bc
       -0.0294548 -0.113959126 -0.036061212 -0.018196827
000020 13 1a 0b 3d 2f c8 d5 3d c2 48 3d bc ed bb 22 3d
       0.033960413 0.104385726 -0.011552991 0.03973
000030 92 1e 7d bd 20 08 1d bc e3 f8 51 bd d0 93 12 be
       -0.061796732 -0.009584457 -0.051262747 -0.14314198
000040 5d d7 91 bd 8b 51 9a bd b0 2d 54 3c 76 c1 dc bd
       -0.071211554 -0.07535084 0.012950346 -0.10779087
000050 50 fa e7 bc 97 80 d1 3d dc 6b 3d bd 92 e6 67 bd
       -0.0283176 0.10229605 -0.04624544 -0.056616373
000060 90 00 5f bd 20 40 0b be db 67 49 bd 46 c7 e2 bc
       -0.054443896 -0.1359868 -0.04917131 -0.027682912
000070 e7 85 ee bd d3 74 c1 3d 67 ce fc 3d 59 21 29 3e
       -0.116466336 0.094461106 0.123440556 0.16516627
000080 be 98 93 bc db 1d 1a 3d b7 d7 d7 bd 9c 6c 48 bd
       -0.01801717 0.03762613 -0.10539191 -0.048931703
000090 98 18 c8 3d 09 71 d2 3d d6 a2 c4 3d 3d c6 57 bd
       0.09770316 0.10275466 0.09601371 -0.05267929
0000a0 b4 24 be bd 19 8d f1 3b 9e 81 b2 3d 30 85 18 3e
       -0.09284344 0.0073715565 0.08716129 0.14894557
0000b0 55 6b 80 3d 92 c9 8c 3d da 25 44 be ea b7 e6 3d
       0.06270472 0.06874384 -0.19155064 0.112655476
0000c0 18 ae b3 bd 0c 80 e4 3d c4 b6 cd bd 4e 10 ab bd
       -0.0877344 0.111572355 -0.100446254 -0.08352719
0000d0 ec 1d d4 bb 33 c2 89 3d f1 33 5a 3b 29 aa 08 be
       -0.0064732935 0.06726494 0.003329512 -0.13346161
0000e0 18 11 76 bd 05 45 d3 bd 20 27 88 3d 29 29 34 3e
       -0.060074896 -0.10315899 0.066480875 0.17593826
0000f0 46 ee 20 bd 6f e5 15 bc 49 13 20 be 75 d3 ab bd
       -0.039289735 -0.0091489395 -0.15632357 -0.083899416

fc3.weight f4 [64, 64]
000000 37 91 21 be e1 f8 64 bd d7 4a 63 3d 91 29 20 3e
       -0.15778051 -0.055901412 0.055491295 0.15640856
000010 e7 b3 13 3e d6 72 70 3d f0 a9 38 3d 37 a3 62 3d
       0.14424096 0.058703266 0.04508394 0.055331435
000020 51 3d 90 bd 71 8e f2 bc 38 3f 46 be 0d b3 9b bc
       -0.07042945 -0.029608937 -0.19360054 -0.019006277
000030 d4 0d 76 3d 64 59 36 be ab 90 a8 3d 82 d1 53 3e
       0.06007178 -0.17807537 0.08230718 0.2068539
000040 35 23 84 3d 67 ff cc 3d 41 ca 21 3e 23 30 bc 3d
       0.06452028 0.10009652 0.1579981 0.09188869
000050 75 0f 3f 3d 42 46 42 bd d9 23 6e 3d a0 75 a4 bd
       0.0466456 -0.047430284 0.058139656 -0.08030248
000060 5f e7 bb 3c 96 f6 c5 3d 47 b9 00 3d 98 16 46 3d
       0.022937475 0.09666173 0.031426694 0.04836139
000070 f6 00 b7 bd e4 52 e4 3d 8d 40 65 bd ce 30 10 be
       -0.0893573 0.11148623 -0.055969764 -0.14081118
000080 b2 cf 9e 3d cb 81 ef bc bd 62 c5 3c 16 d0 c3 bc
       0.077544585 -0.029236695 0.024094934 -0.023902934
000090 6c fe be 3c 42 4e 04 3d 1b 50 a9 3d 19 07 d0 bd
       0.023314677 0.032301195 0.08267232 -0.10157604
0000a0 23 e1 00 be bf 82 d8 bc f4 55 f5 3d 0a 42 23 3e
       -0.12585883 -0.026429532 0.11979285 0.1594316
0000b0 d7 49 50 bd 54 60 86 bd 54 89 cd bd 4b 41 99 3d
       -0.05085167 -0.06561342 -0.10035959 0.07483157
0000c0 25 b2 61 be a0 b3 f0 3d 30 da 3b bd 14 71 85 3e
       -0.22040613 0.11753011 -0.045862377 0.26062834
0000d0 0a f3 a2 3c cc 3e 67 be fe 84 34 be dd ef 71 bc
       0.01989128 -0.22582549 -0.17628857 -0.0147666605
0000e0 13 60 fd 3b 94 ee 64 bd 1d 88 46 3d 4d 2f e9 3d
       0.0077324 -0.05589159 0.04846965 0.11385975
0000f0 81 8c 08 3c 80 ea 1c 3d 73 79 7f 3d b9 64 e7 3d
       0.00833428 0.038309574 0.062371682 0.11298508
000100 29 20 19 3e 96 5d eb 3d 80 88 d0 bd 64 79 06 bd
       0.14953674 0.114924595 -0.10182285 -0.03283061
000110 f2 28 c2 3c 0d d9 ec 3d 5b 64 67 be 40 61 85 bd
       0.023701165 0.11564837 -0.22596876 -0.065126896
000120 66 ea aa 3d f6 fe 1c bc 88 3f 8e bb da d6 b5 3d
       0.08345489 -0.009582272 -0.0043410696 0.0887887
000130 71 32 07 3e 2f b5 51 3d d9 3c ad bd e7 00 57 3c
       0.13202836 0.05119818 -0.084588714 0.013122774
000140 ca 93 5d 3e 8d 40 49 3c 16 9e 2f 3d 77 77 7f bd
       0.21638408 0.0122834565 0.042875372 -0.06236979
000150 84 03 0c 3e fc 6f 6c 3e f3 1c b5 bb 56 aa ee 3d
       0.13673216 0.23089594 -0.0055271327 0.11653583
000160 87 ea 94 3d 68 fd cf 3b 9f a6 1f bd 07 cb 05 3e
       0.07271295 0.006347347 -0.03897726 0.1306573
000170 e2 3c 71 bd 72 15 ad b9 81 e5 68 bd 6f dd 48 bd
       -0.058895953 -0.0003301311 -0.056859497 -0.0490393
000180 b5 a1 38 3d 8c 51 9c 3d 66 d6 7f bd 3d 64 11 bd
       0.04507609 0.07632741 -0.062460326 -0.035495985
000190 4b 1e 00 3e 28 cf 1d 3e 4a af 81 3d e0 16 84 3d
       0.12511556 0.15411055 0.06332262 0.064496756
0001a0 82 13 92 3c e4 61 b8 3c 25 a4 d5 bc 7e 8a 55 3c
       0.017831568 0.022507615 -0.026079247 0.013033507
0001b0 8b ea 18 bd 4b 44 a3 3d 33 c1 f9 3d 8a b1 23 3e
       -0.037333053 0.0797201 0.12195053 0.15985695
0001c0 db ec b9 3c c4 02 f4 3d 74 87 4c 3e ae 3f 00 be
       0.02269595 0.1191459 0.19973546 -0.12524292
0001d0 9a c2 2e bd 8f b9 ce 3b ec 16 91 3d ad 95 89 3d
       -0.042666055 0.0063087414 0.0708445 0.067180015
0001e0 8f d0 f7 3c da d4 e9 3d fd 89 8a bd 39 2c b2 3d
       0.030250816 0.11417551 -0.067646004 0.08699841
0001f0 60 05 f0 3d 97 46 98 3d 73 57 f8 3d 6a 25 94 3d
       0.11719775 0.07435339 0.121260546 0.07233699
000200 a3 15 9e bd 18 f3 e1 3a de f4 b4 bd 65 f5 39 be
       -0.077189706 0.0017238585 -0.08835767 -0.18160017
000210 f0 7d 7f bb 44 70 e3 bd dc 45 89 3b b0 9a aa 3c
       -0.0038984977 -0.11105397 0.004189236 0.020825714
000220 17 23 f8 bc 2b 8e 86 ba 18 75 2d bd 65 43 d4 3d
       -0.03029017 -0.0010265758 -0.042347997 0.10364417
000230 30 15 8d bd 33 78 98 bd 5e 8d 0d be 5a be ab bd
       -0.06888807 -0.07444801 -0.13823459 -0.08385916
000240 e5 e0 10 be 35 da 15 be a9 53 74 3e 81 ee c7 ba
       -0.1414829 -0.1463402 0.23860039 -0.0015253575
000250 4c e5 07 be 79 89 af 3d c4 50 90 3d 5c 28 6e 3e
       -0.13271064 0.08571143 0.07046655 0.23257583
000260 c7 6e b3 bd 3d aa bd bd 3f c2 08 be 79 0a 15 be
       -0.087613635 -0.09260986 -0.13355349 -0.14554776
000270 74 81 e7 3d 84 27 94 bd 3b dc 9c bd df 74 88 bc
       0.11303988 -0.072340995 -0.07659193 -0.016657291
000280 a2 91 87 3d 6c b6 4e 3d 82 e3 a5 bd 0a 98 0c be
       0.06619574 0.05046694 -0.08100034 -0.13729873
000290 48 6f 0a 3e e9 b0 16 bb d5 e4 9d 3b f5 19 1e 3e
       0.13519013 -0.002299363 0.0048185387 0.1543959
0002a0 0b f4 22 bd 6a 17 d0 bc 2f 94 c5 3d cb 7a 21 3d
       -0.03978352 -0.02540179 0.096474044 0.039423745
0002b0 8b ca cc 3d e2 5e b0 3d 3a b1 d8 bd 15 a4 18 3d
       0.099995695 0.086118475 -0.10580678 0.037265856
0002c0 f6 41 14 3d 9e f2 ce 3d 28 19 f8 3d 62 c2 58 be
       0.036195718 0.10104869 0.12114173 -0.21167901
0002d0 95 5b c1 3d 15 0f d3 3d 85 81 08 bd 78 fc a9 3e
       0.09441296 0.10305611 -0.033326644 0.3320043
0002e0 57 c4 5d 3d f9 7e 6c 3d 1e 5a 24 bd 53 9d c9 3d
       0.054142322 0.057738278 -0.040125005 0.0984446
0002f0 56 6e 05 3e 85 a6 95 bc c1 4f d4 bd 09 bb 8f bc
       0.13030371 -0.01826788 -0.10366774 -0.01754524
000300 37 0d 11 be 5f cf 90 3d 83 42 7b 3d e2 bc 85 bd
       -0.14165197 0.07070803 0.061342727 -0.06530167
000310 91 33 55 3d c7 b9 56 bd c8 cf 40 bd 51 03 73 bc
       0.05205113 -0.052423265 -0.047073156 -0.014832334
000320 1d 00 9d 3d 5f 15 01 3e a2 5e c6 3d 1a ea 09 3e
       0.07666037 0.12605809 0.096860185 0.13468209
000330 dd 0f c0 bd 6e f8 f2 3d 93 a5 5d 3e a3 d1 2a bd
       -0.09378026 0.118637905 0.21645193 -0.04170383
000340 6c ab 05 be 77 54 3e 3e 5a d4 a2 bd 47 76 38 be
       -0.13053674 0.18586908 -0.07950659 -0.18013869
000350 35 d1 a4 bd c3 ea c3 3d 6b 1d a0 bc a4 70 cb 3b
       -0.080477156 0.095662616 -0.019545278 0.006208496
000360 3e e5 0b 3e f7 1c a3 3e 0e 1b de 3d 29 45 0a be
       0.13661668 0.31858036 0.10845004 -0.13502945
000370 65 b1 bd bc 8b 76 a7 bc b7 88 2c be 83 e5 e5 bd
       -0.023155877 -0.020442268 -0.16849028 -0.112254165
000380 ec 74 0a be 55 49 04 3e cd 00 02 3e 93 5f 2b bd
       -0.13521165 0.12918599 0.12695618 -0.041839194
000390 2d aa 1c 3d 79 c3 9b bb 5a 96 76 3d 1d 36 2b be
       0.03824823 -0.0047535268 0.06020198 -0.16719861
0003a0 8a db cf 3d 9c 81 4f bb 89 b9 23 3e 61 b1 20 3d
       0.10149296 -0.0031662947 0.15988745 0.03923166
0003b0 5c 2f c0 bd 73 a3 0c be 69 b7 45 bc dc 7d 0a 3d
       -0.09384033 -0.13734226 -0.012067654 0.033811435
0003c0 e6 49 fa 3d ea cc 3d bd ca 95 9b bb b9 52 16 3e
       0.12221126 -0.046338 -0.004748081 0.14679994
0003d0 4c 02 89 3d b9 07 0b bd 55 1e c7 3d 76 09 64 3d
       0.06689891 -0.03394291 0.09722582 0.055673085
0003e0 a9 73 95 bd 19 ed 03 3e 1f 8b c2 bd 41 72 0a bd
       -0.07297451 0.12883414 -0.094991915 -0.033800367
0003f0 9a 81 df 3c 4a b9 b8 3d 75 ac 37 bd 43 d1 8d 3c
       0.027283479 0.09019716 -0.044842202 0.017311698

fc3.bias f4 [64]
000000 a0 65 21 3d a3 c0 b2 bc 80 81 1a 3b 17 7b 4f 3d
       0.039403558 -0.021820372 0.0023575723 0.050654497
000010 16 9b 8d bd 7e 38 05 be 3f f9 3a be 13 bd 87 3d
       -0.06914346 -0.13009831 -0.18259142 0.0662786
000020 a5 4d 43 bd 6f 63 c3 3d 04 dd 07 be fd 16 4f 3d
       -0.04768147 0.0954045 -0.13267905 0.050559033
000030 73 85 00 3d f7 d1 98 3d a8 7a 0e 3e fc b8 25 bd
       0.031377267 0.074619226 0.13913977 -0.040459618
000040 38 e3 82 bd 19 97 3d 3d 88 07 dd bd 93 a0 7e 3d
       -0.06390995 0.046286676 -0.10792452 0.062164854
000050 2a 4c 7b 3d e1 f2 b2 bd 7b ab 8f 3d 17 fd 15 be
       0.061351933 -0.08737732 0.07015129 -0.14647327
000060 2e 8a ec bc e6 d2 c1 3d b1 ec 0a 3e 2d 35 77 3c
       -0.028874483 0.09464054 0.13566853 0.015088362
000070 a8 e5 d9 3c fa 27 91 3d 30 b2 b6 3d 60 b6 65 3d
       0.026598766 0.07087703 0.08920705 0.05608213
000080 45 cc de 3d 7c 1b 10 3e 7d 27 2c 3c aa de b3 bd
       0.10878805 0.14072984 0.010507462 -0.08782704
000090 c8 cf 28 3d 70 b0 78 bd 52 1b bf 3c ae d3 7d 3d
       0.04121378 -0.06071514 0.023328457 0.06196945
0000a0 18 e9 b7 3d 59 35 98 3a b3 b4 1b be 14 6b d2 3d
       0.08980006 0.0011612579 -0.1520565 0.1027433
0000b0 bc ee 08 be 5a 0f 0e 3d ce 03 87 bc 20 34 8c bd
       -0.1337232 0.03468261 -0.016481306 -0.068458796
0000c0 09 91 0f bd f4 4a 23 bd 80 25 1a 3e b1 cc 33 bd
       -0.035050426 -0.039866403 0.15053368 -0.04389638
0000d0 13 3d 94 3d fd 9c 4c bd 21 9d c3 bd 08 89 1f 3e
       0.072382115 -0.049954403 -0.09551454 0.15579617
0000e0 47 7e a4 3c 07 dc 05 3e 36 ff a0 3d d5 b2 11 3d
       0.020079745 0.13072215 0.078611776 0.03557094
0000f0 80 17 97 bd 04 c3 94 3d 68 56 05 be 2a 22 a7 bd
       -0.07377529 0.07263759 -0.13021243 -0.08160813

fc4.weight f4 [9, 64]
000000 a0 10 d1 bd ef aa 88 3c 28 93 35 be dc 64 14 3e
       -0.10208249 0.01668307 -0.17731917 0.144916
000010 f5 3b a0 3e 71 4a 13 3e ba a7 8d 3d 9a da ed 3d
       0.31295744 0.14383866 0.06916757 0.116139606
000020 7a bb 3d 3e 6a 2a 80 be 2c cc 6d bd 42 37 08 3e
       0.18528548 -0.2503236 -0.05805604 0.13302329
000030 d0 1c 21 3e 92 62 07 3e 3f de 32 3d 3e 26 0f be
       0.15733647 0.13221195 0.04366898 -0.13979432
000040 a2 27 bf 3d cb a2 da 3c 49 7a b9 bc 11 88 11 be
       0.09333731 0.026688954 -0.022641318 -0.14212061
000050 6e f7 fa 3b 56 49 ab 3d 58 57 54 3e 3c a0 a1 3e
       0.0076588904 0.08363597 0.20736444 0.31567562
000060 9d 43 5a be 04 47 09 be 68 da d8 bd 47 d3 84 bc
       -0.21314855 -0.13405997 -0.10588533 -0.016214026
000070 21 0b 86 3e 61 76 ce 3c 63 24 25 3e 30 60 8c bd
       0.26180366 0.025202932 0.16127162 -0.06854284
000080 be 10 c5 bc 3a 66 4a bc 7b bf e3 3d e2 eb bc bd
       -0.024055835 -0.012353474 0.111205064 -0.092246786
000090 ac ee 4d 3e 5f 5a 25 3e 39 f8 54 3e 13 33 06 3e
       0.20110577 0.16147755 0.20797814 0.13105421
0000a0 43 02 0b bd 09 94 40 3e 79 c6 59 3e fa 91 f4 bd
       -0.033937704 0.18806471 0.21267118 -0.11941905
0000b0 1e 23 07 3e 69 e6 4e 3e c8 7b 51 3e ee f3 54 bd
       0.1319699 0.20205082 0.20457375 -0.051990442
0000c0 03 e5 3e be 72 83 b0 3d 53 24 74 be bc 89 1c be
       -0.18642049 0.08618821 -0.23841982 -0.15286916
0000d0 dc 2d d7 3d 05 ae fe bd f8 1e 49 be 49 1e 18 be
       0.10506794 -0.12435535 -0.1964072 -0.14855303
0000e0 f4 f3 41 bd 06 2d d8 bd 2f f2 7d bc 6d 95 bb bc
       -0.047351792 -0.105554625 -0.015499636 -0.0228984
0000f0 95 5f 1e be 24 82 cc 3d 3f 56 79 3b dd f2 96 bd
       -0.15466149 0.0998576 0.0038045791 -0.07370541
000100 e2 fa cf 3b c3 80 e7 3d 41 5d 7d 3c 84 65 c1 bd
       0.0063470462 0.11303856 0.015464128 -0.09443191
000110 25 ce 49 be 73 46 48 3e 11 b4 a8 3c 58 4c e5 3d
       -0.19707544 0.19558124 0.020593675 0.11196202
000120 93 91 1f 3d b8 01 5e bd 86 4b 4b 3e 1f cb cb bd
       0.03895719 -0.054200858 0.19853029 -0.09950852
000130 98 c3 c9 3b 18 8e 36 3e 56 4d 4b 3d bb 4f a4 bd
       0.00615735 0.17827642 0.0496343 -0.0802302
000140 e1 33 87 bb 55 cb c9 3c 53 c2 8d be 9d 2c 50 be
       -0.0041260575 0.02463309 -0.2768732 -0.20329519
000150 84 2e 23 bd bf d5 6e 3e 29 04 aa bd 60 29 3c 3e
       -0.039839283 0.23323725 -0.08301575 0.18375158
000160 fd 8d 02 3c e7 db 9e bd 57 ed d3 bd 97 dc 18 bd
       0.007968423 -0.07756787 -0.10348003 -0.037319746
000170 4f 86 58 3e 63 ac cc 3d e6 9e 41 3e b0 a2 30 3e
       0.21144985 0.09993818 0.18908271 0.1724956
000180 c6 fd 48 3e f2 81 20 be 1a 9f 5e 3d 60 35 2a bc
       0.19628057 -0.1567457 0.05435095 -0.010388702
000190 d2 b7 61 3e b0 8b 07 be 4e e1 ed 3d 4d 58 e1 3d
       0.22042778 -0.1323688 0.11615239 0.1100317
0001a0 94 c6 32 be 03 ef 40 3e 97 b1 51 3e 75 9e 84 3d
       -0.17458564 0.18841176 0.20477901 0.06475536
0001b0 4a 4c 03 be cc ac 47 3d d9 b6 09 3e 5e 89 d9 3d
       -0.1282207 0.048748776 0.13448657 0.10621904
0001c0 f9 bd 78 be 05 28 79 bd cc d3 01 3d 0e 0b 72 3e
       -0.24291219 -0.06082918 0.031696126 0.2363703
0001d0 ca af 3a 3c 51 69 85 3e a7 43 16 3d 1a 3e 2d be
       0.01139445 0.26056913 0.036685612 -0.16918221
0001e0 a2 40 f1 3d 78 d0 42 be 7e 84 97 3d 2a 3e d3 bd
       0.11779906 -0.19024837 0.07398318 -0.10314591
0001f0 9f b2 ac 3d bb 1a a2 bd cf c8 87 bd 40 91 9c 3d
       0.08432507 -0.07915255 -0.06630098 0.07644892
000200 e5 17 1b bd 0f f4 1a 3e e2 f7 dc 3d 1f 4c 22 3d
       -0.037864584 0.15132163 0.107894674 0.039623376
000210 27 9b 44 be 84 72 4e 3d 9f 3b a2 bd f8 9a 4d bd
       -0.19199811 0.05040218 -0.07921528 -0.050196618
000220 b9 dd ea bd 58 23 6d be ee fa 89 be 20 e5 53 3e
       -0.114680715 -0.23158014 -0.26949257 0.20692873
000230 d5 56 07 be 49 9a 1f 3e 42 ef 2f 3d 42 3e 50 3e
       -0.13216718 0.15586199 0.042952783 0.2033625
000240 c1 09 91 3d bd d0 5a 3e 4f fc 0a be 59 30 20 bd
       0.070819385 0.2136869 -0.1357281 -0.039108608
000250 0c 86 76 be f6 6d 87 3a a3 a5 e1 3d 8c 55 97 bc
       -0.24074572 0.0010332454 0.11017921 -0.01847341
000260 e7 3f e1 bd f6 27 d6 bc 78 0a 93 be e8 6d f9 3d
       -0.109985165 -0.026142102 -0.28718925 0.12179166
000270 77 2d 88 bc ed ed d3 3c c6 a8 84 bd 4a fd 25 be
       -0.016623242 0.025870288 -0.064775035 -0.16209903
000280 08 87 25 3e db 0f 8b 3c 35 6a 91 3d ce 7b a0 bd
       0.16164792 0.016975334 0.071003355 -0.07836114
000290 73 4a 18 3e 1c 39 89 3a a9 73 70 3c b3 0f ec 3d
       0.1487215 0.001046929 0.014676013 0.11526432
0002a0 01 28 44 3d 8b 58 92 3d 9c 55 c3 3c 3f bf 86 3d
       0.047889713 0.071457945 0.023844533 0.06579446
0002b0 21 17 4e 3e 72 59 84 3b d9 7d d0 3d 68 34 3a 3e
       0.2012601 0.004038983 0.101802535 0.18184054
0002c0 49 54 80 bd 3d 36 0b 3e c2 a8 31 be f6 70 5f bc
       -0.06266076 0.13594909 -0.17349532 -0.013637772
0002d0 6d f4 1e 3d a9 d7 dd 3c 70 07 09 3e 15 e9 56 be
       0.03880732 0.027080374 0.13381743 -0.20987351
0002e0 90 07 ff 3d d4 ac 0b be 6a a7 60 be 9a a7 31 bd
       0.12452614 -0.13640147 -0.21938863 -0.043372728
0002f0 0f 5d 39 3e a7 a2 4c bb ef a5 2b bd f3 ec 15 3e
       0.18101905 -0.0031224878 -0.041906293 0.1464117
000300 3b 19 4c be 07 c3 bc 3d 93 40 4b 3d 30 f4 37 3e
       -0.199315 0.09216886 0.04962213 0.17964244
000310 78 dc 9a 3e d4 b8 4c be b9 00 98 3d bc d4 96 3d
       0.3024633 -0.19992381 0.07422013 0.073647946
000320 72 e9 7f be e3 d0 23 bd 1a db e0 3b b1 11 4a bd
       -0.24991396 -0.03999413 0.0068620564 -0.049333278
000330 a9 66 fd 3d c2 72 e7 3d 20 15 47 3e ca 56 c9 3c
       0.123730965 0.11301185 0.19441652 0.024577517
000340 eb 41 83 be d2 3e 5e 3d 18 f1 89 3d 41 13 60 3d
       -0.2563623 0.05425913 0.06735438 0.054705862
000350 3d a1 64 be 8b 3a 6d 3e b9 0f 1f 3e e6 b7 7c 3e
       -0.22327133 0.23166864 0.15533341 0.24679527
000360 bd 82 01 bd ed 03 0a bd 6d 76 1e 3e 9d 2f ec bd
       -0.031618822 -0.03369515 0.15474863 -0.11532519
000370 0d 10 fe 3d 8b d7 07 3e e1 52 0a 3e 35 f5 fa bd
       0.12405405 0.13265817 0.13508178 -0.12253801
000380 89 11 3f be b1 11 a1 3d d1 43 54 3e c0 9c 2b bc
       -0.18659033 0.078647025 0.20728995 -0.010474384
000390 c2 25 74 ba d5 78 b5 3d 34 d3 59 be d7 34 46 3d
       -0.00093134877 0.088609375 -0.21271974 0.048390236
0003a0 6b f6 3a be 90 06 f8 3d 4e 2d a6 3e cc 5a 85 3d
       -0.18258063 0.12110627 0.3245644 0.06511459
0003b0 2d cd 1a 3d b1 8e 80 bb 17 25 6d bd 61 d2 04 3e
       0.037793327 -0.00392326 -0.0578967 0.12970878
0003c0 a0 ae dc 3b 47 9e 0c 3d d6 d6 9e bd a4 4b bf 3d
       0.006734684 0.034330633 -0.077558205 0.09340599
0003d0 fd 3d f0 3c c3 3f 4d be 5e fb d5 3c 7f 0c d8 bd
       0.029326433 -0.20043854 0.026120838 -0.105492584
0003e0 fb 22 82 bd f0 96 0f be 38 eb 35 be 2f 33 a8 bd
       -0.06354328 -0.14022422 -0.1776551 -0.082128875
0003f0 12 2c a6 3d dc ed 0a be ab 36 1d bc d6 5f 43 3e
       0.081138745 -0.13567299 -0.009595553 0.19079527

fc4.bias f4 [9]
000000 86 65 86 3c ad 6f 86 3b 30 c8 db bd b9 9b 59 bd
       0.016405832 0.0041026683 -0.10731542 -0.053127024
000010 7e 04 4d 3d eb 41 e0 3c 25 99 ec bc 3e fb be bd
       0.050053112 0.027375182 -0.028881619 -0.093252644
000020 b6 be cc bb
       -0.0062483205
