policy_p1.pt (torch, 24092 bytes, 6 tensors)

fc1.weight f4 [64, 9]
00000000: 9b39 9c3c 0404 b03e b7aa 583e 1788 8a3e
00000010: c51b 1c3e 5fda 7d3e f127 5b3e ffab d53e
00000020: 73fd f43e 0f13 c43e 73a8 a5be 6273 0d3e
00000030: f12e 84bc 1e2e d13e ecf7 f33d 3004 d0be
00000040: 2586 9e3e 7ace c53e 8ad1 01bf 1b2a 22be
00000050: 89f4 e03d 103b 8cbe 6d8b 0d3e c0fc 553e
00000060: ad8e 0dbf 7e5f 92bc 7db8 18bd b57d e33e
00000070: 94bc c5be 3c24 783d d0b9 d3bd c537 07bf
00000080: 8bfd ccbe 5674 d83e a6ff d5bd c6d0 a33d
00000090: ba1b dfbe 6829 09be b096 8d3e 5d0e a4be
000000a0: d92f 49be 1a59 a73c ca36 acbe e3be dabe
000000b0: ceb7 cf3e a4b6 f4bc 40b7 393e 7d81 aebe
000000c0: 8956 0abd b2fc 173e 295b 613e f6fb e93e
000000d0: 7295 db3e 7b3f c93e e6c2 ddbe 1afe 88bc
000000e0: 5e76 713e d562 86bc 273a 503e 3948 f0be
000000f0: f5ed 25be 0333 d6be 40a5 fdbe 0f44 35be
00000100: c2ed 2d3e c177 023e 806e 6abd 3ff8 20bd
00000110: 6959 88be dcb1 f53d 9fb7 3d3f 0eeb ce3d
00000120: 3bc9 e33e f28a 793e 8808 02be 2f5f 6a3e
00000130: c895 e7be d3d4 05be 596a fc3e 5e74 c03d
00000140: 8a51 a5bd ad24 37be 4e4a 023f c724 96bd
00000150: 947e ba3e 1230 e93e aa36 693e ce3f 29bd
00000160: f77b cf3e 82f1 3bbe cbca c4be 4c2d a1be
00000170: 73f1 e23e 16c3 c03e b623 523d a5f9 33be
00000180: 3c77 833e 7019 c6be 2c28 ce3b 53f1 7bbe
00000190: 7089 133f 09d3 473e 7c59 dfbe 3434 dcbd
000001a0: 19b0 f5be 3633 babe 33d5 5b3e 8511 01bf
000001b0: a6db bfbb f10c 9fbe b050 f43e f745 8fbe
000001c0: 61ea d6be 80cf 5a3e a7ef 9fbe 6846 92be
000001d0: 44df a33e d499 99be f39f 93be 3023 043d
000001e0: df44 cdbe 85e3 dabe 2855 5fbc b12b 0d3e
000001f0: 4801 2cbe 5548 eb3d 34c9 733e f893 a53e
00000200: 0bb6 b03e 2060 ad3e 09c7 87be ebbc a93e
00000210: 67f0 843e 9807 87be 8c55 493d e005 f4be
00000220: c615 04be b534 d8be 3a3b 073f 8e9c 913e
00000230: 7ff3 433e 5a59 bbbc e635 ccbe a5f0 ccbe
00000240: 03d4 a5be 6384 0cbe 90b4 cb3d ecd8 9bbe
00000250: c93c 93be 388d 553e af35 84be e268 92be
00000260: 7dc4 e53e 5347 1abe f683 74be 8805 adbe
00000270: d405 12bd a380 85bd a500 3b3e fd8a e9be
00000280: bdcb 933e 98da 1abe 5e49 a33c 64ce b7bd
00000290: 3fe1 cebe abfa db3e 4278 bbbd 1321 863e
000002a0: f9a6 a4be a90c 9ebe 2dbf b03e ffa9 193f
000002b0: 31b2 4a3e cf36 f5bd 4d49 ffbd e3d8 b93e
000002c0: 0814 02be ef08 1b3d a861 8dbe 0dc7 113f
000002d0: 20c0 a0be ab5f 08bd 1599 b43e 7cbc d5be
000002e0: 1af7 143c bc15 69be 5ab1 50bd 0906 93be
000002f0: cc9d d9be dc66 023d 2145 23be 213b ae3e
00000300: 45ee 0d3e 001e ed3e 661c b13e 2522 f8bc
00000310: 9d2a 483e 5aa0 5abe 1d79 9a3e bfed d8bb
00000320: 5d63 8c3e 8b10 4e3e a710 853e 2197 973e
00000330: 717d e23e 84d4 b03e 307f 4bbc 4eed 863e
00000340: 9076 6fbe a7f0 acbe 7ca6 9f3e e515 19bf
00000350: 0f98 e63c 137e dc3e 2c41 743e 06f7 0cbc
00000360: 168d ec3d ed50 ebbd 4f5c bf3e 8112 253e
00000370: e685 e5be 9699 e43e fcb9 f9be 6538 86be
00000380: 7c19 a93e eeb9 70be f0e0 47be c3c4 9c3e
00000390: 39d8 87be 3e48 6d3e f184 97be 2566 bb3e
000003a0: fcf6 84be 19af adbe e5f1 923e a3c4 87bd
000003b0: 26fe 7bbd ab31 e53e 4f99 62be 1ecb 14bb
000003c0: 1d67 a8be 25c6 bfbe ae10 c3be bcbf 1e3f
000003d0: eac3 0e3f bcb8 8e3e f15e e73d d2df a03e
000003e0: e02a 673e 1988 4abe 8a51 a73e c63a 803e
000003f0: 32c9 bb3d 7a59 a73e 9204 58be f912 13be
0.019070437 0.34378064 0.21158873 0.27056953 0.15244968 0.24790333 0.21401955 0.41732785
0.47849616 0.3829579 -0.3235508 0.13813546 -0.016135665 0.40855497 0.11912522 -0.40628195
0.3096172 0.38634092 -0.50710356 -0.15836374 0.109841414 -0.2738881 0.13822718 0.20897198
-0.5529583 -0.0178678 -0.037285317 0.44431844 -0.38620436 0.06058143 -0.10338175 -0.5281947
-0.40037188 0.42276257 -0.10449152 0.07998805 -0.4357584 -0.13394701 0.27654028 -0.32042208
-0.19647159 0.02042823 -0.3363555 -0.4272376 0.4056992 -0.029872246 0.1813631 -0.34083167
-0.033773933 0.1484249 0.22007431 0.45700043 0.42887455 0.39306244 -0.43312758 -0.016722728
0.2358031 -0.016404549 0.20334683 -0.46930102 -0.16204055 -0.41835794 -0.49540138 -0.17701744
0.16985229 0.12740995 -0.057234287 -0.039299246 -0.26630715 0.119968146 0.7410831 0.10103427
0.44489464 0.2436941 -0.12698567 0.22887872 -0.45231462 -0.13069467 0.49299887 0.09397195
-0.08072193 -0.17885084 0.5089463 -0.073312335 0.36424696 0.45544487 0.22774759 -0.041320615
0.40524265 -0.18353847 -0.3843597 -0.3147987 0.44324836 0.3764884 0.051303588 -0.175757
0.25676906 -0.38691282 0.00629141 -0.24603777 0.5763159 0.19514097 -0.4362296 -0.107521445
-0.47985914 -0.36367196 0.21468048 -0.5041736 -0.0058550416 -0.3106456 0.4771781 -0.27983066
-0.41975692 0.21368217 -0.31237528 -0.2856934 0.32006276 -0.30000174 -0.2883297 0.03226012
-0.40091607 -0.4275171 -0.013631143 0.13786198 -0.16797364 0.114884056 0.23807222 0.32339454
0.34513888 0.338624 -0.2651904 0.33151945 0.25964662 -0.2637298 0.04915385 -0.47660732
-0.12898931 -0.42227712 0.5282475 0.28439754 0.19135855 -0.022869755 -0.3988487 -0.40027347
-0.32388315 -0.13722377 0.09946549 -0.30438936 -0.28757313 0.20854652 -0.25822207 -0.28595644
0.4487647 -0.1506627 -0.23878464 -0.33793283 -0.03565009 -0.06518676 0.18261965 -0.45613852
0.28866377 -0.1512245 0.019932445 -0.08974913 -0.40406224 0.42964682 -0.09153797 0.2619711
-0.3215864 -0.30869034 0.34520856 0.6002502 0.19794537 -0.119733445 -0.12465153 0.36298284
-0.12702954 0.037850317 -0.27613568 0.5694435 -0.3139658 -0.03329436 0.35273042 -0.41745365
0.009092117 -0.22762197 -0.050950386 -0.28715542 -0.42503202 0.031836376 -0.1594434 0.34029487
0.13860424 0.4631195 0.3459198 -0.030289719 0.19547506 -0.21350232 0.30170527 -0.0066201384
0.27419558 0.20123498 0.25989267 0.2960749 0.4423633 0.34537137 -0.012420461 0.26352924
-0.23385072 -0.33777353 0.31181705 -0.59799033 0.028148679 0.43064937 0.23852986 -0.008603817
0.115503475 -0.11490045 0.37375113 0.1612034 -0.4482872 0.44648427 -0.48774707 -0.262149
0.33027256 -0.23508427 -0.195194 0.30618867 -0.26532152 0.2317209 -0.29593614 0.36601368
-0.25969684 -0.3392265 0.28700176 -0.06629302 -0.06152167 0.44764456 -0.22128795 -0.0022704075
-0.3289117 -0.3745586 -0.38098663 0.62011313 0.5576769 0.27875316 0.112974055 0.3142076
0.2257495 -0.1977848 0.32679397 0.2504484 0.09169234 0.32685453 -0.21095493 -0.14362706

fc1.bias f4 [64]
00000000: 4836 e93e 9ba7 14bc 55d9 4f3e 065b 22be
00000010: 3258 a6be 67e9 c23d 59e9 e73d 192d 993e
00000020: 79e2 31bb de98 b53e 185f e937 7c86 ff3d
00000030: c2c2 09bf fadb a6bd 8818 123e 9eda 88be
00000040: 0a7d b2be ada8 333d e42f 3d3e 59c2 8c3a
00000050: e042 9cbe d4ff 3c3e 481d c83e 4a3b 6dbc
00000060: a160 883e f79f 07bf 307e 47bd d649 143e
00000070: 3caf 3a3e 28bf 74be 0185 823e f7f9 24be
00000080: 8270 29be aae3 463d d2bd ce3d 0a19 88bd
00000090: 2ab5 40be c60e 6abe c653 6a3e b7a4 f33d
000000a0: f746 15bf 1974 ebbe b26b 71be 48ab e3bd
000000b0: eee8 6bbe baee f0bd 1d43 74bc c328 26bd
000000c0: 09d1 bfbe 2261 98be ba29 84be 8a9e 6abd
000000d0: 5a17 bf3e ad21 0fbd aca3 71be 46a7 a8bd
000000e0: 2dd6 09be e3af 0bbc 9b50 0f3e e706 65be
000000f0: aa2e ac3d 929a c03e 95f4 cfbd 5715 a2be
0.45549226 -0.009073163 0.2029775 -0.15855035 -0.32489163 0.09517174 0.113238044 0.2991722
-0.0027143045 0.3546819 2.7820046e-05 0.12476823 -0.538128 -0.08147426 0.1426717 -0.26729292
-0.34861022 0.043862034 0.184753 0.0010739072 -0.30519772 0.18456966 0.3908484 -0.014479468
0.26636222 -0.5297846 -0.048704326 0.14481291 0.18230909 -0.23901045 0.254921 -0.16110979
-0.16546825 0.04855696 0.10094799 -0.06645401 -0.18819109 -0.22857198 0.2288352 0.11896651
-0.5831141 -0.45987013 -0.23576239 -0.11116654 -0.23038074 -0.117642835 -0.014908579 -0.040566217
-0.3746417 -0.29761606 -0.25813085 -0.0572801 0.37322503 -0.034944225 -0.23597592 -0.0823503
-0.13460608 -0.008525821 0.13995592 -0.22365914 0.08407338 0.37617928 -0.10154072 -0.31656906

fc2.weight f4 [64, 64]
00000000: 3fed a13b b66a c63d c50b 7dbd 77a5 573e
00000010: 27dc c43e 2470 f8bc de57 8f3e 46ce febc
00000020: b4d8 08be 37b3 59bd 2d06 973e 3ec7 e3bb
00000030: 925e d53e 31a6 b63d 29d7 95bd 25a8 883d
00000040: 544e b93e 84be 24be abbe cb3d 54be 98bd
00000050: b748 6e3e 6ff0 4c3d f299 313c 537a 08be
00000060: 9871 55bd 9c60 963e 86ca 25bd fdd4 32be
00000070: d14c 45bc 9f9a 33be 00d3 38bd e92d 92bd
00000080: 5ab3 60be 01e9 e63d 4f8a 3cbd c25e 583b
00000090: a1fc 1b3e 5f4d 9cbd 735e 823d 4888 e73d
000000a0: c045 09be 45e6 66be 0181 74be 089b a7be
000000b0: ba27 d53d 30e6 423e cc5b c2bd 9652 093d
000000c0: 93f7 1f3e 17e2 053b a6e3 4dbe 4c7d 163e
000000d0: fcf8 09be d2fa d1bc 1c2f 5b3e abd7 78ba
000000e0: 9cd3 833c dae3 b83d 9fe5 b9bd 4f11 76be
000000f0: 8852 0ebe c532 a03d 30cc 17be 9ab2 663e
00000100: 1320 9cbe f24e a1bd b6af 053c 230f 8a3e
00000110: 8d46 d6be cb4b d73d b13e a33d f3d8 1e3c
00000120: f53d e1bd be84 3fbd ccaa 1f3e fef7 8c3e
00000130: 44f2 083e a141 7b3e 7a37 0ebd 3af8 2dbe
00000140: f118 cebb 9f9b 7e3d 3224 2cbe a238 bbbd
00000150: 8ec8 953d 51b2 17bd 9c93 3dbe 1cc6 edbb
00000160: cc2f 95bc 79bb 5a3e fcb3 ae3d 53e9 2abc
00000170: 3d51 993d 8ac2 393d a86f 813e 4d75 d33d
00000180: d2fe 69bd 619f 503d 2532 463e e33b b93e
00000190: bdb8 cfbd 4141 533e 2d27 d6be b16a 89ba
000001a0: 73c6 a93e 6e3f 2c3e 55be 09bd 2424 6a3e
000001b0: b21d 57bc 3abb 9fbe 00a3 0c3e 305e a2bc
000001c0: aed4 f73d a0e5 d33e 7eb1 573d 4ba9 b0bc
000001d0: 814a 63bd bcba 02bd 8df1 893c c9ef d63c
000001e0: 7b11 fa3e b7ee 523b 7446 c43b bb76 823e
000001f0: b83a fd3d a69f e9bd 7b82 cc3d 64a9 55be
00000200: a322 d7be 523a a63c d730 bf3d 6a82 0e3e
00000210: 6878 07be 25d1 613d ba70 0b3e e7ab 993b
00000220: 1dd9 ce3c fc72 76be adef d23d 2ef9 943e
00000230: 2487 0cbe b317 033c cc59 963d 863a 623d
00000240: f81e 2abd ab80 f83d ced2 8cbd 22cc 753d
00000250: 38dc cf3e 4ebd 72be 25e8 a6be 355c 133e
00000260: 02d5 edbd fe1e af3e 9374 c43c 8586 5b3d
00000270: 643c c23c def5 c93d 571c 3d3d 7b22 273e
00000280: 5d38 82bd 7ebf d13c cb81 c93d 11cb 9d3e
00000290: fb56 023e 058a d03e 57cb 70be 9696 f03d
000002a0: e1ef bd3e 4f26 c23e 6812 623e 944a 8dbc
000002b0: 1a86 8e3d d42b 3ebd 139b 41bd 93c2 d93d
000002c0: 88b9 1abd 3e7b 713e b9c8 933d 6fa3 863e
000002d0: a7d1 a73d 8649 aabd 4a8a 94bc 9462 053d
000002e0: ff84 6d3e 2b22 dfbd e597 953c 8097 8e3e
000002f0: ddf2 423e f7f9 e43a 985b be3d 622f 643d
00000300: 68f0 45be 7333 eebc d72c ff3c f3f3 ea3d
00000310: d053 573e 29a3 59be a14f 1abd 82e6 97bd
00000320: b767 ccbe 2953 123e 1785 c63d 0e79 6a3d
00000330: 97e9 cd3e 1b0a a43e 73ef 03be af7e 833e
00000340: cbe5 693e c2ee 433e d27a 2e3e d0e5 afbd
00000350: 749a 073e 2a30 dcbc 408a c8be 509d 92be
00000360: 5153 fc3d a415 cf3e 8355 943d bc6c 45be
00000370: f72f 19bd 2ad5 c63d a09f fe3d 45d3 2f3e
00000380: 13f1 283e c27d 373d 188c 133c 2457 043e
00000390: 7be1 bc3c 9684 d5bc 2205 2abd 18a3 e73d
000003a0: 57e8 9bbd 05e9 ac3c 45a6 d03d 3469 083e
000003b0: f75f bcbd 2ba0 93bd a06d ccbb 2f62 083e
000003c0: 7296 373d 5758 853e 880f dbbd 4796 eb3d
000003d0: 147c 83be 1714 c1bd f1a7 693e 2499 fa3d
000003e0: 7cc3 933e e0f6 b13d f438 f23b 7659 5dbe
000003f0: 24ea 393e 9657 bb3b 6cf1 013e a830 ebbc
0.004941612 0.09688322 -0.061778802 0.21059214 0.38449213 -0.03032691 0.27996725 -0.031104218
-0.13363916 -0.05314943 0.294969 -0.0069512418 0.41673714 0.08918417 -0.07316429 0.06672696
0.36192572 -0.16088301 0.099484764 -0.07458177 0.23269926 0.050033983 0.010839926 -0.13327913
-0.052110285 0.29370582 -0.040476345 -0.17464061 -0.01204224 -0.17539452 -0.0451231 -0.07137663
-0.21943417 0.11274911 -0.04603034 0.0033015464 0.15233089 -0.07631945 0.06365671 0.113052905
-0.13405514 -0.22548778 -0.23877336 -0.32735467 0.10407968 0.19033122 -0.09490165 0.033526026
0.15621786 0.002042895 -0.20106372 0.14696234 -0.13473886 -0.025632296 0.2140469 -0.0009492586
0.016092114 0.09027834 -0.09077 -0.2403004 -0.1389867 0.078221835 -0.14823985 0.22529069
-0.3049322 -0.07876386 0.0081595685 0.26964673 -0.418507 0.10512503 0.07970942 0.009695279
-0.109981455 -0.046757452 0.15592498 0.27532953 0.13373667 0.24536754 -0.034720875 -0.16989222
-0.0062895943 0.06216013 -0.16810682 -0.09141661 0.073136434 -0.03703529 -0.1851334 -0.0072562825
-0.018211268 0.21360578 0.08530423 -0.010431605 0.07486198 0.045351543 0.252805 0.10325108
-0.05712778 0.050933246 0.19355066 0.36178502 -0.10142658 0.20630361 -0.41826764 -0.0010484067
0.33159217 0.16821072 -0.03362878 0.22865349 -0.0131296385 -0.3119753 0.13734055 -0.019820303
0.12101112 0.41386127 0.052659504 -0.0215651 -0.055490974 -0.031916365 0.016838813 0.026237385
0.48841462 0.0032185742 0.005989844 0.2548121 0.12364715 -0.11407404 0.09985825 -0.20865399
-0.42018613 0.020291481 0.09335487 0.13916937 -0.13229525 0.055131096 0.1361722 0.004689682
0.025250012 -0.240673 0.10299621 0.2909636 -0.13723427 0.008001256 0.07341346 0.055231594
-0.04153344 0.121339165 -0.06876145 0.06000913 0.405977 -0.23705027 -0.32598987 0.14390643
-0.11612894 0.34203333 0.023981368 0.053595085 0.023710437 0.098613486 0.046169605 0.16321747
-0.06358407 0.025604006 0.09839209 0.3081899 0.12728493 0.407303 -0.23515068 0.11747472
0.37097076 0.37919852 0.22077334 -0.017247476 0.069591716 -0.046428517 -0.04726703 0.10632815
-0.037774593 0.2358217 0.07216019 0.26296565 0.08194285 -0.08314805 -0.018132348 0.032564715
0.23195265 -0.10895189 0.018260906 0.2784996 0.19037957 0.0017469515 0.09294814 0.05570925
-0.19329989 -0.029077267 0.031149311 0.11472311 0.21028066 -0.21253647 -0.037673596 -0.07417013
-0.39922878 0.14289536 0.096933536 0.057244353 0.40217277 0.3203896 -0.12884311 0.2568259
0.22841565 0.19134048 0.1703904 -0.08588755 0.13242513 -0.026878435 -0.39167976 -0.28635645
0.12320579 0.40446198 0.072428726 -0.1927976 -0.03739926 0.097086266 0.1243279 0.17170437
0.16498213 0.044797666 0.009005569 0.12923867 0.023056736 -0.026064198 -0.0415088 0.113104045
-0.07612675 0.021107206 0.101879634 0.13321382 -0.09197991 -0.07208284 -0.0062386543 0.13318704
0.04482121 0.2604396 -0.10696322 0.115032725 -0.25680602 -0.0942766 0.22817971 0.122362405
0.2886008 0.08689666 0.0073920432 -0.21616158 0.18155724 0.005717228 0.12689751 -0.028709725

fc2.bias f4 [64]
00000000: 1608 95bd ef3d 89be 6f91 1ebe c0d4 75be
00000010: 088f 5bbe 7caf 64be 79b4 633d 2d24 c13d
00000020: 9cba cbbd b3cb 96bb 787b cf3d 8a68 b03c
00000030: 6c49 21be 4316 023d f4bb b8bd a7c8 f03c
00000040: 2c47 19bd b53b a43d 92ed 94bd cfe3 15be
00000050: ac7a d0bd 5a38 50be b8e7 173e 8eac 65be
00000060: 8972 a4bc 803f 4ebe 789d 85bc 4e15 7abe
00000070: 5f18 abbd 4d95 1fbe 8598 58be 664b f0bd
00000080: 0dad 70be 9a97 af3d 995a a4bd 1711 203e
00000090: 5410 a1be 04c9 f0bc b9bd 22be f33f 63be
000000a0: bb2c 48bd 366e 0438 53f2 41be c798 d03d
000000b0: 0562 adbc f4d9 3c3d 0610 f43d 2983 c7bd
000000c0: fd25 d6bd c911 82ba 17e3 00bb 0e72 9abd
000000d0: 8ba2 97be 201f 56be 5b3a 39be 0b2f 94be
000000e0: 3363 73bd b57a d5bd 27b8 01be e1e6 533e
000000f0: 9a7c 28be 5d55 90be 8bac 64be ffe1 1abd
-0.07276933 -0.26805064 -0.15485166 -0.24006939 -0.21441281 -0.22332567 0.055592034 0.09430728
-0.09947702 -0.0046019196 0.10130972 0.021534223 -0.15750664 0.03175951 -0.09020224 0.029392553
-0.03742139 0.08019201 -0.072718754 -0.14637683 -0.10179648 -0.20333996 0.14834487 -0.22429106
-0.020074146 -0.20141411 -0.016310439 -0.2442219 -0.08354258 -0.15584297 -0.21151932 -0.11733131
-0.23503514 0.085738376 -0.08025093 0.1563152 -0.3145777 -0.029392727 -0.15892686 -0.22192363
-0.048870783 3.1573894e-05 -0.18940096 0.1018539 -0.021164903 0.046106294 0.11917119 -0.09741814
-0.104564644 -0.0009923513 -0.0019666606 -0.075412855 -0.29616198 -0.20910311 -0.18088667 -0.2894214
-0.059420776 -0.10423795 -0.12667905 0.20693542 -0.16453782 -0.28190127 -0.22331445 -0.037813183

fc3.weight f4 [9, 64]
00000000: af18 cabe 8a8a b6bd 75f9 d13e 788e 83be
00000010: aa8f 953e 97fb 253d 7329 18be 7327 98bd
00000020: 6fb7 063e 8f9f a1be fe64 b3bd 36e7 6cbc
00000030: f268 033f 9b87 253d a961 a5be 413f b43d
00000040: 42c1 aebe 5fb3 91bd 2a49 34be 8f40 403e
00000050: 963e e33e f012 a53e 6e8d d43d d671 253e
00000060: d7b4 9a3e 838c 9c3d 0389 d73e dac6 a83e
00000070: 3cdf 6bbe 6bc5 153e bbc0 88be 3014 f0bd
00000080: f7f0 cc3e 6c48 ddbe c94d 8abd 8857 b03d
00000090: 0343 973e 1626 8a3e cd32 b83e cd1d cd3e
000000a0: 5b3d 4d3e c0f9 b0be c23a 5f3e 1aad 263e
000000b0: e62d ffbd c4e6 48bd be33 563e cf1c db3d
000000c0: 6081 f73e dda9 77be 6b09 4abe 0464 1fbe
000000d0: 92ae a8ba 4e8f 06be 1be7 693e c9a7 993e
000000e0: 904b da3e d91c 303e 3c17 f83c 715a bb3e
000000f0: 458c 2fbd 19ae 2abd 9015 e93b c99c c53e
00000100: 7372 82be 1e1b 0a3f 0921 743e 4d65 8f3e
00000110: 0e11 953e 8518 9e3e 1af1 43be 54f6 aabb
00000120: 6978 503e 8b64 f7be a905 9abe c341 123e
00000130: ab99 523d 8a1b 633c c7a7 a9bd a929 a8be
00000140: 2fbd 2cbe ad28 b03d f180 16bf 6264 543e
00000150: d71c aa3e 7632 b73e 8378 833e 1fea 05bf
00000160: e32f 7d3e 8821 7f3e 739e 3f3d 56cf 3a3e
00000170: 3635 233e 78c9 2dbe 20f5 ba3e 46a4 103e
00000180: 7f76 023e bda3 b0be 78e2 9bbd 6713 b4be
00000190: c45b 91be 11fa 24be 31af 713e 67ef 9d3e
000001a0: 6f09 b93a 90b2 2fbe 6da2 8f3e 7a88 d03d
000001b0: bbdc 11be 0086 473e d423 9d3d 689a 023d
000001c0: 8057 093e 6886 643e 28f3 373c 96b6 3c3e
000001d0: d4a7 9e3e 4748 89be 3691 94bd e5f3 703e
000001e0: e040 02bd c9ce 4abe 452c cd3d 78df fd3d
000001f0: d251 323e 933b 32be cc5d 703d 15aa 5f3e
00000200: 31ca 6c3e 6cd0 0e3e 1701 283e 8556 883e
00000210: b1f0 0fbf 9f7e 6b3e bc27 b8be 04e8 7d3d
00000220: 28c2 f9bd 1e05 a5be 5224 46bd 7fc7 1a3d
00000230: 3965 b6bb 3825 1bbe cef2 053e a244 b23e
00000240: 89cf 8fbe 1995 d2bd 80d3 93be ae78 22bd
00000250: 63fc 4f3e 2d39 783d dc06 113e 73e4 443e
00000260: 5fa0 7d3e 7353 e0bd d949 523e 4733 da3c
00000270: e7e9 3abe f5ac c23e 5c9f 5c3e 032d 9c3e
00000280: 2365 873e 8a59 003e 4226 92be a852 b33d
00000290: 17a3 7cbd d6e9 88be c3eb ce3e d6eb a03e
000002a0: 0e3e 98bc 181b 4ebd a88b 1b3e 3e3b e03d
000002b0: a072 c6be e09f 103e dafc 103e 40b8 70bb
000002c0: 582d febe fdca 89be 1d77 c0be 464e 523e
000002d0: 588f 3d3e b4cb 8f3e 90a8 773e e129 6a3e
000002e0: c560 eb3d 914b 45bd 2883 643e 497d 5c3d
000002f0: b758 0c3d 7f88 883e 5616 993e d64f d73e
00000300: ee97 433d 959b 703e fe83 7bbd c991 f43b
00000310: c1a2 8d3e 55f6 333e 0307 4c3c b9c8 573e
00000320: beb0 653d 9194 013e 37ee b43d 5c48 87be
00000330: d4fa e8be 1b91 1e3e a960 f13d 3f99 1e3e
00000340: d2e4 51be 4228 b4be 7df9 74be 4df2 06be
00000350: 5590 943e 6575 b03e 95e7 aebe a8c2 6c3e
00000360: 97de 843e 1687 c23e 4fd5 2d3d 2eac ac3e
00000370: c327 683e 7c14 e4bd 423d 1cbc 810d 203e
00000380: dc73 b83d e463 97be 6663 72bd e9e4 683e
00000390: 1838 b63e 59b9 1bbd e393 bcbc 5e64 ad3e
000003a0: 0261 1ebe b93a 2fbd e5c3 dfbc cd07 5a3e
000003b0: 4b7d 053e 29c5 a6be 737f c13d a0dd ec3b
000003c0: 9c90 dc3e 7cb2 83be ebf6 913e cdf0 003e
000003d0: 1231 0dbf 5107 debe 3bec 793e 58ce ce3e
000003e0: 7abf 9e3e b95d 763d 579d 5e3c 5b06 553e
000003f0: c319 483e 052d d43d c7d5 843e b4fc 95be
-0.39471957 -0.08913143 0.41010633 -0.25694633 0.2921117 0.040523138 -0.14859562 -0.07429399
0.13155912 -0.31567046 -0.08759497 -0.014459422 0.5133201 0.040412527 -0.3230107 0.08801127
-0.3413182 -0.071142904 -0.17606035 0.18774627 0.44383687 0.3224101 0.10378538 0.16156706
0.30216095 0.07643988 0.4209672 0.32964212 -0.23034376 0.1462609 -0.26709542 -0.117226005
0.40027592 -0.43219316 -0.067531176 0.08610445 0.29543313 0.26982182 0.35976258 0.400618
0.20042937 -0.34565544 0.21799758 0.1627697 -0.12459926 -0.0490482 0.20918176 0.10698854
0.48340893 -0.24185891 -0.19730155 -0.15565497 -0.0012869409 -0.13140604 0.22842066 0.30010822
0.42635775 0.17198505 0.030284517 0.3659244 -0.04285838 -0.04166994 0.007113166 0.3859618
-0.25477943 0.5394763 0.23840727 0.28006974 0.29114574 0.30878082 -0.19134942 -0.005217353
0.20358433 -0.48318896 -0.30082443 0.14282899 0.05141608 0.013861546 -0.08283954 -0.32844284
-0.16869043 0.08601508 -0.587905 0.20741418 0.33225128 0.35780686 0.2567788 -0.52310365
0.24725299 0.24915135 0.04678197 0.18243155 0.15938267 -0.16971385 0.3651514 0.14125165
0.12740515 -0.34499922 -0.07611555 -0.35171053 -0.28390324 -0.16111018 0.23601986 0.30846712
0.0014117191 -0.1715796 0.2805361 0.10182281 -0.14244358 0.1948471 0.07672849 0.031885535
0.13412285 0.22316897 0.011227407 0.18429026 0.30987418 -0.26812956 -0.07254259 0.23530538
-0.03180015 -0.19805445 0.10018209 0.12396139 0.17414024 -0.17405538 0.0586832 0.21842225
0.23124005 0.13946694 0.16406666 0.2662851 -0.5622664 0.22997521 -0.35967815 0.061988845
-0.121952355 -0.32230467 -0.04837448 0.03778791 -0.005566266 -0.15150917 0.13080904 0.34817988
-0.28088024 -0.10282344 -0.288723 -0.03966587 0.20311122 0.060601402 0.14162773 0.19227771
0.24768208 -0.10953417 0.20535983 0.026635779 -0.18253289 0.3802258 0.21545166 0.3050309
0.2644435 0.12534156 -0.28544813 0.08756 -0.061678972 -0.26740903 0.40414247 0.3142993
-0.018584277 -0.050318807 0.15189993 0.109487996 -0.38759327 0.14123487 0.14158955 -0.0036730915
-0.4964397 -0.2691268 -0.37590876 0.20537671 0.18511713 0.280851 0.24185395 0.22867538
0.11493067 -0.04816777 0.22315657 0.05383042 0.034264293 0.26666638 0.29899853 0.42053097
0.047752313 0.2349685 -0.061405174 0.007463668 0.27663234 0.17574437 0.012452844 0.21072663
0.056076758 0.1265433 0.088344984 -0.26422393 -0.45503867 0.15485041 0.117860146 0.15488146
-0.20497444 -0.35186964 -0.23923297 -0.13178368 0.29016367 0.34464565 -0.34161058 0.2312113
0.25951073 0.37993687 0.042439755 0.33725113 0.22671418 -0.111367196 -0.009536089 0.15630151
0.090064734 -0.29568398 -0.059176825 0.22743572 0.3558967 -0.03801856 -0.023019737 0.33865637
-0.15466693 -0.04278061 -0.02731509 0.21292038 0.13036077 -0.32572296 0.09448137 0.007228568
0.43079078 -0.2572211 0.28508696 0.12591858 -0.55153 -0.43364957 0.24406521 0.40391803
0.3100546 0.060147975 0.013587317 0.20803206 0.19541077 0.10360149 0.2594435 -0.2929436

fc3.bias f4 [9]
00000000: cb86 d53d 1fe9 6bbd f00d f63d 9f9f a5bc
00000010: d255 673c 8d82 bebd 93c2 683e 6d3c ce3c
00000020: 9c78 4e3d
0.104261 -0.05759537 0.12014377 -0.020217715 0.014119582 -0.09302244 0.22730474 0.025175298
0.05040799
