policy_p2.pt (torch, 24092 bytes, 6 tensors)

fc1.weight f4 [64, 9]
00000000: 5d68 d0be a9ed 203e 4e61 a6bd e3bf ba3e
00000010: 398a ab3e 8e39 9f3e 23d6 8dbd 7d8b 28bd
00000020: 1308 08be 90d4 9abe d0f4 73be 3488 d43e
00000030: aecf 3bbe e7ec a33e 576d 2bbe 0d03 633e
00000040: 3762 b1bd 2c9e b0be 88ba dd3d b0ed f33c
00000050: dceb dc3c cfbc 28be 52ad 12bf e3c2 aebe
00000060: 8373 113e 2918 303e 74b6 e1bc 0ec2 e83e
00000070: 7dc3 9e3d a30a a73e a36b dc3c 1cdb adbe
00000080: ba3e 83be 8637 f83d 8763 92be 7b74 b1be
00000090: 9bbf 5a3d 7b0f 41be 6999 8bbe 474c acbd
000000a0: c9c1 f9be 3a79 ca3d 16a7 9c3e 9f29 d6bd
000000b0: 8c38 6fbe b3ce 9ebe 9fee 383d 7d3f 05bf
000000c0: 9fdf 373e 116a c73d 3ddc afbe a8d9 e43d
000000d0: 47e4 833c 65d1 a6be ab45 c3bc e2b8 d0bc
000000e0: 3706 a2be a461 26be d6ba 84bd 3443 473d
000000f0: 83c6 23bf dcc7 9e3e 5355 a73e 662b d03e
00000100: d4f1 c03e ed8e 9fbe 8c22 febe f4cb 983e
00000110: 9a30 163e 3694 cbbd 6a54 bb3e 58c2 933d
00000120: 23b0 08bd d2eb 473d b00e d8be d661 8b3e
00000130: 8195 593d 67b8 ddbe b4e4 93bd 3a6b 123e
00000140: fec0 b4bc 7d87 683e 38cb 9c3e 4f45 c53e
00000150: b9d4 d4be 41ed 3dbd 5721 ebbe 4fe5 1c3c
00000160: e770 773e e03a 33be 951c dfbd 2db8 f33d
00000170: 74a4 1c3e 0b14 01bf e55b 75be 6355 2fbe
00000180: 4595 833e f610 8a3e 678a b03e 14d8 823e
00000190: f7b7 b5be 96c4 873e 58cd 4bbe 1488 963e
000001a0: c311 133e d2ad aa3e ef74 b7bd b007 fcbd
000001b0: 69d1 953e aa32 bcbe d09f 89be a3eb ecbd
000001c0: 397e cabd c561 773e 9ec9 bebd 9a9e 35be
000001d0: 181d 73be 7615 d6bc 326a b2be b001 cb3e
000001e0: 6c55 3f3e eb1a b7be 350e 5dbd ee64 81bd
000001f0: d92a abbe c767 d43e 1fcb ce3d bec5 453e
00000200: 406a 223e 934a b0be d36c 56be 4f08 ae3e
00000210: d605 d93d e450 943e 6d60 7a3e 62dc 17bf
00000220: 7850 79be 5a06 a4be 6364 0bbe 57dc a63e
00000230: eedc acbd 6974 6abe 134d d0bd bdb7 e63d
00000240: a0cd 053e ef2d 8ebd e7f0 6c3d d61a 403e
00000250: 8a7c 023e d186 263e e49a 9b3c f423 fb3d
00000260: 5c64 5dbe 5e61 c43e 98d8 233e 9f34 a1bd
00000270: 2801 babe c445 52bc d72e 83be 0248 183e
00000280: 5b54 b43c 657b f93d f02b 8c3e 77f7 713e
00000290: 4988 75bc ae86 1a3e 14c2 72be 07e5 e2be
000002a0: 885a b83d 4f87 78bd 9c5f 75be 1e45 d73e
000002b0: 993f 683e 49a7 6cbe fcc8 4bbe f5ad 1bbc
000002c0: d9c6 c8be 1a4e 44bc 2893 4fbe 6eaa e63e
000002d0: 420b adbe 7206 a03e 81f8 6f3b b644 26bd
000002e0: 49a2 db3e 8901 1ebd 98b2 7e3e 1596 b53e
000002f0: 1a45 28bd 33b2 793e a474 ba3d 07a0 e83c
00000300: cf65 46bd d302 ac3e 11ca d1be a327 f4bd
00000310: aacb 2abe 8b88 9abe 019d 94be 25b3 8b3e
00000320: 59cc 603e 4296 d8bc 9baa 843d 68fc 9b3e
00000330: f7d7 5d3e 8f8e 243e a63b 4a3e 021b cdbe
00000340: 6834 3d3e 7515 cfbe 4dd5 e43d 0e68 9e3e
00000350: 2b83 cfb9 15e6 e1be 0a63 ab3c 4d7a a2bd
00000360: 3363 e6be ceda 673e a278 45be 6fe2 da3d
00000370: d6a9 d13d e418 06be 6dff 0e3e 86ae 903e
00000380: 2cbc 68be edee a83c 6b2d c43e af83 d3bd
00000390: f632 90be 21e2 a73e 0a0f 9ebe 4d33 dfbe
000003a0: c026 a9be 0dca f53d 452c b13d 8527 c93d
000003b0: f284 53be dbbb 633d b3a2 0e3c 5a36 f23c
000003c0: 7de4 0cbf 8173 02bf 40d6 fbbe 9f96 b53e
000003d0: 1d9f aa3e 4b60 35be 8051 c8be aa18 69be
000003e0: a5c2 0cbe 7975 8a3e 9fa9 61be fc88 0d3e
000003f0: 7dbe 863d e232 9abe 9e07 e0be e748 9b3e
-0.40704623 0.1571566 -0.08124028 0.36474523 0.33503893 0.31098598 -0.06925609 -0.04114865
-0.1328433 -0.30240297 -0.23823857 0.41510165 -0.18340942 0.3201668 -0.16740929 0.22169133
-0.08661311 -0.34495676 0.10826594 0.029776424 0.026967935 -0.16478275 -0.57295716 -0.34133062
0.1420422 0.17196716 -0.02755282 0.45460552 0.0775213 0.32625303 0.026906794 -0.3395623
-0.25633794 0.12119965 -0.28591558 -0.3465918 0.053405385 -0.18853562 -0.2726548 -0.08412986
-0.4878066 0.098864034 0.30596226 -0.10457157 -0.23361415 -0.31017074 0.04514944 -0.5205
0.17956398 0.097370274 -0.34347716 0.11174327 0.016100062 -0.3258163 -0.023836931 -0.025478784
-0.31645367 -0.16248184 -0.064809486 0.048648074 -0.6397478 0.31011856 0.32682285 0.4065811
0.376845 -0.3116373 -0.49635732 0.29843104 0.14666978 -0.09940378 0.3658784 0.072148025
-0.033371102 0.04880888 -0.42198706 0.2722308 0.053121094 -0.4330475 -0.07221356 0.14298716
-0.022064682 0.22707935 0.30623794 0.3852944 -0.41568545 -0.04636884 -0.45923874 0.009576156
0.24164163 -0.17502928 -0.108941235 0.11900363 0.15297109 -0.5042121 -0.23960836 -0.17122416
0.2569982 0.26966065 0.34480593 0.2555548 -0.35491917 0.2651717 -0.19902551 0.29400694
0.14362244 0.3333574 -0.0895785 -0.12306154 0.2926133 -0.36757404 -0.2687974 -0.11568382
-0.09887356 0.2415839 -0.09315799 -0.17736283 -0.23741567 -0.02613328 -0.34846646 0.39649725
0.1868493 -0.35762724 -0.053968627 -0.06318079 -0.33431128 0.41485426 0.10097336 0.19313714
0.15860844 -0.34431896 -0.2093995 0.33990714 0.10596816 0.28967965 0.24450846 -0.5932065
-0.24347103 -0.32036096 -0.13612513 0.3258998 -0.084405765 -0.2289597 -0.10170951 0.11265514
0.13066721 -0.06942355 0.05784693 0.18760237 0.1274282 0.16262366 0.018994756 0.12262717
-0.21620315 0.38355535 0.16000593 -0.07871365 -0.36329007 -0.012834016 -0.25621673 0.14871219
0.02201288 0.12181739 0.27377272 0.23629557 -0.014986106 0.15090439 -0.23706847 -0.4431536
0.090016425 -0.060675915 -0.23962253 0.4204492 0.2268051 -0.23110689 -0.19900888 -0.009501924
-0.3921421 -0.0119815115 -0.2027098 0.45051903 -0.33797652 0.31254917 0.0036616626 -0.04059287
0.4289725 -0.038575683 0.24872816 0.35466066 -0.041081525 0.24384384 0.09104279 0.02839662
-0.048436936 0.33595905 -0.40974477 -0.119216226 -0.16679254 -0.301823 -0.29026034 0.27285114
0.21952952 -0.026438836 0.06477853 0.30466008 0.21664415 0.16070007 0.19749317 -0.40059668
0.18477023 -0.40446058 0.111734964 0.30938762 -0.00039579844 -0.4412085 0.020921249 -0.07933483
-0.44997558 0.22642061 -0.19284299 0.1068772 0.10237472 -0.13095433 0.13964625 0.2825815
-0.22728032 0.020621741 0.383159 -0.10327851 -0.2816388 0.3278971 -0.3087085 -0.43593827
-0.33037376 0.12001429 0.08651022 0.09821991 -0.20656183 0.055599075 0.008705783 0.029566932
-0.55036145 -0.50957495 -0.49186897 0.35466477 0.3332452 -0.17712514 -0.3912468 -0.22763315
-0.13746126 0.2704275 -0.22037362 0.13821787 0.065793015 -0.30116946 -0.4375581 0.30329058

fc1.bias f4 [64]
00000000: 7482 b03e a180 5b3d b6b6 9abe 8835 813e
00000010: 3a59 f8bc 0159 c8bd fdd7 1bbc 593a 193e
00000020: 345e 913d 59dd 0cbe 4f86 bebe 7d5a 03be
00000030: cea7 4f3e 9f06 86be e9a6 e63d 1ce7 03be
00000040: eefc bf3e f5ca 7d3e 2d53 a6bd 661c e1bd
00000050: 5784 753e e1fc 4abe 1ec1 69bd 9fdc cfbd
00000060: 9d45 043e 8e6d f6bd e1d3 a0be 3b54 02be
00000070: d619 823e 132c bb3b ac14 3e3e cf8c 4c3e
00000080: 7107 2b3e b064 2c3d 1873 c2bc 61f6 473e
00000090: 9262 53be 0bf5 40be ab36 75be 3644 243e
000000a0: 2ae8 253e 0570 c9bc 2086 77be 4703 fb3d
000000b0: 719f 0dbf ebe1 cd3d 9a76 5b3e 959b 1cbe
000000c0: 4918 0ebe e401 7a3e cf17 34bd d91d 19be
000000d0: 8fed 983d bc30 9f3e 2ef5 cbba 7ae8 8dbe
000000e0: 9dae a83e 8045 cd3d 4000 c63e fde6 51be
000000f0: 5547 5cbe d144 25be 95d8 a139 0e71 51be
0.34474528 0.053589467 -0.30217522 0.25236154 -0.030315984 -0.09782601 -0.009511945 0.14963664
0.07098046 -0.13756312 -0.37211844 -0.12827487 0.20278856 -0.26176926 0.11262304 -0.1288113
0.37497658 0.24784453 -0.08121333 -0.10991745 0.23976265 -0.19823028 -0.057068937 -0.10149502
0.1291718 -0.12032615 -0.3141165 -0.12727444 0.25410336 0.005712041 0.18562573 0.19975589
0.16702057 0.04208821 -0.023736522 0.1952758 -0.2064307 -0.18843476 -0.23946635 0.16041645
0.16201845 -0.024589548 -0.24172258 0.122564845 -0.55321413 0.10052856 0.21431962 -0.15293725
-0.13876452 0.24414784 -0.04396802 -0.14952792 0.07467186 0.3109187 -0.001556074 -0.27716428
0.3294572 0.10023022 0.38672066 -0.20498271 -0.21511586 -0.16139533 0.0003086968 -0.20453283

fc2.weight f4 [64, 64]
00000000: 56dc cfbc 9cc7 edbc f267 253e c499 adbd
00000010: 0be2 1c3d 7a6e 283d f800 64bd 7ed0 1fbd
00000020: 589c 113e a30c c6bd 12cb b0bc 0921 a53b
00000030: a55f 1a3d 7622 17bc fa8a 5fbd 80aa c33d
00000040: 2378 a23c e612 d0bc bc8f 0a3e 2b3b f23c
00000050: 175f d4bd 58cd c13d bfa4 9c3d 643a adbd
00000060: f82e 4e3d 1a14 24bd 2bc8 1b3e e259 a9bd
00000070: 3c9e d5bd b63b 67bd 3f48 153e fb6f 1c3d
00000080: ff1d ac3d 2f68 9e3c f11b cc3d 0d0c b63d
00000090: e8ec 72bd b138 993d d668 bfbd 6c4c bb3d
000000a0: 5900 f63d 9d20 3e3d c969 263e a93e b23d
000000b0: f8d1 dd3d 6863 2fbd 0aa8 e8bc 6d06 253e
000000c0: d985 32bd 3ce8 2b3d 129a 9dbd 87c7 b3bc
000000d0: e366 cc3d 9d3a 1c3c 6216 0e3e bf96 9ebb
000000e0: 818e 27bd 3407 15bd 47c3 383d f835 613d
000000f0: f400 bbbd ffac c73b a155 6abd 62eb d43d
00000100: 5d6d 0bbe 2c08 2fbe a3fd 423e 9cb1 e53d
00000110: 71aa dc3d 1605 b23d 2c83 bebd 055c b5be
00000120: 2943 47bd a475 313e f798 be3d 916f f43d
00000130: c28a b03c 735d b93e 0fb2 353d e344 fabd
00000140: 3665 25be 9f36 29be a351 373e 7219 62bd
00000150: 2011 753c 1315 9bbe 1717 bdbe b6ce b2bd
00000160: 3b98 4c3c 2036 4cbe 71fa 0bbe 8212 16bd
00000170: dcf1 5abe f089 bcbd 3b66 bebc c4ca a6bc
00000180: 239d 0d3d b58a 853d 82ce 74be 13e4 c0bc
00000190: 771d 7bbd 449b 203e 83f8 22bc 3c4a b23d
000001a0: b058 22be 3341 2e3e 3820 fabc a174 b03d
000001b0: 3587 1e3f 55e0 acbd 711f 4b3e e937 6abd
000001c0: 2856 61be 9768 bbbd fba2 be3c 4273 cc3c
000001d0: 4801 01be 7377 ad3d 1128 15bd 5117 723e
000001e0: ba2e 323e 7a24 59be 8f48 8ebe ae4e 0ebe
000001f0: d916 8fbd 6a5a 32be 4234 263c 5feb 953e
00000200: b539 07be 1b2a 393e 020e e03d 3bed fd3d
00000210: 21aa 73be f47c 3ebd 628c 8bbc 11be 00be
00000220: f7b4 3ebd e30b 7f3e 64e3 123c dafc 163e
00000230: 3999 44be 1659 6ebd f39d c8bc d62d d33d
00000240: ce9f 75bd 9bcc c2bc f2ba 3b3e 2736 d3bd
00000250: cb04 e7bd b9a3 1d3e 68b2 34bd 54a4 9abd
00000260: 7ddd 3f3d 8221 bebd e631 37be aa0e 42bd
00000270: 1138 453d e405 623e f756 0cbc 1ebc e4bc
00000280: b005 a53d 7e17 8d3d 897f 3fbe 10b6 79bd
00000290: 7b2b 9b3d d9d5 993a 091d d2bc a4a5 80bd
000002a0: a004 e93b 3a97 c7bd f56c 533e 87b6 6e3b
000002b0: 1343 10be 7d55 cabc 9607 20bd 632f 523e
000002c0: 3dcc bdbe b5a5 ea3d ed30 3bbe ef45 03be
000002d0: 3732 2bbd 3170 7bbd ddd7 283e 244c ac3c
000002e0: d985 e73d 2b47 843d 9559 babd 5013 793e
000002f0: fedc 863e f151 1ebe 14f3 7a3d 6cd3 bcbd
00000300: c8e8 a43d 4481 fc3d 39f0 cf3c a6b1 8dbd
00000310: 384c 0b3e b83b 44bd 5af9 f53d 2eee e5bd
00000320: d0d1 8e3c 3dca debd c7e1 4cbe 1602 323e
00000330: b898 733c c9af 5abe 7866 46be b478 d0bd
00000340: 2870 cb3d 0192 9bbd 6c09 41bc 8349 803c
00000350: b652 00be 14e6 1c3d 126d 503d 8b90 c8bb
00000360: 3c29 c33d 913d 82bc 5310 8d3d 4921 81be
00000370: a2cd 33bd f074 c13d 746d f8bd e3d5 95bd
00000380: 8fcb 99bd 4b50 aebd a0af 923e ac3a 1fbe
00000390: bc3e 0e3e 6a2a 96bd 5424 053e 99f9 71bd
000003a0: f54a 0dbd 4d22 b0bc fb84 3a3e e1ee 473e
000003b0: c979 fc3c 2388 d4bc 485d 06bd e0d9 86bc
000003c0: acdc 403c 9e33 b6bd 9314 833e f319 2a3d
000003d0: ca60 82bc c085 773c d382 15be 81b4 5b3e
000003e0: b895 6b3d fbc2 6cbb 43ab 85bd 5161 a83c
000003f0: f95c 363d d4d1 853d 5e06 f13d 9635 453e
-0.025373619 -0.029025845 0.16152933 -0.08476594 0.03830151 0.041120984 -0.055664986 -0.039017193
0.14219797 -0.09670379 -0.021581206 0.0050393385 0.03768887 -0.009224525 -0.054575898 0.09554005
0.019832676 -0.025399636 0.13531393 0.02956923 -0.103696994 0.09462994 0.0764861 -0.08458403
0.05033776 -0.040058233 0.15213077 -0.08269097 -0.104305714 -0.05645343 0.14578341 0.03819273
0.08404159 0.019336788 0.09966267 0.08889017 -0.059307963 0.07481516 -0.09346168 0.09145436
0.12011785 0.04641782 0.16251291 0.08703358 0.10831064 -0.04281941 -0.02840044 0.16115732
-0.04358468 0.041969523 -0.07695402 -0.021945728 0.099805616 0.009535459 0.13875726 -0.0048397477
-0.040907387 -0.036383823 0.045108106 0.05498311 -0.09131041 0.006093621 -0.05721057 0.10396458
-0.13615938 -0.17092961 0.19042067 0.11215517 0.107746966 0.08692376 -0.09302363 -0.35421768
-0.048648033 0.17330033 0.093065195 0.11935342 0.02155054 0.3620411 0.044359263 -0.1222017
-0.1615189 -0.16524743 0.17902236 -0.055200048 0.014957696 -0.30289516 -0.3693168 -0.08730833
0.012487466 -0.19942522 -0.13669755 -0.036638744 -0.21381325 -0.09205997 -0.023242107 -0.020360358
0.034573685 0.06520597 -0.23906901 -0.023546254 -0.061307397 0.15684229 -0.009946945 0.08705565
-0.15854144 0.17017059 -0.030532941 0.08615995 0.6192506 -0.084412254 0.19836213 -0.057182226
-0.22005522 -0.09150808 0.023271075 0.024957303 -0.12598145 0.08470049 -0.036415163 0.23641707
0.17400637 -0.21205321 -0.27789733 -0.13897201 -0.0698678 -0.17417303 0.010144295 0.29281136
-0.13205607 0.18082468 0.10940172 0.12398764 -0.23795368 -0.046505883 -0.017034713 -0.12572505
-0.0465593 0.24906878 0.008965347 0.14744893 -0.19199075 -0.058190428 -0.024489379 0.10311477
-0.059966855 -0.023779204 0.18333033 -0.10313063 -0.11280211 0.15394486 -0.044115454 -0.07550874
0.046842087 -0.09283735 -0.17890128 -0.047377266 0.048149172 0.2207256 -0.008565656 -0.027921733
0.080577254 0.068892464 -0.18700995 -0.060964644 0.075766526 0.0011736705 -0.02564861 -0.062815934
0.007111147 -0.09745641 0.20647033 0.0036424713 -0.14088087 -0.024698967 -0.039069735 0.20525889
-0.37069884 0.11457387 -0.18280382 -0.12819646 -0.041795935 -0.06138629 0.16488595 0.0210324
0.11304826 0.06458887 -0.09099118 0.24323773 0.2634048 -0.15460946 0.061266974 -0.09220013
0.08052212 0.12329343 0.025383102 -0.069186494 0.13603294 -0.047908515 0.12010451 -0.1122707
0.01743403 -0.10878418 -0.20008002 0.17383608 0.014867954 -0.21356119 -0.19375026 -0.10179272
0.099335015 -0.075962074 -0.0117820315 0.015660053 -0.12531552 0.038305357 0.050885268 -0.0061207465
0.09529349 -0.015898498 0.06887879 -0.25220707 -0.04389728 0.09446132 -0.121302515 -0.07316186
-0.07509529 -0.085114084 0.28649616 -0.15549725 0.13891119 -0.073323086 0.1300214 -0.059075925
-0.034495313 -0.02150073 0.1821479 0.19524719 0.03081979 -0.025943821 -0.032803804 -0.016461313
0.011771362 -0.08896564 0.25601634 0.041528653 -0.015915293 0.015107572 -0.14600687 0.21455576
0.05751583 -0.003612696 -0.06526806 0.020554217 0.04452226 0.06534162 0.117687926 0.19258723

fc2.bias f4 [64]
00000000: 7b2c ee3d 0f04 fcbd 942d 843d 432b 05bd
00000010: 65cc b5bd 745c 68bc f82a f5bd bf20 26bb
00000020: 7130 df3c 1d68 f3bd 99e9 e13d 9846 733d
00000030: b59d 0a3e 02d2 3abd d9d8 b8bd 9b30 a23b
00000040: 3eb1 b03d 54e4 b7bd 0e58 963d 6632 f9bd
00000050: 6d61 1dba 2721 0ebb ec97 e63d 5620 84bc
00000060: a4c1 dabc 8e39 43be 8bf2 c2ba 9c02 583d
00000070: 7191 a13d 8cf2 833d 7607 0cbb deab 9dbc
00000080: 7f75 00be 6af4 0d3e 17f0 44be 6961 c73d
00000090: 06d7 a43c 7b71 3a3e 79e1 153e d4af 12be
000000a0: 1a3f d53d 5b34 f7bd 0593 86bd 0f9b 28be
000000b0: f476 0c3d 2543 ecbd ce41 06bc 78f0 babc
000000c0: 67d4 74bd 5076 9a3d 3bed 20bd a011 75bd
000000d0: bea7 953d 26f9 083d a45f bebc 0c91 61be
000000e0: a57f a7bd cdf3 45bd 97b7 d7bc 7075 71bd
000000f0: eafe 4c3d 766e a73c 588b 6fbd 4dcc 183c
0.11629578 -0.123054616 0.06454006 -0.03251196 -0.08876876 -0.014182199 -0.11971086 -0.0025349108
0.027244778 -0.118850924 0.11030883 0.059393495 0.13536723 -0.045610435 -0.090257354 0.004949642
0.08627556 -0.08979097 0.07341014 -0.12167816 -0.0006003592 -0.002168724 0.112594455 -0.0161287
-0.026703663 -0.19064924 -0.0014873309 0.052736863 0.07889069 0.064427465 -0.0021366752 -0.019246992
-0.12544821 0.13862768 -0.19232212 0.097353764 0.020122062 0.18207352 0.14636792 -0.14324886
0.10412426 -0.12070533 -0.065710105 -0.164654 0.03429313 -0.11536244 -0.0081944 -0.022819743
-0.059772875 0.075420976 -0.03928874 -0.05983126 0.07307385 0.03344073 -0.023238964 -0.22027987
-0.08178643 -0.04832821 -0.02633266 -0.058949888 0.050047792 0.020438414 -0.058482498 0.009326053

fc3.weight f4 [9, 64]
00000000: afc5 0cbe 29bd 8bbd 5503 153c e3b9 6cbe
00000010: b883 67be 9e80 abbd 7790 73be 46e0 ebbd
00000020: b63c 6d3d 01f3 a0be a522 cbbd 43b2 9ebd
00000030: 9f4d ba3b d787 993c 2241 5fbc 0eb8 34bc
00000040: 2ae8 c8bc 4c27 29bd 8e8f 66bc 59ea 6fbe
00000050: fde9 95bd f893 683e 76aa 9fbc e499 633d
00000060: 2525 0ebe a234 01be ded9 493e b11a b43d
00000070: 7e4c a53c 05b5 603e 43c6 3e3c 51bf f73d
00000080: cbb9 b13c 86a3 3a3d a147 ccbd f3d0 0bbe
00000090: 242f 08be 7e43 9539 06a2 c33d 5b3b fc3d
000000a0: 7382 fabd f7ca c8bc 2777 37be aed2 a6be
000000b0: 54a8 44be 8e3a 51be e8a8 973d cbaf 813e
000000c0: 8c63 1ebd 2be4 833d aae8 b4bd 62aa 61bd
000000d0: 9106 583d 26c9 d93d da47 98bd ad1d 8d3e
000000e0: 03a9 8abe 2a8d 9a3d 811c 733e 25f8 073e
000000f0: c56d b43b cfe4 213d d526 7c3e 2b59 92be
00000100: e46b e9bd aa0b 96be df07 053e a0d6 4ebd
00000110: c71f df3d bb09 1bbd bd2d 25bc df73 04bd
00000120: 941b 2abe 8b88 663d 55a9 a43c 3849 33bc
00000130: 9ed5 92be 844a d4bc 6ce2 dfb7 bd05 163e
00000140: 4e4c a3bd 7020 c73d e2f1 e63c 124f 0dbe
00000150: cdf7 183e 5290 4e3e 48c0 03bc a484 7bbd
00000160: 4ece 09bd 8b29 8e3d fbbf 60be 3b32 a4bc
00000170: 11ba acbe 2082 26bd 6a1c 2f3e 4c7a 0cbe
00000180: 8913 ab3d 9d3e ab3d cc82 dd3d b3d4 71bd
00000190: 09d9 28be 97cf 0bbe 4873 57be dc1a 47be
000001a0: 5c77 073d 3650 293c 8422 4e3d 388d 49bd
000001b0: 9770 35bc e634 35bd 08b5 82bd 7ef5 a53d
000001c0: 40e0 b9bd c1ae bebd 826c c33d 83c1 85be
000001d0: 4453 3b3d e912 113b 9b91 0fbe 9538 91bd
000001e0: 74e1 8a3e 7b79 57bc ff6f 723d 67e1 bb3d
000001f0: 48dd 2d3d b486 4f3d a150 d63d f21e fdbd
00000200: 14c7 c8bd 7bc2 1c3e d83a bcbe b36b c53d
00000210: 44de 8c3c 2946 fbbd a3df 8abe c6ff 25be
00000220: 9257 c5bd d409 f0bc ecd6 1c3d fec4 c33c
00000230: 42a3 5f3d 1ab5 9e3d ca10 073d 58d8 973d
00000240: 9345 e1bd 4c7f 4cbd 2e5d 123e aa12 ce3d
00000250: b27f 943d 0d71 533e 9e61 11bc 302d cbbd
00000260: 9443 3fbe a056 a2be 8c11 3f3e c355 edbd
00000270: 3c29 fbbd 2630 5a3d a01f 283d 9da8 c0bd
00000280: 7b63 983d 4421 973e 18a8 3bbe a3d4 2f3d
00000290: 850a 973c 5243 40bd cfed 94bd 4176 0b3e
000002a0: 2b11 42be 5c90 cebe 27af e83d 7e4e 643e
000002b0: d26f f23d e1ba d03d 56a4 bbbd 59c7 b83d
000002c0: dc40 2dbd b1ad 17be e501 87bd ed23 e23d
000002d0: 9185 31be 2ba6 31be 924a 0cbe 1d57 80be
000002e0: e4df ca3c 4d89 dabd e4c9 8a3e f5ed 543d
000002f0: a770 783d 5c75 82bc 73dd 613b 33b7 babd
00000300: 9e4d c1bc 4656 89be cc90 7abd 1d12 b4bd
00000310: 32d0 5c3d 2730 39be 671a 3d3d c50c e53d
00000320: 096a 7cbd 8d88 333e 6be8 c7bd 0ac9 183e
00000330: 036c a83d 0ecf 72bd ff81 a4be 47f2 cb3d
00000340: d68c 5f3c 3432 f63d d5e6 e1bb cb3b fc3d
00000350: 1160 163e 1f01 443e bbfe 54bb 9dc7 e03c
00000360: ba50 7d3d e640 98be 677c f4bd 8b0f 08bd
00000370: cbad 603d b28f 1f3e 6a7d a2bd 62ca 8e3d
00000380: ab99 953d 7a9e 133e 2441 f83d 6f00 90be
00000390: ef14 77bc 4072 933d 4c74 5a3e b596 273e
000003a0: ee14 c63d fb13 fb3c e732 0bbe bed0 f7bc
000003b0: 8f7d a13d a9fe 3bbe 67f4 58be c7c7 c73d
000003c0: 0fc1 983d 9e1a 22be f78a 00be 54bb d63d
000003d0: 4ef2 50bb bbca 963d 187b 7ebd 9bb3 16bf
000003e0: 83cd 60bb 09df c6bc 5e04 533e 5f11 053e
000003f0: 2e77 0c3d 232c 77bd 8bec 683e 6530 5abe
-0.13747285 -0.06823189 0.009095033 -0.23117785 -0.2260884 -0.08374141 -0.23785578 -0.11517386
0.057919227 -0.31435397 -0.09918717 -0.077488445 0.0056855227 0.018741531 -0.013626369 -0.01103021
-0.024524767 -0.041297242 -0.014072312 -0.2342924 -0.0732002 0.22712696 -0.019490462 0.055566683
-0.13881357 -0.12617734 0.19712016 0.087941535 0.020178076 0.21944053 0.011643949 0.120970376
0.021695038 0.045566104 -0.099746 -0.13653927 -0.13299233 0.0002846978 0.09552388 0.12316009
-0.122319125 -0.024510844 -0.17916547 -0.3258261 -0.19204837 -0.20432493 0.07405263 0.25329432
-0.038669154 0.06440004 -0.0883344 -0.05509413 0.052740637 0.10634069 -0.074355796 0.27561703
-0.2708207 0.07546456 0.23741342 0.13278253 0.0055062496 0.03952485 0.24624188 -0.28583655
-0.11397532 -0.29305774 0.12991284 -0.05049765 0.10894733 -0.037851077 -0.010081706 -0.032337066
-0.16612083 0.05628256 0.020100275 -0.01094275 -0.28678602 -0.025914438 -2.6689107e-05 0.14650626
-0.07973538 0.09722984 0.02819151 -0.13799694 0.14938278 0.20172241 -0.008041449 -0.061405793
-0.033644013 0.069415174 -0.21948235 -0.020043483 -0.33735707 -0.04065144 0.17100683 -0.13718528
0.083533354 0.08361552 0.10815963 -0.059040736 -0.16489042 -0.13653408 -0.2104007 -0.1944384
0.033072814 0.010334065 0.050325885 -0.049206942 -0.011074207 -0.0442399 -0.06382185 0.081034645
-0.090759754 -0.093106754 0.095421806 -0.261242 0.045733705 0.0022136515 -0.14020388 -0.0709087
0.27125132 -0.013151522 0.05918884 0.091738515 0.04244736 0.050665572 0.104645975 -0.12359418
-0.09803596 0.15308563 -0.36763644 0.096396826 0.017195828 -0.12269241 -0.27123746 -0.16210851
-0.09635843 -0.029301561 0.038290903 0.023897644 0.054599054 0.07749386 0.032974996 0.07414311
-0.10999598 -0.049926087 0.14293358 0.10062154 0.072509184 0.20648594 -0.008873371 -0.09920728
-0.18678123 -0.31706715 0.18659037 -0.115886234 -0.12263724 0.053268574 0.041045785 -0.094071604
0.074408494 0.29517567 -0.18325841 0.042927396 0.018437633 -0.0469392 -0.07271921 0.13619329
-0.18951862 -0.40344512 0.11361533 0.22295567 0.11837734 0.10191894 -0.09162204 0.090223975
-0.042298183 -0.14812352 -0.06592158 0.110420085 -0.17336108 -0.17348544 -0.13700321 -0.25066462
0.024764962 -0.10670719 0.27107155 0.051984746 0.06065431 -0.015925102 0.003446427 -0.09116974
-0.023596581 -0.26823634 -0.061173245 -0.08792517 0.053909488 -0.18084775 0.046167757 0.11184076
-0.06162456 0.17532559 -0.09761127 0.1492044 0.082237266 -0.059279494 -0.3213043 0.0995832
0.013644418 0.12021294 -0.0068939724 0.12316092 0.14685084 0.19141053 -0.0032500464 0.027438933
0.061844565 -0.29737014 -0.1193779 -0.033217948 0.054853242 0.15582159 -0.07934077 0.06972195
0.073047005 0.14415923 0.121217996 -0.2812533 -0.015080675 0.07199526 0.21333426 0.16366084
0.09671961 0.030649176 -0.13593636 -0.030250903 0.078852765 -0.18358864 -0.21186982 0.097549014
0.07458698 -0.15830466 -0.12553011 0.10484949 -0.0031882706 0.073628865 -0.06212911 -0.58867806
-0.0034302182 -0.024276273 0.20607135 0.12994908 0.034293346 -0.060344826 0.22746484 -0.21307524

fc3.bias f4 [9]
00000000: 620a b8bd 5d2b 043e 4220 063d 1663 193c
00000010: 18ff 07bb 1c69 29bc 410a 213d 38b1 d53b
00000020: 760e d6bc
-0.08986355 0.12907167 0.032745607 0.009362003 -0.0020751413 -0.010340001 0.03931642 0.0065213703
-0.026129942
