policy_p2.pt (torch, 24092 bytes, 6 tensors)

fc1.weight f4 [64, 9]
000000 88 9c d9 3d 92 9d f5 bd 53 54 9a 3e 19 80 71 3d
       0.10625559 -0.11992945 0.3014246 0.058960054
000010 be 3b 9e 3e cd 27 a9 be 13 0b 95 3e 23 0d df 3b
       0.30904955 -0.33038178 0.2911001 0.006806986
000020 1e 62 34 be 6b 65 e4 bc 22 22 c1 be 09 68 bd be
       -0.17615554 -0.027880391 -0.37721354 -0.36993435
000030 eb 96 88 3e ee 28 21 be ab b3 04 3d 10 f8 91 3e
       0.2667764 -0.1573827 0.032397907 0.2850957
000040 ff 36 56 3e 60 65 e8 3d 69 ba 82 3d 6a 87 60 3e
       0.20919417 0.11347461 0.06383211 0.21926656
000050 14 bc 9e 3e 8f 08 b1 bd d1 43 a8 be 60 ed a9 be
       0.31002867 -0.086442105 -0.3286424 -0.33188915
000060 2d 36 f2 bc 53 cb b4 bd 60 39 71 bd e3 55 09 3d
       -0.029566849 -0.088278435 -0.058892608 0.033529174
000070 24 3b 73 3d 7f d5 f8 be 20 8a 56 be 28 6a de bd
       0.059382573 -0.48600385 -0.20951128 -0.108600914
000080 fc 81 4f be 75 3f 1b 3e 71 c1 96 bd 75 4b ea be
       -0.20264429 0.15160926 -0.07361115 -0.45760694
000090 89 87 13 be 5b 4d 9c bd e4 34 24 3e ae 09 2d be
       -0.14407171 -0.07631942 0.16035801 -0.16898224
0000a0 86 ec 53 be a0 65 54 3d 98 ab 53 3e fc 10 76 be
       -0.20695695 0.05185473 0.20670927 -0.24029917
0000b0 92 13 c2 bd 56 10 74 be 28 58 ad 3e 98 c5 30 bd
       -0.09476389 -0.23834357 0.3385632 -0.04315719
0000c0 86 c6 f6 3d 42 f1 59 be 28 f7 42 3e f9 f5 4d bd
       0.12049584 -0.21283439 0.19039595 -0.050283406
0000d0 f6 a3 5a 3e 5d 57 8a 3e dd 96 14 3d 49 d2 3a 3c
       0.21351609 0.27019778 0.036276687 0.011402675
0000e0 cf 78 10 3e 13 ba cf 3d 5b 19 b3 bd a2 18 68 3e
       0.14108585 0.10142913 -0.087450705 0.22665647
0000f0 46 af 5d 3e 6c 9b c6 be d4 af 83 3d d9 52 9e 3e
       0.21648893 -0.38790452 0.06430021 0.30922583
000100 0d 45 af 3d 67 1c a5 be 8a 21 ae be cc a7 d8 bd
       0.08558092 -0.32248232 -0.34009963 -0.1057888
000110 4f 23 6b 3e 33 85 b6 3e 55 80 94 bd 2b b0 21 3c
       0.22962688 0.35648498 -0.0725104 0.009868662
000120 c3 8e 88 3e 05 01 25 be 21 52 cf 3d d7 34 d7 3d
       0.2667142 -0.1611367 0.10123087 0.10508125
000130 dd 97 2e 3e a4 a8 6a 3e 04 01 98 be 27 1e 91 bd
       0.17050119 0.22915894 -0.29688275 -0.07085829
000140 b1 1f 63 be a5 ec aa 3d 51 7b b5 be 0d fe 62 3e
       -0.22180058 0.083459176 -0.35445645 0.22167225
000150 56 8d af 3c 9d 11 ac be 3f a6 0e 3d 7f de 30 be
       0.021429699 -0.33607188 0.034826513 -0.17272376
000160 f1 90 9e be b5 80 8b 3e 04 78 e0 bd 36 bb ce be
       -0.30969957 0.27246633 -0.10960391 -0.40377206
000170 70 29 a9 be 57 75 73 be eb ff a7 3e 38 c4 82 3e
       -0.33039427 -0.2377523 0.32812437 0.25540328
000180 9c 0b 60 3e a9 b5 1f 3e 15 60 28 3e ef 80 52 3e
       0.21879429 0.15596642 0.16442902 0.20556997
000190 fa 75 76 bd a8 f9 a4 3e 43 54 4e 3e e2 35 bd 3e
       -0.060171105 0.32221723 0.20149331 0.36955172
0001a0 33 f9 9e 3e 88 d8 7f 3e ab aa 68 3e 0e ac cc bd
       0.310495 0.24984944 0.22721355 -0.09993754
0001b0 91 08 35 be ad 20 c8 3d e3 ce ed 3d 32 3b b5 be
       -0.17679049 0.097718574 0.11611726 -0.35396725
0001c0 06 a1 39 3e 53 c7 3b 3c 94 36 91 be da 91 c9 3d
       0.18127832 0.011461097 -0.28361952 0.09842272
0001d0 78 f9 48 3e 8b fd 67 3e b6 cb 6d bd d2 9d 8c 3e
       0.19626415 0.22655313 -0.058055602 0.27464157
0001e0 39 b7 1b be 47 00 b7 3e 5e 49 b2 bd e0 e4 b0 3e
       -0.15206613 0.357424 -0.087054 0.34549618
0001f0 04 cb da bd 0f a0 5e 3d 2a 7a 11 3e c5 6d 99 3e
       -0.106832534 0.054351863 0.14206758 0.2996656
000200 50 9a 9e 3e fb df 84 3e 63 80 8f 3e 8a 22 65 be
       0.30977106 0.25952134 0.2802764 -0.22376457
000210 dd 5f 7b be c7 68 99 be e2 37 2c be 58 04 11 bd
       -0.24548288 -0.2996275 -0.16818193 -0.035404533
000220 84 74 f6 bc e1 64 0f be b1 75 c4 3e 69 66 e6 39
       -0.030084856 -0.14003326 0.3837104 0.0004394532
000230 16 3d 37 be 9a eb b4 be 5d 67 9b bd 0b c0 8a 3e
       -0.17894396 -0.35336 -0.07588074 0.27099642
000240 f6 5f 8e 3e 52 bb 69 3e 6c 56 9f be cb 0d a1 bd
       0.27807587 0.22825363 -0.31120622 -0.07863959
000250 c3 69 6d 3e a5 58 a8 be 35 0c 6e bd f7 39 76 be
       0.23184876 -0.3288013 -0.05811711 -0.2404555
000260 03 cf f7 3d 2e 5f a6 be 69 74 ad bd c0 d5 83 be
       0.12100031 -0.3249449 -0.08469469 -0.25749016
000270 cf bc 94 3e 5a c4 f4 3d 22 9a 20 bd a5 69 58 be
       0.290503 0.119515136 -0.039209493 -0.2113405
000280 17 42 ed 3d cd 3a 84 3e 6b b3 67 be b1 2e 81 3e
       0.11584871 0.2582611 -0.22627036 0.25230935
000290 ba 21 1c be ff e4 79 be 2d 60 22 3d fa 8f 71 be
       -0.1524724 -0.24403761 0.0396425 -0.23590079
0002a0 b1 0c 0e be 80 5f 56 3e d1 26 b3 be 43 c5 0c be
       -0.13872029 0.20934868 -0.34990552 -0.13747124
0002b0 22 41 2c bd 69 0a 11 be 0a 04 c1 3e 66 d8 9b be
       -0.042054303 -0.14164127 0.37698394 -0.30438536
0002c0 0a 52 61 be c9 64 a9 3a 1a bd 6f be c9 fc 9f be
       -0.22003952 0.0012923713 -0.2341198 -0.31247547
0002d0 7a 54 64 be 0e 34 b9 be a5 46 d0 be a4 e7 49 be
       -0.2229785 -0.36172527 -0.40678898 -0.1971727
0002e0 96 dc 5b 3e 70 cd 55 be a7 f3 9b 3c 2e 1d fc 3d
       0.21470866 -0.2087915 0.01903708 0.12310253
0002f0 7a 9a 42 3d 8a 5d 97 bd 4a d1 d8 3d 13 7f 9b 3d
       0.0475106 -0.07390888 0.10586794 0.07592597
000300 2b df 4c 3e 33 ad 32 3c ae 89 74 bd 8f 60 30 be
       0.20007007 0.010905552 -0.059701614 -0.17224334
000310 9a 29 0f bd 25 1c 72 be 58 58 b3 be 8f 06 09 3e
       -0.034951784 -0.23643549 -0.35028338 0.13381408
000320 7a 05 82 3e 54 0b 15 3d 77 b0 24 3e d5 9f b4 bd
       0.25394803 0.036387756 0.16082941 -0.08819548
000330 a0 fd d4 3d bc 30 8c be 28 fa 1c 3e d6 53 1c 3e
       0.10399938 -0.2738093 0.15329802 0.15266356
000340 cf 2d 6d 3e d0 ba 2f 3e 75 5e 00 3e af 09 81 3e
       0.23162006 0.17161107 0.12536032 0.252027
000350 35 59 74 bd a6 ba 11 be 07 04 07 be a9 79 21 bd
       -0.059655387 -0.14231357 -0.1318513 -0.039422665
000360 0e 01 9b be ef f4 c0 be 6c f7 5e be ac 90 96 be
       -0.30274242 -0.3768687 -0.21774071 -0.2940725
000370 d9 2a 37 be 8f db 4c be 8e 2e 82 3e 05 e6 46 3d
       -0.17887439 -0.2000563 0.25426143 0.048559207
000380 26 d0 29 bd 80 de 66 3d 74 4a 67 3d 85 0d f2 3c
       -0.04145827 0.056364536 0.05646749 0.029547462
000390 2a e9 59 3e d3 37 8c be 46 3d 5f bd da 21 bf 3e
       0.21280351 -0.2738634 -0.054501794 0.37330514
0003a0 cf 61 08 be 67 11 af 3c cd 5b 94 bd 8b 74 83 3e
       -0.13318561 0.021370603 -0.07244072 0.25674853
0003b0 2c 60 9d 3e 6f 68 10 be 01 dd 15 3e 11 c7 a8 be
       0.30737436 -0.14102338 0.14635088 -0.32964376
0003c0 fb 44 f8 3d 26 39 5e be 06 9c 35 be 30 1f 4c 3d
       0.12122532 -0.21701488 -0.177353 0.04983443
0003d0 0c 2d 1c 3e a7 87 4e be 87 70 a0 bc b7 47 cd bd
       0.15251559 -0.20168935 -0.019584907 -0.10023444
0003e0 69 96 27 3e 49 a5 01 bc 64 6f 96 be e1 4e 84 be
       0.1636597 -0.007912942 -0.2938186 -0.2584143
0003f0 58 9f 74 be 72 67 83 be e3 10 1d be 1f f3 b4 be
       -0.2388891 -0.2566486 -0.15338473 -0.35341737

fc1.bias f4 [64]
000000 fb 69 77 be df ee 32 be 33 ed 3b be 09 0f 14 be
       -0.24161522 -0.17473935 -0.18352203 -0.1445886
000010 65 e2 db 3e ab 35 41 3d 6d 5a b2 3e 60 4b b8 be
       0.42946163 0.047170322 0.34834614 -0.35995007
000020 42 78 da 3e 1e 69 8f bc 93 d9 96 be 04 79 2f 3d
       0.42669874 -0.017506178 -0.2946287 0.04284002
000030 6b 17 d6 be ce 81 0c bd 46 f6 59 be 20 71 81 be
       -0.41814741 -0.03430348 -0.21285352 -0.2528162
000040 9d 21 e3 3c b4 37 3d 3d 07 b9 a6 be d6 07 dc bd
       0.027725989 0.0461957 -0.3256304 -0.10743682
000050 57 df 44 3e 38 52 da 3e 07 ff 8b 3d 7e d0 98 3e
       0.19225822 0.42640853 0.06835752 0.29846567
000060 7e 91 57 be a8 7b 79 3e 3f b0 36 bd 93 a0 89 3e
       -0.21051595 0.24363577 -0.044601675 0.2688032
000070 25 22 c0 3b 26 43 94 be 12 2c 13 be 47 87 0c 3f
       0.0058634453 -0.2895748 -0.1437228 0.54893917
000080 f9 05 dd 3d 4c 0b ca 3e 51 fc 8c 3e 91 7c d5 3d
       0.10792155 0.39461744 0.27536252 0.1042415
000090 e4 9d aa 3e 61 a9 53 be 90 8d b2 3e ab 2c a1 bd
       0.33323586 -0.20670082 0.3487363 -0.07869848
0000a0 7c 5e 64 be a2 ae 0d be 56 6b ac bd 37 8d b0 bd
       -0.22301668 -0.13836148 -0.0841891 -0.086206846
0000b0 13 df fc ba e1 34 56 3e 2c ce 85 bc 06 76 8d be
       -0.0019292556 0.20918609 -0.016333662 -0.27629107
0000c0 2c ae 9b be 15 62 e5 3e db 2b a0 be bc 81 f7 3e
       -0.3040632 0.44801393 -0.3128346 0.48341167
0000d0 d6 ad 86 3d be 62 aa bd 90 fa a2 3e 57 69 7a be
       0.06576125 -0.08319615 0.3183179 -0.24454246
0000e0 eb 18 ae 3e 50 15 0b 3f 90 74 e7 3e 52 f1 8a be
       0.34003386 0.54329395 0.45206118 -0.27137238
0000f0 45 0c 6f 3e e4 de 91 3e e7 74 39 3e db 8d 38 bd
       0.23344524 0.28490365 0.18111001 -0.04505716

fc2.weight f4 [64, 64]
000000 07 1a 9e bb 48 89 d6 bc 96 4d 2f 3d 71 a5 33 3d
       -0.00482488 -0.026188508 0.0427986 0.04385895
000010 37 45 b9 3d 2b 7c 21 be e2 e7 80 bc 7b da 91 3d
       0.09046405 -0.15770023 -0.01573557 0.0712175
000020 59 d7 01 bb af c5 b2 bc 66 d6 45 bb 96 79 a0 3d
       -0.0019812195 -0.021822779 -0.0030187606 0.07835691
000030 e7 66 e2 3d 80 ba 8f 3d 4d ef 57 3e 37 33 2c be
       0.11054783 0.07017994 0.2108738 -0.16816412
000040 1e bf af bd ae 80 37 3d 3d 43 07 3e 22 af d8 bd
       -0.085813746 0.044800453 0.13209243 -0.10580279
000050 ef 48 3a bd a0 1a cf bc f7 ec 13 be 96 cd 35 3e
       -0.04547971 -0.02528125 -0.14445864 0.17754206
000060 cf 69 bd bc ca 6c 01 3e 42 f1 ef 3d f1 e9 6b bc
       -0.023121743 0.12639156 0.11715938 -0.014399038
000070 5e 1a c2 bd 1f 41 a7 bd b2 22 07 3d 7a 14 b8 b9
       -0.094776854 -0.08166718 0.032992072 -0.0003511047
000080 8f f7 9e bd 60 e2 78 3d c7 5b e6 3d ce 09 58 bd
       -0.07762062 0.060762763 0.11247974 -0.052743725
000090 c6 41 75 3d 17 d7 f9 bd aa 73 6e bb 0a 72 fd 3c
       0.05987718 -0.12199228 -0.003638486 0.030938167
0000a0 a7 f5 4a be c4 db 00 be c7 94 41 bd 74 a1 00 be
       -0.19820271 -0.12583834 -0.047261026 -0.1256159
0000b0 96 7f 98 3d 24 78 22 3b 35 47 ae 3d 82 47 2a 3d
       0.0744621 0.0024790848 0.085096754 0.0415721
0000c0 68 ca b9 bd 85 d9 20 3d 4e 30 c8 bd 90 72 46 3d
       -0.09071809 0.039269943 -0.097748384 0.0484491
0000d0 e7 f4 ff bc 63 49 3c be 15 a1 1e 3e 48 dc 64 be
       -0.031244708 -0.1838737 0.15491135 -0.22349656
0000e0 7a f7 c8 3d ed 97 be bd 8b d0 83 3d 2b 73 19 be
       0.098128274 -0.09306321 0.06436261 -0.1498534
0000f0 72 85 0a 3d 08 ed f0 bc 22 ac 96 bd c8 34 cb bb
       0.03381867 -0.0294099 -0.073570505 -0.0062013604
000100 66 76 0e 3e dd 65 df bd d1 0d e7 bd 31 84 0a be
       0.13912353 -0.10908101 -0.11281932 -0.1352699
000110 42 7a 8a 3d 91 a6 9e bd d4 8b 32 3d f4 9d 28 bd
       0.067616 -0.07746614 0.04359038 -0.04116626
000120 89 da 13 3d f8 90 f7 bd 47 34 80 3d 89 06 ba 3c
       0.036097083 -0.120881975 0.06259971 0.022708194
000130 4a 7f e0 bd b8 aa a9 3d 74 19 ea bd b5 7e 9d bd
       -0.109617785 0.08284515 -0.11430636 -0.07690183
000140 53 3c c1 3d 5f 33 af bc d5 00 81 bd 61 c6 df 3c
       0.09435334 -0.0213868 -0.06298987 0.027316274
000150 7b b9 5e 3c 76 03 f6 3c 0d 55 02 be 3e 14 72 3d
       0.013594027 0.030030947 -0.12727757 0.059101336
000160 34 3a 56 3c 20 4f 19 3d cf cd fc 3d 9a ba 0c 3e
       0.0130754 0.037428975 0.123439424 0.13743058
000170 b3 6d 54 bd be 7a 0d be 06 55 43 bd 01 9a 1b 3e
       -0.05186243 -0.13816354 -0.047688507 0.15195467
000180 73 a6 78 3d ec 02 27 3e 58 42 ac 3d 30 73 ca bd
       0.060705613 0.16309708 0.084110916 -0.098852515
000190 12 a7 a1 3d e1 7b a2 bd 23 df 15 3e 4f 61 a8 bd
       0.07893194 -0.07933784 0.14635901 -0.08221685
0001a0 c6 4c 62 bc 70 96 37 bc e1 60 96 bd 38 5c ef bc
       -0.0138122495 -0.011205301 -0.07342697 -0.029218778
0001b0 16 34 00 3d 49 33 38 bc 74 67 2d be 53 1c fc bd
       0.031299673 -0.011242696 -0.16933995 -0.1231009
0001c0 8c 97 a6 bc b2 4d 7f 3d db d5 90 bd 9e 08 e1 bc
       -0.020335935 0.062329955 -0.0707204 -0.02746993
0001d0 4d 5c c5 bd de ce 0d be e8 f7 3a 3d ce be fa bc
       -0.096367456 -0.13848445 0.045646578 -0.03060856
0001e0 d7 5f 19 3e a0 8c 9e 3d 5d b1 0c bc 9b b7 db 3d
       0.14977966 0.07741666 -0.008587209 0.10728379
0001f0 28 12 08 bb 95 76 cd 3c 58 62 99 bd 06 3a 9f bd
       -0.0020762775 0.025080958 -0.07489461 -0.07774739
000200 39 78 8a bd 29 88 91 bd a4 5b e9 bc 16 09 9f 3c
       -0.06761212 -0.071060486 -0.02848608 0.019413512
000210 5a d4 c5 3d b1 74 1a 3c a6 2f 8b bd e5 0c 48 3e
       0.096596435 0.009427235 -0.067961976 0.19536169
000220 5a e8 9e bd 00 eb 09 be 2b d2 e6 3d 9f 84 57 3d
       -0.07759161 -0.13468552 0.11270555 0.05261671
000230 8d 55 7a 3e 82 9b 83 3d fe be c6 bd 58 0c c9 bd
       0.24446698 0.06426145 -0.097043976 -0.098168075
000240 04 11 b9 bd e2 c6 d5 bd c4 71 2c be e6 76 0b be
       -0.090364486 -0.104383245 -0.16840273 -0.13619575
000250 ec 11 07 bd 01 82 6e 3d e5 f7 d1 bd 23 20 c1 3c
       -0.032976076 0.05822945 -0.1025236 0.023574894
000260 09 ee f3 3d 31 c3 37 3d 66 0f a0 bd ea 08 90 bd
       0.11910636 0.044863883 -0.07815437 -0.0703295
000270 42 0a db 3d e9 3a 38 3d 3d 5a c0 3d 96 66 a0 3c
       0.10695316 0.044978056 0.093922116 0.019580167
000280 ca 41 07 bd c9 57 20 bd b7 ed f5 bd 0b 0c 5c 3e
       -0.033021726 -0.03914622 -0.12008231 0.21488969
000290 e1 73 b3 bd 65 69 0d be bb 5e 41 bd 23 e9 b5 3d
       -0.087623365 -0.13809736 -0.047209483 0.08882358
0002a0 01 e4 90 be 2f a8 4f 3d ef 06 05 3d 54 ed 39 be
       -0.28298953 0.0506975 0.032477316 -0.1815694
0002b0 9d 44 18 be f3 c5 20 3e d7 e6 a6 3d 75 a4 eb 3d
       -0.14869924 0.15700512 0.08149498 0.11505977
0002c0 ec e1 80 3d 18 98 17 3e df 2c 80 3e f9 21 2f be
       0.06293091 0.14804113 0.25034234 -0.17102803
0002d0 7c be d5 3d 6b 4a f6 3d bd 82 ac bd 59 84 b6 be
       0.10436723 0.12025913 -0.08423374 -0.35647848
0002e0 e7 da f8 3d 54 6f 76 be 62 cd 95 bd 04 c1 7d 3c
       0.12151127 -0.24065906 -0.07314564 0.015487913
0002f0 14 ca 95 bd 1a 86 43 3d a6 99 c2 3d e4 04 88 bd
       -0.07313934 0.04773531 0.09501962 -0.06641558
000300 1f 41 92 bb 3f da fe bd 6c b3 af 3d 5d 38 69 3d
       -0.0044633294 -0.12443971 0.08579144 0.056938518
000310 63 ff c3 bd 54 ee f6 3c 0e a0 30 be 77 8e e6 3c
       -0.095701955 0.03014294 -0.17248556 0.028144104
000320 28 af b5 3d 4f 19 ca 3d 31 1e 7d bd 2e f8 4c 3d
       0.08871299 0.098681085 -0.06179637 0.05004137
000330 b6 3f 47 3e 78 9f bb 3d 0b 6f 3e be 65 4f e0 bd
       0.19457898 0.091612756 -0.18597047 -0.10952643
000340 34 c9 67 bd f7 56 03 bd e4 f0 11 be 08 5f 9a bc
       -0.056588367 -0.032065358 -0.14252049 -0.018844143
000350 29 fc 58 bd 75 88 0b 3d ec 4e 03 be 8f b4 15 be
       -0.052974854 0.034065682 -0.12823075 -0.14619659
000360 e7 9b d6 3d 80 11 c9 3d b7 e7 30 3d 14 ff 80 3d
       0.10478955 0.09817791 0.04318973 0.06298652
000370 3a 3d 0e bd 0a e8 91 bd 94 6f 19 3e 94 43 6d bd
       -0.03472636 -0.07124336 0.1498397 -0.057925776
000380 98 84 2b 3e c5 5d 2b 3d d1 24 49 be 4c 3f fd 3d
       0.16749799 0.041837472 -0.1964295 0.123655885
000390 09 88 65 3d 58 5b 5f bd f4 52 59 bd d4 53 fe 3c
       0.056037936 -0.05453047 -0.053057626 0.031045832
0003a0 5e 62 78 3d 44 e1 aa be 2f 8a 31 bd 35 bb 82 3d
       0.060640685 -0.3337499 -0.043344673 0.06383363
0003b0 4f da bc 3d fc 83 89 bd 3f eb f3 3d 1b b0 b9 bd
       0.092213266 -0.06714627 0.11910104 -0.090667926
0003c0 3f 84 e6 3a ef ba 6c 3d 8d ff ab 3d 35 ec 1e be
       0.001758702 0.05779546 0.08398352 -0.15519793
0003d0 30 74 8a bc 86 76 24 3b b0 00 bb 3d a6 58 f5 be
       -0.016901106 0.002509506 0.091309905 -0.47919196
0003e0 86 33 e3 3d a7 ac af bd 9f 78 7f be 7b 3b ad 3d
       0.11093812 -0.08577853 -0.24948357 0.084586106
0003f0 0b 9b 00 3e d1 0e 66 bc 97 fa 2c 3e 2a 49 15 bd
       0.12559144 -0.014041618 0.16892467 -0.036446728

fc2.bias f4 [64]
000000 82 a4 c6 3d c6 e4 a9 3d 77 51 c2 bc 9d c1 e8 bc
       0.09699346 0.08295588 -0.023720486 -0.028412635
000010 69 72 69 3c da 31 e7 3b 99 bb fe 3c de 59 1c 3d
       0.014248469 0.0070555033 0.031095313 0.03817164
000020 ae a5 41 3e 0f 8d a8 3d 69 7e dd 3c 54 c2 10 bd
       0.18910858 0.0823003 0.027037816 -0.035341576
000030 48 26 55 3e 58 57 c5 3d f3 98 18 3e e1 07 5d 3d
       0.20815384 0.096358 0.14902095 0.053962592
000040 ec ed 93 3d f0 47 0e 3d af d1 a4 3d 72 d4 9b bc
       0.07223114 0.034736574 0.080478065 -0.0190222
000050 ce 4a cf bc 5c a7 96 3d 1b 7f ce bd f0 bc 53 3c
       -0.025304224 0.0735614 -0.10082837 0.012923464
000060 71 49 4b 3e c5 58 2e 3e 23 43 1b 3e 70 bc 0f be
       0.19852234 0.1702605 0.1516233 -0.14036727
000070 99 c9 ff 3d 71 e0 1b 3e e6 4a ac 3d 09 39 ce 3d
       0.124896236 0.15222336 0.08412723 0.10069472
000080 6c f5 51 3e 93 4b f6 3c 87 d5 26 3e 76 f2 9c 3d
       0.20503777 0.030065333 0.16292392 0.07663433
000090 32 78 c4 bd 6c d6 b3 3c 96 92 33 3d 9c bb 8d bd
       -0.09593238 0.02195283 0.043840967 -0.06920549
0000a0 01 e1 92 3d d0 8b 40 3e d2 4a 2f 3d 9a 74 ec bc
       0.07171822 0.18803334 0.042795964 -0.028864194
0000b0 96 ce 52 3d 1e b4 6a 3c 5c a4 e1 3c 6d 21 5c 3e
       0.051466547 0.01432517 0.027544193 0.21497126
0000c0 49 47 32 be db 4c ab 3d b4 75 4b 3e 6b f3 c1 bd
       -0.17410006 0.083642684 0.19869119 -0.094702564
0000d0 be 91 48 3c a8 6a 16 be 76 12 01 be 03 3e 0d be
       0.012241779 -0.14689124 -0.12604699 -0.13793187
0000e0 97 32 24 be 2e 0c 2d 3d 6e d0 c6 3d 96 6d c7 3d
       -0.16034923 0.042247944 0.097077236 0.09737699
0000f0 57 37 46 3d d6 7a 6a 3c 0d 57 21 3e 03 76 c1 bc
       0.04839262 0.014311513 0.15755863 -0.023615843

fc3.weight f4 [9, 64]
000000 7c 96 0c be 66 26 f5 bd 38 ab 62 3e d1 aa 88 3e
       -0.1372928 -0.119702145 0.22135627 0.26692823
000010 22 7b ef bd 9e 87 e2 bd 6e d3 df bd 33 0f d3 3c
       -0.116934076 -0.11061023 -0.10928999 0.025764083
000020 73 2a 38 be 2d f8 26 be b0 02 fd 3d 39 86 08 be
       -0.17984943 -0.16305609 0.12354028 -0.13332452
000030 00 d3 8a bd 2d db 45 bd 2a a6 db bd 26 43 9d 3d
       -0.06778526 -0.048304725 -0.10725053 0.07678823
000040 e4 c3 17 bb 91 d6 24 3e af 59 af 3c 5e a8 55 3d
       -0.0023157531 0.16097476 0.02140507 0.05216252
000050 92 cb 55 bc 72 e5 5c be 0e f2 b3 bd 5a 61 4a 3d
       -0.013049023 -0.21571901 -0.08786403 0.049409248
000060 bc f1 0e be 55 26 b3 bd f3 dd 36 be 26 3c 69 3e
       -0.13959402 -0.08747546 -0.17858104 0.22776851
000070 69 b9 8d 3c 14 62 9f 3d c5 6f ee bd af 00 84 3d
       0.017300325 0.07782379 -0.11642412 0.06445443
000080 00 dd c4 bd 4e ec b4 bd b9 f1 82 bb 07 72 c6 3d
       -0.09612465 -0.08834134 -0.0039961007 0.09689718
000090 3c 8f 16 be 37 7b 0e be cd 42 21 bd 13 d4 e2 bc
       -0.14703077 -0.1391419 -0.039370347 -0.027689015
0000a0 0e 18 f1 bd 2c 0e 3b be f2 9e 10 be 82 7e 65 bd
       -0.11772166 -0.18267125 -0.14123133 -0.05602885
0000b0 67 84 1a be b3 4d 34 bd e4 5b 1e 3d ba 8f 3b bd
       -0.1508957 -0.044019412 0.038661852 -0.045791365
0000c0 23 3d cf bc 06 93 00 be de 66 bd bd 98 b9 4c 3e
       -0.025297707 -0.12556085 -0.09248136 0.19992673
0000d0 6c 8e 75 be 91 84 96 3e f3 27 36 3d de 80 25 3e
       -0.23980111 0.29398015 0.044471692 0.1616244
0000e0 33 61 7b 3e 43 b4 e8 bd 14 d3 01 be 05 52 06 bd
       0.24548797 -0.11362507 -0.12678176 -0.032793064
0000f0 c4 b1 31 bc 49 b9 92 be 22 c2 86 3c e6 a7 af 3d
       -0.010845605 -0.28656986 0.016449992 0.08576946
000100 53 99 77 bd 48 1b 37 be f5 b4 f5 3b 43 30 10 be
       -0.060448956 -0.178815 0.0074983784 -0.1408091
000110 bb 9d 2f 3d 9a fe c9 3d 1f f1 f9 bd 0d 04 8a 3d
       0.042875033 0.098630145 -0.12204193 0.06739054
000120 ea bc 31 be c9 10 b3 bd ba e9 25 3d 31 e0 a5 3d
       -0.17357221 -0.08743436 0.040506102 0.08099402
000130 ad 62 e3 bc ad 9f 83 bd cd 82 1f be 43 14 cf bd
       -0.027757013 -0.0642694 -0.1557724 -0.101112865
000140 59 44 99 3d dd db d1 3e 86 5c ea 3d 72 6f 3c 3c
       0.074837394 0.40988055 0.11443429 0.01150118
000150 0a 9d 9b 3d ff 93 18 3e 94 f3 28 be 89 d4 f1 bc
       0.07598312 0.14900206 -0.16499168 -0.02952029
000160 e7 64 06 bc 11 be 02 bc 78 63 47 3d a7 2a 13 3e
       -0.008202768 -0.007979886 0.048678845 0.1437174
000170 ae 17 19 be 63 a3 6e 3d 41 db f6 3b 7f 89 21 be
       -0.1495044 0.058261286 0.0075334613 -0.15775107
000180 26 cc 5b bd 30 16 a6 bd 5e 55 0e be d6 94 27 3e
       -0.053661488 -0.08109701 -0.13899752 0.1636537
000190 1a 45 85 be 25 93 0d be f3 5a 7f bd e5 2c 04 3d
       -0.26029283 -0.13825662 -0.062342595 0.032269377
0001a0 af ca a6 bc fe 20 56 bb 7f 2a ad bd 96 e7 20 3c
       -0.020360319 -0.0032673473 -0.08455371 0.009820839
0001b0 e9 60 fe bd 1e a1 1c 3e df 12 49 be 54 b0 73 bc
       -0.12420828 0.15295836 -0.19636105 -0.014873583
0001c0 32 51 03 3e 12 d8 fb bd 7d 9e 08 be 6b 33 45 be
       0.12823942 -0.122970715 -0.13341708 -0.19257896
0001d0 a6 2d 7c 3c 49 74 0b bd 8a 1a 73 3e 18 a9 0b bd
       0.015391743 -0.034046445 0.23740593 -0.034096807
0001e0 75 e1 46 3e 76 e0 bd 3c a3 ca 02 3e fb de 9a bd
       0.19421943 0.02317832 0.12772612 -0.075620614
0001f0 93 6c 83 be 2c 98 7b be 21 f9 c3 bd b8 13 e3 3d
       -0.25668773 -0.24569768 -0.09569002 0.110877454
000200 5e 1b 88 be 54 ee 6e bc ec d6 6b 3d 90 5a 87 3e
       -0.2658338 -0.014583189 0.057578012 0.2643628
000210 36 e7 29 3d 2c cb e0 bd 08 83 b1 bd dc db 3c be
       0.041480266 -0.10976252 -0.0866757 -0.18443245
000220 21 39 08 be 97 2f 03 be c9 86 13 3e 72 23 e5 bd
       -0.13303043 -0.12811123 0.14406885 -0.11188401
000230 3b ff 07 be 4f 74 9f 3d c1 04 1c be f0 26 a7 3c
       -0.13280956 0.07785856 -0.15236188 0.020404309
000240 e5 c9 01 be 6a 35 8d 3e 1c 0f 52 be 26 cb 64 bc
       -0.12674673 0.27579814 -0.20513576 -0.01396445
000250 2a 4c 2f bd 83 d9 3e 3d 51 d8 f9 3d fc 92 f2 bc
       -0.042797245 0.046594154 0.12199462 -0.029611103
000260 de 70 85 bd 61 60 99 bd e7 97 28 be 6b b6 63 3e
       -0.06515668 -0.07489086 -0.16464196 0.22237556
000270 b6 a9 3b bd 1c bc 25 bc fc 57 cd 3d fd 03 11 be
       -0.045816146 -0.01011565 0.10026547 -0.14161678
000280 cd 6c ab bd d9 0b 73 3c bc c5 d7 bc 71 92 29 3e
       -0.083703615 0.014834368 -0.026339404 0.16559769
000290 52 27 42 3e ca e3 8c bd a7 cb 71 3d ec cc 68 3d
       0.18960312 -0.06879385 0.05903211 0.056836054
0002a0 c9 d9 e9 bd 97 6d c7 bd 8e d4 15 bd 2c 01 8d bc
       -0.11418492 -0.097376995 -0.03657966 -0.017212473
0002b0 b1 3f c0 bd e6 52 96 be ef 6b b6 bd 0c ce 4b bd
       -0.09387148 -0.2936012 -0.089073054 -0.04975705
0002c0 89 75 41 3e 56 6a 6a bd 00 8c 9f bd dd c5 d6 3d
       0.18892492 -0.057230316 -0.07790375 0.10486958
0002d0 ff 89 4b be 41 9c 19 be 6d f3 e5 bd 03 2a 44 3c
       -0.1987686 -0.15001012 -0.112280704 0.011972907
0002e0 84 a4 8e 3e 55 ea 08 be 56 a0 4e 3d ef a0 ac bd
       0.2785989 -0.1337064 0.050445877 -0.08429133
0002f0 3b df da 3d 9a ad 82 3d 57 09 fc bd 66 ae 85 bb
       0.10687109 0.06380768 -0.12306469 -0.004079628
000300 9d 0c 17 be 66 b9 eb bc 77 bb 03 be 10 65 86 3e
       -0.14750905 -0.028774928 -0.12864481 0.2624898
000310 fd e5 13 be 28 02 03 be 2d 3f c0 bc a3 34 46 be
       -0.14443202 -0.12793791 -0.023467625 -0.19356017
000320 11 22 48 3d e2 bc 9c bd d2 22 8f 3d 72 c8 d6 bd
       0.048860613 -0.07653214 0.06989063 -0.10487451
000330 a7 d4 ad bd 89 fc f5 bd 1c f2 39 3c b1 eb 36 be
       -0.08487826 -0.12011058 0.011349227 -0.17863347
000340 f9 25 ac 3c 50 93 77 bd 83 13 17 bd 9e d7 59 bd
       0.0210142 -0.060443223 -0.036883842 -0.053184144
000350 3a eb 5b bc c2 ad a4 3e 82 8b d5 bd d7 fc 52 bd
       -0.013422782 0.32163817 -0.10427 -0.051510658
000360 bd db 16 be 4c a7 8d bd ec 11 00 bd 69 6b 03 be
       -0.14732261 -0.06916675 -0.03126709 -0.12833942
000370 fb ff b8 bc 68 d3 8a bd d6 38 99 bd a0 0e 3d 3d
       -0.022582998 -0.06778604 -0.07481544 0.046156526
000380 ed b7 ee bd 26 b5 90 be 48 c6 a0 bd be 14 36 3e
       -0.11656175 -0.28263205 -0.07850319 0.1778135
000390 ee 0c 47 be b9 0c b5 bd 50 33 45 be 8e 40 5c be
       -0.19438526 -0.08840317 -0.19257855 -0.21509
0003a0 71 46 37 bd 90 b7 11 be 3e cd 7b bc ef f7 85 3e
       -0.044744913 -0.1423018 -0.015368758 0.2616572
0003b0 45 9c 03 be 12 5a b8 be 23 c4 b6 b9 6f 86 aa 3d
       -0.12852581 -0.36006218 -0.00034859878 0.083264224
0003c0 c9 ed 47 bd 4b 19 22 3d 2a e0 a0 bd fd 88 d3 bd
       -0.048810754 0.039574903 -0.07855256 -0.10328863
0003d0 5e a5 13 3e ec 38 82 3e fd b8 4f 3d 8f de ac 3e
       0.14418551 0.25434053 0.050713528 0.3376355
0003e0 93 73 ba 3b 35 a3 2b 3d fe 80 b5 3d c2 80 ef bd
       0.005690047 0.041903693 0.08862494 -0.116944805
0003f0 e8 bd a6 3d 49 f4 60 3b 8e 0b 30 3d 7c 04 0e 3e
       0.081416905 0.0034325293 0.04297977 0.13868898

fc3.bias f4 [9]
000000 01 ba 42 bd ec ef bd bd 75 3a d6 bd cc fb bc bd
       -0.04754067 -0.09274277 -0.104603685 -0.09227714
000010 6f a0 62 3d 89 f5 bc bd a0 c5 a8 bc 2f 1d 38 be
       0.055328783 -0.092265196 -0.020602047 -0.17979883
000020 f3 63 9a bc
       -0.018846488
